model.pth (torch, 217945 bytes, 10 tensors)

lstm.weight_ih_l0 f4 [256, 9]
00000000: dc8d 1dbd e871 0cbd d0a3 d33d a6ac a0bd
00000010: dc43 283d ba7e fdbd ba23 f9bd 1c4a cb3d
00000020: b2a0 f53d d001 133d aa46 c73d 8cb9 b83d
00000030: 44af 6e3d ca54 f1bd ec81 7dbd 60aa c1bd
00000040: 3c6e cc3d 6638 f6bd b076 353c 3cd2 c1bd
00000050: 76ff e73d 3cd1 f4bd e296 f9bd 9aa2 d03d
00000060: ce34 a2bd 3ce4 abbd 6693 e5bd 620a 813d
00000070: 9896 28bd e01c 903b bc7a 9f3d 304f 273d
00000080: 6c00 4b3d 04f6 1c3d 3cb7 a4bd d074 9a3d
00000090: 7094 17bc 3c5e 853d 685a f13d 38d9 a43d
000000a0: 48a4 f9bd befc 963d 58ed ad3c 480e d8bd
000000b0: 8c8c 38bd 126a f93d a0d6 663c 6026 acbc
000000c0: 94df 183d 3e46 c8bd 60ca 75bc e0f2 453d
000000d0: 202f a03b c6c0 cd3d 68e6 1cbd e89c f33c
000000e0: 26d1 cf3d 4aa9 dcbd 48f5 a03c 6e1d f3bd
000000f0: 38d4 313d baff aabd ba67 bf3d b8c6 3b3d
00000100: 04aa d6bd 8cf2 57bd 80a4 a83b d032 ef3d
00000110: 9a95 a0bd 0e2c e83d 1826 f03d 0e4a bf3d
00000120: e86c 7bbd 7496 313d e06d f03b 48ac 693d
00000130: 34c5 4bbd 02f1 b4bd 8ac4 c0bd e2d6 dfbd
00000140: c80d 62bd 2626 babd 8486 92bd f86e 9e3c
00000150: 7070 53bc 043e 31bd 324d a8bd 8c64 123d
00000160: 4816 9fbd 7687 bcbd 4056 11bb c68b f83d
00000170: f053 e03d 1e99 d9bd 0aec e63d 243b 693d
00000180: 08f9 6d3d 8acc 96bd 409f 99bd f2a6 a5bd
00000190: c0fa bebd fc8a 60bd 50f3 4e3c 1876 9b3c
000001a0: 600b b03d c4ae 0f3d f0b1 8dbc 221e f43d
000001b0: c08e 7abd e069 a33b f44d dd3d 60b2 013d
000001c0: 08e3 a5bc 222f e8bd 1e86 8fbd a26d 83bd
000001d0: 6891 95bc 947a 08bd d2a4 fb3d 306b 2d3d
000001e0: 5493 afbd 0483 db3d 20d0 073c f666 ee3d
000001f0: 3098 dcbd ec23 7b3d 04b6 62bd 7042 30bc
00000200: b082 2dbd c21f cfbd 38ff 0f3d 64af 343d
00000210: f8b0 8d3d 18f3 c83c 5473 b93d e224 b4bd
00000220: 9038 d33d d8b3 babd 64f1 d2bd f85a f5bc
00000230: 18df b7bc 30c8 19bc b859 db3c ecf7 81bd
00000240: e80b f1bc 80bd db3b c29f 90bd b8e0 803d
00000250: 0e23 8dbd 9a94 af3d a4fa 6abd 386c fe3c
00000260: 7021 f73c 882c 3a3d 924b c8bd 4421 173d
00000270: 207f 843c 7e87 db3d 2642 fbbd 1095 16bc
00000280: 6c94 893d 8cf8 113d 008f 04bb 28c1 b3bd
00000290: b074 c2bc a6e0 d73d 1c14 e0bd 8480 7b3d
000002a0: 3a65 8ebd 50f1 6c3c 303a 65bc e68e b13d
000002b0: d069 debc d278 dbbd d6a4 c83d a0fc 973b
000002c0: 98ad d83c ec26 a6bd 80d0 bfbc cca7 a63d
000002d0: 90e6 91bd 2866 f13d 404f f93d fee4 b23d
000002e0: 4a16 e83d 34c1 a0bd e057 debc 90dc 30bd
000002f0: 56ce ee3d f8a1 2b3d 60f4 9fbd b2ec 9a3d
00000300: 040c 15bd 802f 043d 9024 e6bc 4866 dbbd
00000310: 40d0 933b b47f c0bd 6ecc 9f3d 4068 323d
00000320: 8c0a 583d 84c0 3fbd 9c69 2abd e81e 99bd
00000330: fa0f d63d 60c5 583d 78e8 0f3d 929e 8c3d
00000340: 105e 96bd dc6c a63d 2aac ef3d 9e79 9d3d
00000350: 960c f33d 2af1 99bd d8de b83d c8fe ff3d
00000360: 76ee a83d 18ee efbd b429 b83d 40c7 673b
00000370: 2448 6fbd 10f3 2d3d 22b9 f03d 6eee 9d3d
00000380: d44d 903d 5655 d9bd 00f1 15bb 8c2b d43d
00000390: e89b eb3c d8cd 40bd 6cac b1bd 165a 8a3d
000003a0: cca9 473d 7004 743c 7078 6fbd e657 aabd
000003b0: 0c8c 02bd 3ce5 b73d b4e3 363d c028 3e3b
000003c0: f234 973d 8080 823a 1062 793d 1095 34bd
000003d0: 844a 13bd a0bd 62bc 32bb 86bd 90d4 a8bd
000003e0: a015 b3bc 8626 823d 7298 dd3d a4d7 e5bd
000003f0: fc9e 55bd 6c22 673d 80f6 b1bb aea7 9cbd
-0.038465366 -0.034288317 0.10333979 -0.0784543 0.04108034 -0.12377687 -0.121650174 0.099262446
0.11993541 0.0358904 0.09730275 0.09019765 0.058272615 -0.1178375 -0.06189148 -0.094563246
0.09981963 -0.12022476 0.011075661 -0.09463927 0.11328022 -0.11953971 -0.12186982 0.10187264
-0.07920228 -0.083931416 -0.11209755 0.063008085 -0.041159242 0.0043979734 0.077870816 0.040847003
0.04956095 0.038320556 -0.08042762 0.075418115 -0.009251699 0.065121144 0.11784822 0.08049244
-0.12189537 0.073724255 0.021231338 -0.10549599 -0.04505591 0.121784344 0.0140892565 -0.021014392
0.037322596 -0.09779023 -0.015001863 0.048327327 0.0048884302 0.10046534 -0.03830567 0.029737905
0.10147314 -0.10774477 0.01964821 -0.11870848 0.04341528 -0.08349557 0.09345956 0.04584381
-0.10481647 -0.052721545 0.005146563 0.116796136 -0.07841034 0.11336528 0.11726016 0.09340297
-0.061383158 0.043356374 0.007337317 0.057049066 -0.049748614 -0.08835031 -0.09412487 -0.109296575
-0.055188924 -0.090893075 -0.07154563 0.019340023 -0.012905225 -0.043272033 -0.08217849 0.03574042
-0.07767922 -0.092055246 -0.0022176653 0.12136035 0.1095351 -0.10624908 0.1127549 0.056941167
0.058098823 -0.073632315 -0.07501078 -0.08088483 -0.093251705 -0.054820046 0.012631252 0.01897721
0.085959196 0.03507878 -0.017296761 0.1191981 -0.061171293 0.0049869865 0.10805884 0.031664252
-0.020249858 -0.11337115 -0.07008003 -0.06417395 -0.018257812 -0.033320025 0.12287296 0.04233855
-0.085730225 0.107183486 0.008289367 0.11640732 -0.10771215 0.061313555 -0.055349365 -0.010758027
-0.04236096 -0.10113479 0.035155505 0.044112578 0.0691852 0.024529979 0.090552 -0.08796097
0.10313523 -0.09116334 -0.10299948 -0.029950604 -0.022445247 -0.009386107 0.02677618 -0.063461155
-0.029424623 0.00670594 -0.070617214 0.06292862 -0.06891452 0.085732654 -0.057367936 0.031057462
0.030167311 0.045452625 -0.09780039 0.03689696 0.0161739 0.107192025 -0.12268476 -0.009190813
0.06717762 0.035637423 -0.0020226836 -0.08777076 -0.023737282 0.10540895 -0.109413356 0.06140186
-0.06952901 0.01446183 -0.013990924 0.08669834 -0.027150065 -0.10716404 0.09797065 0.0046382695
0.026449963 -0.081128925 -0.02341485 0.081374735 -0.071240544 0.11787063 0.12173319 0.08735083
0.11332376 -0.078493506 -0.027141511 -0.043179095 0.11660449 0.041902512 -0.07810283 0.07564677
-0.036388412 0.032271862 -0.028093606 -0.10712868 0.0045109093 -0.093993574 0.07802664 0.04355645
0.052744433 -0.046814457 -0.041604623 -0.07476598 0.10452266 0.052922606 0.03513381 0.068661824
-0.0734216 0.08126232 0.117027596 0.07689212 0.11867635 -0.075167015 0.09026879 0.124997675
0.08248608 -0.11715335 0.08992329 0.0035366565 -0.058418408 0.04246813 0.11754061 0.077114925
0.070460945 -0.1061198 -0.0022879243 0.103598684 0.028760865 -0.047071308 -0.08675465 0.06755464
0.048745915 0.014893636 -0.058464468 -0.083175465 -0.03187184 0.0897927 0.04465075 0.0029015988
0.073831454 0.0009956509 0.060884535 -0.04408747 -0.035959736 -0.013839155 -0.065786734 -0.08243668
-0.021860898 0.06355004 0.10820092 -0.11222771 -0.052153572 0.05642931 -0.0054309964 -0.0764917

lstm.weight_hh_l0 f4 [256, 64]
00000000: 50c7 2cbc cc6a 39bd 888c 933d 9888 d1bd
00000010: 8809 83bc dc6d c13d 2cb3 f53d acac 43bd
00000020: 1e25 81bd c01e 26bc 4006 d53c 6240 aabd
00000030: 505e 88bd dc21 b6bd 9629 c33d 7c30 05bd
00000040: f8f0 933c a043 cebd eca9 c73d 5e94 9e3d
00000050: 8c79 37bd 80df 5a3d 6c71 bf3d f0c4 933c
00000060: 60ad afbc 003f 663d f469 383d 74c0 90bd
00000070: 50c6 b7bc aa73 82bd e428 533d 7497 b13d
00000080: 5642 b7bd b006 62bc 3875 e23c 1463 c83d
00000090: a8ce 52bd 1057 0c3c 5ea4 dc3d 64e6 dc3d
000000a0: 1ac7 bc3d d043 12bd f84c ffbc 9808 5fbd
000000b0: 1807 233d 14e4 4bbd aee9 ad3d f0ed da3c
000000c0: 68ba a23c 7e16 efbd a867 a93d 9cea 353d
000000d0: aee4 9f3d 789c 603d 96a4 b93d 1499 ac3d
000000e0: 344f f33d 7869 623d 10d2 b7bc 801f 863a
000000f0: 186c 823c 9014 79bd 564d ddbd 8e48 fbbd
00000100: 3e38 b83d 208b a63b 506b 80bd b805 eebd
00000110: 5099 f6bd 2079 b6bd 00d7 a4bc 007e 473b
00000120: 9699 a03d 7802 0d3d c64c f7bd b06f 4fbd
00000130: 806a 653c b821 c9bd 68cd e43c 8468 ebbd
00000140: 8021 bc3d 3030 e4bd 10fd 2d3c b030 eebd
00000150: ce30 a1bd 60e7 e93b a07c f6bc fe24 aebd
00000160: ee7a 9b3d 9a11 e7bd e085 69bc 8474 d7bd
00000170: 98fb aabd 48d8 94bd 80ff a7bc d0e5 3bbc
00000180: 7856 bf3d b860 93bd 3490 553d 60c4 753c
00000190: fe8c ffbd a016 503d f032 993c 02d7 8abd
000001a0: 5c52 f8bd f869 59bd 6018 62bd b08e 243c
000001b0: 0e0a 92bd 6227 d4bd 105d 62bd 94ef 94bd
000001c0: 1809 17bd b227 86bd d6ac f8bd 000a 02bb
000001d0: d410 a8bd 8075 c7ba 00d4 2bba bc3a 19bd
000001e0: 30d8 803d b878 23bd 24f9 f63d bce2 47bd
000001f0: 3013 0a3c 0001 45ba c238 bfbd ca72 a83d
00000200: 10af ca3d ecd3 803d 8093 133c fa9a 9cbd
00000210: 94ee aa3d 401e 2b3d 1096 fd3c c817 8b3c
00000220: b038 0ebd ac04 843d 889e 9d3c 52bc c53d
00000230: 36b3 90bd c0ec da3b 4a64 d43d 0c33 18bd
00000240: c0e9 133d a025 cebd 145d d4bd b40f f03d
00000250: 70e4 2cbd cc1f 7a3d 68c7 9c3c 00e0 94b9
00000260: 06c1 a0bd baa6 fe3d 181b 4fbd 18ed 193d
00000270: 4c6c 12bd b88f 203d dc04 b8bd f864 8bbc
00000280: 388a ef3d d8c4 4c3d 7c9c d03d 9c61 99bd
00000290: 8e7d b8bd acd1 49bd b013 9cbd 5078 f9bd
000002a0: 1812 4fbd b437 83bd 3af4 b33d 9e8a c4bd
000002b0: 86d1 cd3d e86c b03d a4c6 2fbd 7eb2 e4bd
000002c0: 44d6 aebd 787e e53d b0df bfbc 18a3 c83c
000002d0: a8c6 fcbd 408f 803b 9428 9d3d 3c2d cbbd
000002e0: 76f4 8c3d a03e 723c 54af ecbd be09 b2bd
000002f0: 6e3a b33d d882 63bd 5cee a0bd 76e3 833d
00000300: 686b 3bbd 181e ee3c b69b 9f3d 06f3 aa3d
00000310: 4024 b93d 609a 89bb 307f 48bd 44d1 90bd
00000320: 5ca1 793d 305b 803d 7c08 6d3d 80f7 073c
00000330: 8887 a4bd ea78 f1bd 080f cbbc fcf7 6e3d
00000340: c080 17bd a4a8 32bd d006 ccbc 1ed9 f9bd
00000350: a06b cf3c 30e2 c73d 8490 e3bd 1ce3 363d
00000360: 9094 f73d a064 4f3d 68b6 fa3d 985f a63d
00000370: a0cb 56bd 24a3 84bd 5408 f83d 6805 dcbd
00000380: d016 873c e4fb 5b3d 0042 dd3a 9488 10bd
00000390: ce51 bf3d 1453 873d 7819 ebbd 7e58 873d
000003a0: 400a 85bb 2085 ad3b f489 efbd ea6a fc3d
000003b0: 0c30 003d c0af 3bbd fe8b 95bd 0050 e8bd
000003c0: 16c3 a7bd a889 c63d e03f b4bd 5403 6fbd
000003d0: 007b 953d 3852 833c 527d a33d 1873 483d
000003e0: 4895 d9bc c0b8 c43c b84d 5f3d 5092 65bd
000003f0: fa98 abbd 30f4 6bbc a891 95bc e41e da3d
-0.010545567 -0.045267865 0.072045386 -0.10231131 -0.015995756 0.09444782 0.11997065 -0.047772095
-0.06305908 -0.010139167 0.026003957 -0.08313061 -0.06658614 -0.08893177 0.09529416 -0.03251694
0.018059239 -0.10071492 0.09749207 0.077431425 -0.04479365 0.053435802 0.093478054 0.018038243
-0.021444976 0.056212425 0.04502292 -0.070679575 -0.02243343 -0.063697174 0.05155267 0.086714655
-0.089481995 -0.01379554 0.027643785 0.09784523 -0.051466614 0.008565679 0.10773538 0.10786131
0.09217663 -0.035709202 -0.031164631 -0.054451555 0.039801687 -0.04977806 0.084918365 0.026724786
0.019864276 -0.11674212 0.08271724 0.044413194 0.07807289 0.05483672 0.090645954 0.08427635
0.11880341 0.055276364 -0.022439033 0.0010232776 0.015920684 -0.060810626 -0.10805766 -0.12269698
0.08995102 0.005082503 -0.06270468 -0.116221845 -0.12040961 -0.089098215 -0.020122051 0.0030440092
0.07841794 0.034426183 -0.1207519 -0.050643623 0.014002442 -0.098208845 0.027929977 -0.11494544
0.09186077 -0.111420035 0.010619417 -0.1163038 -0.07870637 0.0071381778 -0.030088723 -0.085031494
0.07591806 -0.11282654 -0.01425311 -0.105202705 -0.08348769 -0.07267815 -0.020507574 -0.011468366
0.093426645 -0.07196182 0.052139476 0.015000433 -0.12478064 0.050802827 0.018701047 -0.06779291
-0.12125084 -0.053079575 -0.055199027 0.010043785 -0.07130824 -0.10359074 -0.055264533 -0.072722584
-0.036873907 -0.0655054 -0.12142341 -0.0019842386 -0.08206335 -0.0015217513 -0.0006554723 -0.03740953
0.062912345 -0.03991005 0.120592386 -0.048800215 0.008427426 -0.00075151026 -0.093369976 0.08225019
0.09896672 0.06290421 0.009007335 -0.07646747 0.083462864 0.041776896 0.030955344 0.016979113
-0.03472203 0.064462036 0.019240633 0.0965506 -0.07065432 0.006681055 0.10370691 -0.037158057
0.036111593 -0.1006577 -0.10369316 0.11721745 -0.042210042 0.06106548 0.019138053 -0.00028395653
-0.07849316 0.12434144 -0.050562948 0.037579626 -0.03574781 0.03919956 -0.08985302 -0.01701592
0.11696285 0.049992412 0.10186097 -0.07489321 -0.09008323 -0.049272224 -0.076209426 -0.12181151
-0.050554365 -0.06407109 0.08786817 -0.09596752 0.10049729 0.08614522 -0.042914048 -0.11166857
-0.08536962 0.112057626 -0.023422092 0.024491832 -0.12342578 0.0039233267 0.07673755 -0.09920737
0.06882565 0.014785439 -0.11556879 -0.086932644 0.08751379 -0.055544704 -0.078579634 0.06439869
-0.045756727 0.029067084 0.077933714 0.08347134 0.09040117 -0.004199311 -0.04894942 -0.07071164
0.0609449 0.06267393 0.05786942 0.008298755 -0.08033663 -0.11790641 -0.02478744 0.058341965
-0.03698802 -0.04361786 -0.024905592 -0.12199615 0.025319874 0.09759939 -0.111115485 0.044650182
0.12088883 0.050633073 0.122418225 0.08123702 -0.052440286 -0.06476429 0.121109635 -0.10743219
0.01649037 0.05370702 0.0016880631 -0.0352865 0.09341775 0.06607643 -0.11479467 0.066086754
-0.00406006 0.0052954108 -0.11696234 0.1232508 0.03129582 -0.045821905 -0.07302092 -0.11343384
-0.081915066 0.096942246 -0.08801246 -0.058352783 0.07298851 0.016030416 0.07982887 0.048937887
-0.02656044 0.024013877 0.054517478 -0.056047738 -0.08378787 -0.014401481 -0.01825793 0.10650423

lstm.bias_ih_l0 f4 [256]
00000000: f092 7a3c 94ad 1bbd c0cd 40bc 44a2 71bd
00000010: 222e a83d 2cbb 613d 3034 e1bd 1c21 ae3d
00000020: dcc6 7e3d eea3 bf3d 5cdb 52bd 8295 82bd
00000030: 10b7 47bd 5e02 eabd 40c3 cb3b 4cfa 5ebd
00000040: 0ae8 903d cc9d 763d 9ab1 ee3d 44db 0fbd
00000050: 0072 3abd 3072 6b3c 9e18 9f3d 6cc5 64bd
00000060: e8c6 923d fc94 0bbd 0097 063c ae06 ec3d
00000070: 308a 2ebc 8098 e6bd 84de 51bd e605 f23d
00000080: d85b 5fbd ce37 a43d c018 f33d 04b7 c1bd
00000090: a072 7ebc 2854 9dbd 38c4 a5bc 464b 843d
000000a0: 18ec bbbc 508c 2dbd 6a20 de3d 3046 c53c
000000b0: baae 933d 98b7 9d3c a8bf 603d 3abd fe3d
000000c0: 66f7 fb3d 9ecf b2bd 8874 493d 1238 e9bd
000000d0: 12b1 a73d 707f 60bc 009e 84bc 74d1 cc3d
000000e0: d8e9 9ebd c464 cfbd c26c c33d 148b 50bd
000000f0: 3e9e f8bd f2e3 b73d f270 a63d ca7c bcbd
00000100: f0e0 77bc e84c 883d c698 c0bd da32 d93d
00000110: 5278 e43d 9200 813d f80b e83d 063a 9abd
00000120: 14e5 68bd 980f bfbd 10e3 093c d042 9dbd
00000130: d0f0 1e3d b820 5bbd 74c2 5ebd 2068 aebc
00000140: 6ac5 d3bd da89 893d de63 98bd 788e 843c
00000150: f073 de3d 66d2 a63d 2679 debd 6053 81bc
00000160: aec7 dfbd 40c1 053d 84b4 753d 4a3f bfbd
00000170: 2a5c e13d a0f7 3e3d 2077 ff3c d8b1 a0bd
00000180: 901f fdbd 0096 b539 6497 01bd c01f 233c
00000190: c693 90bd b880 b3bc 58cd 8c3c c40f 8c3d
000001a0: b4ea 92bd 1cc2 e3bd eabb b13d ce97 95bd
000001b0: d01d 1d3c a05d 37bd 30d2 903d 8ab6 bd3d
000001c0: 10f6 013c 2a89 92bd d831 41bd 1041 a5bc
000001d0: d269 b2bd 28bc c43d cc6a cbbd a055 133c
000001e0: e03e fa3c 10ca 5b3d 1237 c4bd 2068 9e3c
000001f0: 7046 2c3c 726e b2bd 000c 5939 540d 8b3d
00000200: 3c80 6d3d 48e6 e8bd d0ca 83bc 081f 8c3d
00000210: 0eae bbbd 00cf c4bd 9c14 6a3d b05a 4c3d
00000220: d609 f2bd 3072 71bc c460 483d 906b dc3d
00000230: 50c1 89bc 860b cebd 944e eabd fcad 6b3d
00000240: 60a4 91bc 98e6 ec3d eed1 ecbd b088 323c
00000250: a0c7 c23b e0b9 92bc 4ab7 f73d 40ff 14bd
00000260: 944d a9bd 020c fbbd 80bb 68bd 3895 793d
00000270: dc42 493d b0f7 82bd 0008 03bb 300c 573d
00000280: 44f9 98bd 54d2 c33d dc9f d93d 1258 9e3d
00000290: 2633 ed3d 1e9b 843d c8a1 0a3d c86d c03d
000002a0: b4dd ebbd a422 01bd 7c16 c53d 2067 adbc
000002b0: c089 bebc 70f3 0cbc c0bf 8e3c 208e cebb
000002c0: b496 ce3d bc2a 8bbd 085d 91bd d268 9cbd
000002d0: d8e1 c4bc 887c b83d bcaf febd 44dd 52bd
000002e0: 1edc ae3d f496 d83d 0870 bd3c 4c1c 06bd
000002f0: 287f 4abd 206e 9c3c 20f1 fabc 162e bf3d
00000300: 9617 803d 406d 5abd ecf2 b43d 3636 a13d
00000310: 4072 dcbd 1416 c6bd f4c7 d8bd c000 2bbd
00000320: 30e4 013c 70c2 683c 88c4 923d f038 853c
00000330: 4ae9 b2bd e00a fb3d 9863 c83c 08cf ec3c
00000340: c02b d7bb 7070 f8bd 5068 103d a6be e2bd
00000350: c625 f4bd 5867 c13d 9cda 4e3d c03b 1e3c
00000360: a0ce d23b ba93 f6bd 0ab2 e2bd 34ad d4bd
00000370: ceb0 e73d 5463 6bbd 8214 cabd 8ea8 bebd
00000380: 1895 a5bd 0836 fabc c2c4 c63d 8847 f9bc
00000390: e66f acbd a29a cf3d 0a07 cd3d b299 e43d
000003a0: 4851 3dbd 2026 6e3d 0252 913d 00b7 72bd
000003b0: 48a1 bebc e067 62bc 808d beba 4aab 853d
000003c0: be57 dbbd d2d5 b93d 781e d3bd a601 9fbd
000003d0: 985d 213d 1c56 b23d ae8e b1bd de9e ffbd
000003e0: 683a b13c e6bf bcbd 6019 c1bd c053 c5bc
000003f0: e035 bebd 2ceb 01bd 3449 b93d 1e26 d1bd
0.015293822 -0.038007334 -0.011767805 -0.05899264 0.08211924 0.05511014 -0.10996282 0.08502409
0.062201366 0.09357439 -0.05147873 -0.063761726 -0.048758566 -0.11426233 0.006218344 -0.05443792
0.07075508 0.06020908 0.116549686 -0.035121217 -0.045518875 0.014370486 0.07768367 -0.05585234
0.071668446 -0.03407763 0.008214712 0.115247115 -0.010653064 -0.11259556 -0.051237598 0.11817531
-0.05453095 0.080184564 0.11869955 -0.094587356 -0.015530258 -0.07682067 -0.020235166 0.0645967
-0.022939727 -0.04237014 0.10846026 0.02408132 0.07211061 0.019252583 0.054870278 0.12438436
0.12303047 -0.08731006 0.0491834 -0.11387648 0.0818807 -0.0137022585 -0.016188622 0.100008875
-0.07759446 -0.101266414 0.09542228 -0.050913885 -0.12139557 0.08979024 0.08127011 -0.09203489
-0.015129313 0.06655294 -0.09404139 0.10605402 0.11155762 0.06298937 0.11330408 -0.07530598
-0.05685909 -0.09329146 0.008415952 -0.07678759 0.038803875 -0.053498 -0.054384664 -0.021289885
-0.10340388 0.06715746 -0.07440923 0.016181216 0.10861957 0.08145599 -0.10862951 -0.015786827
-0.10926758 0.032655 0.059986606 -0.09338243 0.11003907 0.046622872 0.031184733 -0.07846421
-0.12359536 0.0003463477 -0.031638518 0.0099563 -0.070594355 -0.021911964 0.01718776 0.068389446
-0.07173672 -0.11121008 0.0867842 -0.07304345 0.009589627 -0.044767022 0.0707134 0.09263332
0.007932201 -0.07155068 -0.047166675 -0.020172626 -0.0871159 0.096062005 -0.09932479 0.008992583
0.03054756 0.0536595 -0.09580816 0.01933676 0.0105148405 -0.08712472 0.00020699203 0.067896515
0.057983622 -0.11372048 -0.01608792 0.06841856 -0.09164058 -0.096097946 0.05714856 0.049891174
-0.11818282 -0.014736697 0.048920408 0.107627034 -0.016815811 -0.10060792 -0.11440769 0.05753897
-0.017778575 0.1156742 -0.115634784 0.010896847 0.0059442073 -0.017910898 0.120955065 -0.036376238
-0.0826675 -0.1225815 -0.05681944 0.06093332 0.049136028 -0.06394899 -0.0019993782 0.052501857
-0.07469419 0.09561601 0.10626194 0.07731642 0.115820214 0.06474899 0.033845693 0.09395939
-0.11516896 -0.031527176 0.09623429 -0.021167338 -0.023259044 -0.008602962 0.017425418 -0.0063035637
0.10087338 -0.0679526 -0.070978224 -0.076371804 -0.024033472 0.090081275 -0.124358624 -0.051480547
0.08538078 0.10575667 0.02312471 -0.03274183 -0.049437672 0.01909548 -0.030632555 0.09334962
0.06254499 -0.053326845 0.08835396 0.07871668 -0.10763979 -0.0967218 -0.10585013 -0.041748762
0.007927939 0.014206514 0.071663916 0.016262501 -0.087359026 0.122579336 0.024461553 0.028907314
-0.0065664947 -0.12130821 0.03525573 -0.110715196 -0.11921267 0.094435394 0.05050145 0.0096578
0.006433323 -0.12039895 -0.110691145 -0.103845984 0.1131302 -0.057467774 -0.09867193 -0.09309493
-0.08085078 -0.030543342 0.09705497 -0.030429617 -0.084197804 0.10136916 0.10011108 0.111621276
-0.046220094 0.058141828 0.0709572 -0.059256554 -0.023270264 -0.013818711 -0.001453802 0.065268114
-0.10710095 0.09073986 -0.10308546 -0.07763986 0.0393959 0.0870783 -0.08669792 -0.124814734
0.021634296 -0.09216289 -0.09428668 -0.024087787 -0.092876196 -0.031718418 0.090471655 -0.102123484

lstm.bias_hh_l0 f4 [256]
00000000: 54ec 95bd 1e04 b33d d092 f0bd da04 9fbd
00000010: 665d acbd 7aad d33d a8e3 92bc 70ad 183c
00000020: 984b 923d c0a3 aabd d4df d13d d8e5 7fbd
00000030: a8e4 893d 6021 a5bc cc4e 7cbd e076 403d
00000040: ec84 fe3d 9a4a 95bd 7473 e3bd 4a28 bb3d
00000050: 18a4 d6bc c049 a53c 2468 0a3d 0802 2abd
00000060: 2402 923d 0423 803d 6c4d 50bd 3c38 593d
00000070: c013 da3d 3053 e1bc 603e 443c cce4 d0bd
00000080: 6875 ec3d d884 94bc 2ae1 c8bd aa13 8fbd
00000090: 462d 993d 1c06 70bd b643 8a3d 10e9 5abd
000000a0: 3c91 fb3d 647d ab3d caaf f9bd 9cc0 663d
000000b0: d43e a63d 5226 da3d 2843 99bc 54e1 f73d
000000c0: c0a4 57bc b43a 2bbd 3a94 86bd 804a 013d
000000d0: 3acf 9e3d 948f 5b3d 301c 0ebd 3032 20bd
000000e0: 9e97 e7bd d055 d3bc 9c16 07bd 32b9 b0bd
000000f0: a4ea 47bd 8074 983d b25f f13d d42c aebd
00000100: ae5f cabd 5803 5f3d 50da 9b3c ac80 dd3d
00000110: 4685 b0bd 1035 c83d c85b f73c 0883 b03c
00000120: ac43 133d 5049 02bc d661 aabd 2a19 e1bd
00000130: e0ad 30bd c0e4 8b3d 7cf4 fa3d 48a6 c4bd
00000140: 808d 1cbd a4df da3d a863 6fbd 8072 4d3d
00000150: 8c9a 2a3d a83c 96bd 4478 18bd 7085 30bc
00000160: 9a22 ccbd a00a d8bc b469 693d e0eb 84bc
00000170: dedb 843d f870 4b3d 5085 4c3c 1838 d13c
00000180: 909a 6a3c 489a b53c 040b d63d e06a d3bb
00000190: 60eb 6d3d 32ff b9bd 14c3 b33d 6c08 b63d
000001a0: 6836 11bd ec58 213d 84f3 38bd 021f c5bd
000001b0: 4868 5b3d 1e0b 973d 1863 4bbd 0496 463d
000001c0: c0bb 6dbb f692 cebd 0448 8cbd 64b4 aa3d
000001d0: ae7f d23d 1a10 a03d 4811 ddbc 16fe b2bd
000001e0: 8cc3 59bd b8e5 4bbd 146d 303d 7002 413d
000001f0: c41c eebd 040d 84bd d088 453d 00a4 a6ba
00000200: 8053 9dbc 5468 2ebd 0e32 9bbd a6a6 cbbd
00000210: 32a3 ee3d 0003 fabd 5e2e b83d 8acc ddbd
00000220: 4837 30bd f4ad ef3d 60d2 eb3b d810 91bd
00000230: 30c0 03bc 78c9 1ebd 2c5e 21bd 386c 07bd
00000240: 5c80 5abd 08a9 d6bd 9ca4 2d3d 70a9 873d
00000250: 8841 d23c 3a0d 89bd 4081 8f3c 0410 393d
00000260: 843c 7dbd b4ca d63d b85d e8bc 38dc b0bc
00000270: 80ff 8d3a d0cc 883d 9854 17bd 4031 ffbb
00000280: 98b1 afbc f821 84bc 28b6 e2bc 10cb 623c
00000290: 54c7 a03d a0e5 90bc 50da e7bd b05a e1bd
000002a0: d46a 243d 6c8c afbd 50f4 2f3d cc2d 503d
000002b0: 049a 0f3d 6a68 85bd b8a5 78bd b6d4 96bd
000002c0: c83a bcbd 4af6 e9bd 2021 5dbc c028 323c
000002d0: 4018 87bd 3c47 2c3d 806f 293c 3041 063d
000002e0: 040c 283d d85b 90bc 341e e1bd 00f4 453c
000002f0: d0c1 f8bc 2e8d b3bd b085 ee3d b860 ef3c
00000300: 72c9 cabd 30c0 86bc bc32 22bd 00e2 453d
00000310: ce10 b4bd 4cc1 593d 005f fcbd 963a fabd
00000320: 4813 ad3c 84ff 9d3d 12c6 ffbd f06f cf3d
00000330: 5e23 de3d 1cde 303d 0079 e43a 32ed 87bd
00000340: 7ca1 e23d fc7e 98bd 22c4 cd3d 8c7a 0d3d
00000350: f08d b4bc cae7 a43d 2a42 a03d 40cc fbbd
00000360: c032 c9bc f0db a03c 00e0 843a 7cca 96bd
00000370: a091 86bd 0207 c5bd c0ec 293b cc78 02bd
00000380: d012 323d 0a92 93bd 16fa dc3d 84ae 31bd
00000390: 783f 99bc 1e5c 8e3d 58d3 33bd c86a 723d
000003a0: 08a7 72bd 882d 0a3d 1ae1 dbbd 8454 4ebd
000003b0: 96a0 be3d 70ac a0bd 9e87 b6bd b8f4 78bd
000003c0: 0012 fabb 9e8f 9ebd 8e14 bf3d 9a67 c73d
000003d0: 6a22 84bd daf9 a53d dcb9 6c3d 3884 e6bc
000003e0: c4b3 57bd d077 1f3c bcbe 013d 9a3f 8b3d
000003f0: 82aa b9bd c8f2 3e3d 4c1b 16bd d667 f03d
-0.07320467 0.0874102 -0.11746752 -0.07764597 -0.08416252 0.103358224 -0.01793082 0.0093186945
0.071433246 -0.08332014 0.1024777 -0.062475055 0.06733066 -0.020157516 -0.061598584 0.046988368
0.124276966 -0.0728962 -0.11106005 0.09138544 -0.026201293 0.020176768 0.033790722 -0.041505843
0.071293145 0.06256679 -0.050855085 0.053032145 0.10648298 -0.027505487 0.011977762 -0.101998895
0.11545831 -0.018129751 -0.09808572 -0.069861725 0.07479338 -0.058599576 0.06751196 -0.053444922
0.12283561 0.08373526 -0.12191732 0.05633603 0.08117452 0.1065184 -0.01870878 0.12103525
-0.013161838 -0.04180403 -0.06571241 0.03156519 0.07754369 0.053603724 -0.03469485 -0.039110363
-0.113082156 -0.025797755 -0.032980546 -0.08629073 -0.048807755 0.074440956 0.117858306 -0.08504644
-0.09881531 0.05444655 0.019024998 0.10815558 -0.0861917 0.09775746 0.030195132 0.021546856
0.03595321 -0.007952049 -0.08319442 -0.10991128 -0.04313457 0.0683074 0.12253663 -0.09602028
-0.038220882 0.10687187 -0.05844465 0.050158024 0.041651294 -0.07335788 -0.03722407 -0.0107740015
-0.09967537 -0.026372254 0.056985572 -0.016225755 0.06487249 0.049668282 0.012482956 0.025539443
0.014319077 0.022168294 0.1045132 -0.0064519495 0.0580858 -0.09081878 0.087774426 0.08888325
-0.035452276 0.039391443 -0.04515411 -0.09625055 0.053566247 0.07375167 -0.04965505 0.04848291
-0.0036275238 -0.10086624 -0.068496734 0.08335188 0.10278259 0.07815571 -0.02698578 -0.08739869
-0.053165004 -0.049779624 0.043072775 0.047121465 -0.1162658 -0.06447795 0.048226178 -0.0012713671
-0.019204855 -0.042579964 -0.075779065 -0.09943895 0.11652221 -0.122076035 0.08993219 -0.10830028
-0.04302147 0.11703101 0.0071967095 -0.07083291 -0.008041427 -0.038766354 -0.03939645 -0.03306219
-0.05334507 -0.10481459 0.04239331 0.066241145 0.025666013 -0.06691976 0.017517686 0.04518129
-0.06182529 0.10487881 -0.028365001 -0.021589383 0.0010833591 0.0667969 -0.03694591 -0.0077878535
-0.021446988 -0.016129479 -0.02767475 0.013842359 0.07850519 -0.017687619 -0.11320937 -0.110036254
0.04014094 -0.08571705 0.042957604 0.050824925 0.03505899 -0.06514056 -0.060704917 -0.0736479
-0.09190899 -0.11423929 -0.013496667 0.010873973 -0.06596422 0.042060122 0.010341525 0.03277701
0.041027084 -0.01762192 -0.10992089 0.0120821 -0.030365855 -0.08767162 0.116465926 0.029220924
-0.09901704 -0.016449064 -0.039599165 0.048311234 -0.08792268 0.053162858 -0.12322807 -0.12218206
0.021127358 0.07714751 -0.12488951 0.10128772 0.108465895 0.04318057 0.001743108 -0.06637038
0.11065957 -0.07446095 0.10047175 0.034540698 -0.022040337 0.08052023 0.0782512 -0.12294817
-0.024560332 0.019636124 0.0010137558 -0.073628396 -0.065707445 -0.09620477 0.0025928468 -0.031853482
0.043474972 -0.07205589 0.107898876 -0.04337932 -0.018707022 0.06951164 -0.043902725 0.059183866
-0.059241325 0.03373483 -0.10736294 -0.05037357 0.09307973 -0.0784539 -0.08912586 -0.060780257
-0.0076315403 -0.077422366 0.09330092 0.09736557 -0.064518765 0.08104296 0.057794437 -0.028139219
-0.052661672 0.009733155 0.03167604 0.067992404 -0.09065725 0.046618253 -0.036647126 0.11738555

lstm.weight_ih_l1 f4 [256, 64]
00000000: 98dd d1bc 3822 913d fc8c c6bd 7822 58bd
00000010: ac80 1dbd 300e ffbc 985f 73bd 9046 693c
00000020: ec31 7fbd 5887 463d 0897 efbd c0c9 de3b
00000030: 20fa c73d e86c f9bc e0f1 9bbd 003a d03b
00000040: e0ea f93b d225 debd 8018 57bb 1c48 bebd
00000050: 761d c23d 0815 edbd 06c8 adbd ba05 eabd
00000060: 84ae 99bd acd7 b3bd 14c1 a5bd 4eec cbbd
00000070: e022 b53b e031 c83d c0df a13b 2c23 78bd
00000080: 0ec2 c0bd daed e53d 4098 893c 7c3e eebd
00000090: 74aa 9b3d 78da 903c 68f4 243d b607 8f3d
000000a0: 946d c03d 6297 993d 061a afbd d4a9 89bd
000000b0: 64f7 12bd f883 69bd 0e72 e33d dca6 27bd
000000c0: 1aa0 c9bd 861e 8b3d 82d5 a43d 402e 2cbc
000000d0: 1e52 f6bd 002c 313d eca1 01bd 4c70 07bd
000000e0: 1c40 4f3d b03b 61bd 08bf 423d ac4a fa3d
000000f0: f2d7 b93d 2096 f03b 8031 a8bc 0860 8b3d
00000100: 9a9a c63d 9825 c6bc 68bf 25bd 8415 b0bd
00000110: 90ec 22bd 5008 3d3c 5814 92bc 5ab2 9b3d
00000120: a49c 5b3d 8878 d6bc c0da fa3b 58d7 fb3c
00000130: 7859 713d 28d5 873c 48c4 78bd 8604 c1bd
00000140: bea3 d9bd 7ad4 b4bd f0c1 bd3d 66cd edbd
00000150: 987c e9bc e692 b4bd 323c d13d c8c3 c83d
00000160: 6e66 8abd 782e 06bd 081d 84bc 2043 4d3c
00000170: bcd5 8b3d ea82 a93d 888e a7bd 1033 14bd
00000180: eca1 563d 4076 d73c 4072 dabc ac7a 5fbd
00000190: 9033 e73d be8a b93d 4003 7c3b 80cd f6bd
000001a0: 0002 abb9 384c 0cbd 7002 2a3c f8b3 fd3d
000001b0: 44eb 98bd a0f5 6a3d 4c72 c13d c0ad 943b
000001c0: b8fc 90bc 940f b03d 1086 eabd 8c8d 203d
000001d0: aa29 f33d f4b1 5abd 8c36 9c3d 46d3 8c3d
000001e0: b026 7bbd fc4a 76bd 547c 6b3d 205f 9d3b
000001f0: 2e84 b0bd b255 e43d 90c7 eb3c 087c 763d
00000200: 9067 cfbd 925c abbd 809f 3fbd 50e1 e43d
00000210: 5025 a0bd d819 cb3c fc7f afbd 700f 7fbd
00000220: 466d b8bd 1621 c7bd 7c9d 0e3d 560f a8bd
00000230: c006 46bc 4acd e5bd 0089 e3ba 7088 183c
00000240: 18ab ee3c 7693 b43d da5b 8ebd a882 b0bc
00000250: 400a 7e3b b0cd 763d 1008 2e3d 048a f23d
00000260: a0dc 953c 4416 e7bd d83d ecbc 92a9 a0bd
00000270: 4cf6 64bd 7e3d 8f3d e8c0 063d 067b 9ebd
00000280: c0de 8b3c ba0f b13d 6232 d1bd cc2e c83d
00000290: 143a 7dbd 00ed b6bd e66e b4bd 8cdc 83bd
000002a0: a8c8 e13c 1809 ebbc 703d d43c 96ab b3bd
000002b0: c8f6 db3d 86bf da3d fce1 e6bd ea2b f73d
000002c0: eaff da3d 0ad8 d43d ac8e fabd 3a20 eebd
000002d0: 9279 903d eaae a9bd 4c02 fcbd 188d f03c
000002e0: 2001 03bd 0008 15b9 2868 d33c d0b1 263c
000002f0: 5473 6b3d 5cb3 e2bd 0048 74bc e4a4 1abd
00000300: 003f b1bb 404b 513d b4f0 e13d c8ca a6bd
00000310: dcfb c2bd b247 a33d ba09 81bd 864d ff3d
00000320: a83a 8cbd c41d dd3d a0fb e9bc 1878 8dbd
00000330: 40cd e73b e066 b43b 18bb 443d e07e c83d
00000340: c027 033b b668 9ebd f04e 40bc 4850 fcbc
00000350: b070 76bd 48b5 70bd dcf5 2dbd 10f4 823d
00000360: be4f bc3d 9253 cebd b0ac 13bd 304a 11bd
00000370: fc58 793d b84d b13c 106f 8abc e02a ef3b
00000380: 689e c1bc ec35 59bd c035 bd3d 9097 3f3c
00000390: c890 2a3d 40c5 9c3b 0046 953a d400 ed3d
000003a0: c01f 9b3b 445a 873d 8e2a ee3d 00bf d43a
000003b0: 4e12 9c3d 6a25 dbbd b409 90bd d48e 513d
000003c0: 58ba 3f3d fcb3 b5bd aac4 be3d 0001 6b3d
000003d0: d24e 853d 084b 9c3c c8cf bd3d e0a1 853d
000003e0: 90f3 82bd 9cbe ba3d 78ff 713d 1e45 d1bd
000003f0: 806f d4ba 8875 4b3d 441f 64bd 2a12 eb3d
-0.02561836 0.07086605 -0.096948594 -0.052767247 -0.03845279 -0.031134695 -0.059417337 0.014238015
-0.06230347 0.048468918 -0.11698729 0.006798953 0.097645044 -0.030447438 -0.07614493 0.0063545704
0.0076268762 -0.108470574 -0.0032821 -0.092910975 0.094782755 -0.11576277 -0.08485417 -0.114268735
-0.07503989 -0.087813705 -0.08093467 -0.09957181 0.005527839 0.09775138 0.004940003 -0.060580418
-0.09412013 0.11227007 0.016796231 -0.11633012 0.07600871 0.017682299 0.040272146 0.069838926
0.093959 0.07499577 -0.085498855 -0.06721845 -0.03588046 -0.05701062 0.111057386 -0.040930614
-0.0984499 0.06792931 0.08048536 -0.010509074 -0.12027381 0.043254852 -0.03164856 -0.03306608
0.05059825 -0.054988563 0.047545463 0.12221274 0.090743914 0.007342115 -0.020531416 0.06805426
0.09697457 -0.024187848 -0.040465742 -0.08597854 -0.039776385 0.011537626 -0.017831966 0.07602377
0.05361618 -0.02618052 0.0076554716 0.030742332 0.058923215 0.016581133 -0.060734063 -0.09424691
-0.106269345 -0.08829589 0.09265506 -0.11611442 -0.028501794 -0.08817081 0.102165595 0.09802967
-0.06757818 -0.03275916 -0.016127124 0.012528211 0.06827876 0.08276923 -0.081814826 -0.03618151
0.052400514 0.026301503 -0.026665807 -0.05456035 0.11289132 0.09059666 0.0038454086 -0.12050915
-0.00032617152 -0.034252375 0.010376558 0.12387842 -0.07466748 0.057363153 0.094456285 0.004537314
-0.01769863 0.08596721 -0.11451352 0.03919749 0.11873181 -0.053392366 0.076275915 0.06876235
-0.061316192 -0.060130104 0.057491615 0.0048025995 -0.08618961 0.111491576 0.028781682 0.06017688
-0.10127175 -0.08367266 -0.04678297 0.111757874 -0.07819617 0.024792597 -0.08569333 -0.06227058
-0.09005217 -0.097231075 0.034818158 -0.0820605 -0.01208657 -0.112207964 -0.0017359555 0.009309873
0.029134318 0.088171884 -0.06951113 -0.021546677 0.0038763434 0.060254753 0.042488158 0.11842731
0.018293679 -0.11283544 -0.028838083 -0.07844843 -0.05589895 0.069941506 0.032898813 -0.077383086
0.017073989 0.08645578 -0.10214688 0.09774551 -0.061822966 -0.08931923 -0.08810215 -0.0643855
0.0275615 -0.02869086 0.025908202 -0.08772962 0.10740429 0.106810614 -0.11273572 0.12068923
0.10693343 0.10392769 -0.12234244 -0.116272405 0.07054438 -0.08285315 -0.123051256 0.029364154
-0.031983495 -0.00014212728 0.025806502 0.01017423 0.057483032 -0.11069366 -0.014909744 -0.03775491
-0.0054091215 0.051097155 0.110322386 -0.08144146 -0.095206946 0.07972659 -0.06300683 0.12465958
-0.06847125 0.10796693 -0.028562367 -0.06907672 0.0070740283 0.0055054277 0.04802999 0.097898245
0.0020012707 -0.07734816 -0.01173757 -0.0308 -0.06016606 -0.058766633 -0.042470798 0.063942075
0.09194897 -0.100745335 -0.03605336 -0.03547114 0.060875878 0.021643505 -0.016898662 0.0072988123
-0.023635104 -0.05302994 0.092387676 0.01169385 0.04164198 0.004784256 0.001138866 0.115724236
0.0047340095 0.06609014 0.116292104 0.0016231239 0.07620679 -0.107004955 -0.07033101 0.051161602
0.04680857 -0.0887222 0.093148544 0.057374 0.065091744 0.019078746 0.09268147 0.06525016
-0.06394112 0.09118387 0.059081525 -0.10218261 -0.0016207546 0.049672633 -0.05569388 0.11478074

lstm.weight_hh_l1 f4 [256, 64]
00000000: 0000 3d36 f84f 4bbd a0a7 8d3b 0254 ddbd
00000010: 6612 c13d 909a 1d3c 98c8 b93d 7ecb ccbd
00000020: d4e5 e83d f826 97bc 1619 d13d 7aa1 d3bd
00000030: 207b a1bb c0f3 58bb e895 e9bc 4e0a ee3d
00000040: e28e 813d 7ac3 913d 4021 17bc 50bc 8f3c
00000050: 4081 f23c 7826 a93c 9c99 ffbd 4070 4dbd
00000060: 38f4 963d acd1 d1bd ccea 2dbd a8c5 203d
00000070: 38aa e13d 1ad9 e5bd c423 633d 20e9 7d3c
00000080: 5e0a 91bd da59 e6bd b6f6 c9bd ece1 a4bd
00000090: 4061 6c3c 60f5 fabc 401f 02bc f0ac 3c3c
000000a0: 8ef1 a2bd 70f8 5abc f81a b43d 5892 523d
000000b0: 70b8 29bd 78f6 d7bd c425 f63d f8e0 debc
000000c0: 9cbb 853d 909f 063d a8ef 7a3d 007c 443b
000000d0: 88f4 f43c c0a7 c7bd 704c 703c 803a 363d
000000e0: 60de 353d b0aa 0abc c2d7 edbd 8038 7d3d
000000f0: 8cb0 9ebd b6d3 da3d 5634 aebd 40f4 95bb
00000100: a0b7 87bc 8cba 363d c83b 803d 8c65 debd
00000110: fc43 5bbd 30cd 923c ce96 ca3d cc8e 16bd
00000120: e0c7 19bc 30a9 51bd acf4 c0bd d8fb 1a3d
00000130: c0a6 6c3c 9824 a83c 248d 2c3d b812 bcbc
00000140: 7a78 f3bd 384e e43d b6d1 c0bd 50cf 40bc
00000150: 14b4 913d a485 243d a60d a93d 9ae5 9abd
00000160: 2024 7dbd 2c24 023d 9804 afbc bc66 5d3d
00000170: f8f6 8abd f480 df3d 3a7a f03d 7275 db3d
00000180: d0d7 a03c 4024 003b d0ab 56bd ce25 8e3d
00000190: ae18 983d c074 fcbc 2cb9 1f3d e828 9cbc
000001a0: 50e4 a83c 78e0 e93c 98e0 cbbc 6cce 42bd
000001b0: 92b7 ae3d 1496 b13d 1851 ecbd c867 2abd
000001c0: a094 203d c4a3 ca3d 2c90 8b3d 188d 6b3d
000001d0: e8ad db3c 303a 7d3c 90ea 453c 301b fe3c
000001e0: b8b0 3d3d d896 f03d 107a e13c f0ef eebc
000001f0: 581f 9fbc e4e7 f7bd 1087 8d3c 7ceb f4bd
00000200: 6edc e1bd d6d2 d6bd 42fe c3bd 8091 41bc
00000210: 4ec6 ab3d 7850 68bd 6abd d6bd 34fa 97bd
00000220: 9c99 fcbd acf8 9bbd 38ad e8bc b0b7 abbd
00000230: 8060 d13c f0fe 553c fc64 21bd 8874 b63c
00000240: 60b6 c73b 7018 823d 48f5 ffbc ac59 db3d
00000250: 8c00 243d 1882 a8bc 78b8 7fbd 6605 cfbd
00000260: 2042 3cbc 18c2 e3bd b00f 28bc ec83 7bbd
00000270: a08c 6e3c 2cb5 05bd 1e40 863d a65c ecbd
00000280: 7885 f53c fc8d 943d 2063 6fbd 0454 c2bd
00000290: ecd4 e9bd d0c7 7fbc eac8 a7bd a0c6 2c3d
000002a0: 88d9 15bd 70fd 1fbc 0679 c63d 2687 ec3d
000002b0: 7403 933d 14ff 8fbd faed ecbd 6489 fa3d
000002c0: c261 bdbd e873 213d bc72 bbbd 84a8 c73d
000002d0: c004 1cbb aadc dbbd ac05 cc3d b8a7 03bd
000002e0: 9e2e eebd 6cc4 38bd fc49 b3bd 8008 0b3c
000002f0: f05b 073c accd 203d f882 b4bd d852 4ebd
00000300: e09c 0c3d 6068 cd3d 6c87 c83d 6698 d2bd
00000310: 1c05 d43d ca57 d8bd 20ec e63c d8c4 9bbc
00000320: 44f1 f33d f85c b83d 6e7d d53d e29f a3bd
00000330: a227 d8bd 7008 24bc c442 c13d 0028 123c
00000340: 04fb c43d b01d 70bd dcc1 643d a419 d5bd
00000350: 18b2 ac3d 78fe 92bc 7864 dabd aac4 b13d
00000360: 4071 58bd 1090 c4bd a0fa 7ebc 281c d33c
00000370: dc61 0f3d 7ad8 823d f884 b43d 121d ad3d
00000380: b88d 81bd a411 43bd 50f5 a1bd 00dc ef3a
00000390: fcba 883d c20d 993d 685e 273d 0aa9 ddbd
000003a0: 1438 cd3d 3646 ce3d 5657 f0bd c4f4 cbbd
000003b0: ecd9 d9bd 5cca f5bd b004 e83d 88f1 4bbd
000003c0: 8695 a0bd c646 b3bd 382a 2abd 92d4 aabd
000003d0: 4802 a8bc 7683 c3bd a071 fcbd a01e edbc
000003e0: 3ae5 cd3d 661c 8bbd 90ce 8c3d 6a05 bbbd
000003f0: 90af b1bd f0fc 86bc 447a 0bbd 74c0 663d
2.8163195e-06 -0.04963681 0.004322961 -0.10807039 0.09427337 0.00961937 0.09071463 -0.099997506
0.11371961 -0.018451199 0.10209863 -0.103335336 -0.0049280077 -0.003310427 -0.028513864 0.11623059
0.06326081 0.07117362 -0.009224236 0.01754585 0.029602647 0.020648226 -0.124804705 -0.050155878
0.073708 -0.1024507 -0.042460248 0.039251 0.11018795 -0.112230495 0.05545403 0.015497476
-0.070820555 -0.112476066 -0.098615095 -0.08050904 0.014427483 -0.030634582 -0.007942021 0.011515841
-0.07956229 -0.013364896 0.087942064 0.051409096 -0.04143566 -0.10545057 0.12018922 -0.027206883
0.06529924 0.032867014 0.06126371 0.0029981136 0.029901758 -0.09748793 0.014666662 0.044489384
0.044401526 -0.008463547 -0.11613418 0.06182146 -0.077485174 0.10684912 -0.08506076 -0.004576236
-0.016567051 0.0446115 0.06261402 -0.10859212 -0.05353163 0.017920107 0.09892045 -0.036757275
-0.009386033 -0.05118674 -0.094216675 0.037837833 0.014444053 0.020525262 0.04212679 -0.022958145
-0.118882135 0.111477315 -0.09414999 -0.011768177 0.07114425 0.040166512 0.08254556 -0.07563324
-0.06180203 0.031772777 -0.021364495 0.054053053 -0.06785387 0.10913268 0.11742063 0.1071576
0.019634157 0.0019552857 -0.052409947 0.069408044 0.07426582 -0.03081739 0.038994953 -0.019062474
0.02061668 0.028549418 -0.024887368 -0.04756014 0.08531107 0.08671203 -0.11538905 -0.04160288
0.03920424 0.09894517 0.06814608 0.057507604 0.026816323 0.0154557675 0.01207985 0.031018823
0.04631111 0.11747521 0.027524024 -0.029167145 -0.019424126 -0.121047765 0.017276317 -0.119589776
-0.11028372 -0.104894325 -0.0956998 -0.011814475 0.08387433 -0.056717366 -0.104853466 -0.07420769
-0.12333986 -0.0761579 -0.02840291 -0.08384645 0.02555871 0.01306127 -0.039402947 0.022272363
0.006094739 0.06352317 -0.031244889 0.10710463 0.040039584 -0.020569846 -0.062431782 -0.101084515
-0.011490375 -0.11121005 -0.010257646 -0.061405107 0.014559895 -0.032643482 0.06555198 -0.11541109
0.02997087 0.07253644 -0.058444142 -0.09488681 -0.11417565 -0.015611604 -0.08192618 0.04218161
-0.036584407 -0.009765014 0.09691052 0.11549215 0.07178393 -0.07031074 -0.11568828 0.122332364
-0.092471614 0.039417177 -0.09152743 0.09748939 -0.0023806542 -0.10735448 0.09962019 -0.03214237
-0.11629985 -0.045109197 -0.08754346 0.008485913 0.008261666 0.039258644 -0.08814043 -0.050371975
0.034329295 0.100296736 0.09791455 -0.10282974 0.10352537 -0.105636194 0.028188765 -0.01901476
0.11911252 0.090021074 0.104243144 -0.079894796 -0.10554434 -0.010011777 0.09436563 0.00892067
0.0961819 -0.058622062 0.05584894 -0.10405281 0.08432406 -0.017943606 -0.10663694 0.08680089
-0.05284238 -0.0959779 -0.015562683 0.025770262 0.035005435 0.06388946 0.08814424 0.0845281
-0.06325859 -0.047624245 -0.07908118 0.0018299818 0.066762894 0.07473327 0.040861517 -0.10823257
0.10020462 0.100719854 -0.11735408 -0.09958795 -0.106372684 -0.120014876 0.11329019 -0.04979089
-0.07841019 -0.08753733 -0.04154417 -0.08341326 -0.0205089 -0.095465586 -0.1232636 -0.028945267
0.10053487 -0.06792526 0.06875336 -0.09131892 -0.08676064 -0.016478032 -0.03405215 0.05633588

lstm.bias_ih_l1 f4 [256]
00000000: 5483 bc3d 300f 813c f8f1 d4bd c864 7b3d
00000010: 04f9 e4bd 8824 abbd b67d b13d 98cd 363d
00000020: d8a0 02bd e0c8 efbc 806d 01bc ccdf 2a3d
00000030: 4084 033b 18fb 913c 5044 5a3d 26da 8d3d
00000040: 48f9 943c f020 30bd 30b7 1fbc 6005 ddbd
00000050: 0c62 cc3d 80bb f3bc 9037 2cbc 7a42 9c3d
00000060: fa3f ba3d bc86 5ebd 0080 3c37 002b a0bc
00000070: 3c2c ba3d 283a 803d 52eb 9ebd 2010 ad3c
00000080: d07a ac3d e257 9b3d de44 853d 5483 5b3d
00000090: ec26 9a3d 48e6 fabd 4631 cdbd a0a3 efbb
000000a0: 8017 2bbb f801 f43c 68f5 c5bc 5ccd 453d
000000b0: c4b5 3dbd c03a b7bc ce67 e63d 4c66 77bd
000000c0: 6873 243d 40d5 063d ca4e c5bd 58b1 823d
000000d0: a8dc d03c 042d 6fbd 1883 af3d 444e 9b3d
000000e0: aa20 96bd 3062 04bc f43c db3d fc75 af3d
000000f0: 0860 ecbc ee6a dabd c8ec 0dbd 80e4 cbba
00000100: f82e 69bd cadc 95bd d0c5 a23d a0ab 3dbd
00000110: 1e70 c8bd 9a80 a13d 707f 74bd fe07 a8bd
00000120: 90cd 3dbc 7076 d9bc 2cd5 5c3d e0f8 29bc
00000130: 9830 84bc 5413 f3bd f6e8 92bd 48c5 28bd
00000140: 9834 ae3c 4206 a7bd 1851 ce3d 724c db3d
00000150: 0859 84bc 64d3 983d 502d fbbc 7813 59bd
00000160: 76ff 99bd 08f5 c7bd f20d edbd 7e2c 9e3d
00000170: 70da d9bd 8c6d 98bd d450 14bd 9050 7fbc
00000180: ec03 4ebd 00eb 17bc 6659 a53d a038 78bd
00000190: 8439 2fbd fc0e cf3d 18a0 dcbc 84a1 d5bd
000001a0: a04e 453c 3c14 cebd e061 b0bc 440b 7bbd
000001b0: 0068 aeb8 f482 31bd fa75 b1bd 70fe 2c3d
000001c0: ccb9 9c3d 9466 c8bd e807 5bbd 80cf a73a
000001d0: 3ac5 91bd f0ae 323d aa62 c6bd b8d0 c23c
000001e0: 1025 633c 1ab9 f5bd 36a9 ecbd c07b 75bb
000001f0: a039 f5bd c007 4a3d a0af 8fbb f084 95bd
00000200: e05d c8bc 301b 0fbc b8da 4abd 0eae e4bd
00000210: b0d5 dd3d d074 4fbd 30d1 0dbd 0043 bdba
00000220: ac7f a83d 5c73 61bd c4b2 bdbd c2b4 813d
00000230: 8087 d13a 30c9 d2bc 6897 9e3d 802b c43b
00000240: 68f1 ca3c 5cbc 1dbd 7861 dbbd a8cd f83d
00000250: 606a af3c 90e0 443d 2203 b9bd ac84 d8bd
00000260: c27c cf3d 1096 653c 5cef 6abd f010 99bd
00000270: 0097 5c3a f6f9 a53d a070 debd 4a53 aa3d
00000280: 3403 f73d 38d7 a73c c045 8abb fa2b 933d
00000290: 18fa 3abd ee0c b7bd 52e9 97bd 765d d03d
000002a0: 620b e53d 60bb 02bd bc88 b03d 8883 2bbd
000002b0: 8e68 c13d 68c7 273d f078 ad3d 0ac3 c3bd
000002c0: 9036 11bd 867a c93d 1450 ca3d 5409 97bd
000002d0: 0c2f eebd 7a4f ef3d e479 b4bd f638 da3d
000002e0: 02ba c63d a0ce f93d e22c a6bd ce02 81bd
000002f0: 6a20 d63d 7ac5 f9bd 2c25 123d 5c1f 7b3d
00000300: 0646 b9bd 2009 ff3b 005d d03d 00be af3c
00000310: a030 a8bd b0f6 bebd 84ef 113d f286 a03d
00000320: 2819 a63c 3ec6 e5bd 96d4 c03d fc2c 75bd
00000330: 864c c8bd aa94 bebd 92aa d63d d077 833d
00000340: d86f 26bd 48d8 d2bd 944a e53d 022e aebd
00000350: bceb dbbd 6eb7 f2bd 2cea 953d 0c32 34bd
00000360: d43a dc3d c4b5 0e3d 3e9b 93bd a8ab 533d
00000370: fee2 b2bd ac39 a73d e815 31bd 9cd0 c83d
00000380: 3ceb c4bd 2455 6d3d e0cc e9bb 402b 64bd
00000390: a4ca f23d 2a8c 9e3d 7030 86bd 20c4 043c
000003a0: 5439 7ebd 64b5 42bd ec8c cfbd 58ae cf3d
000003b0: a860 cebd 72f2 bbbd f60c e13d f469 b0bd
000003c0: 527a f43d 787a e23c c014 973c b845 d73c
000003d0: d095 d4bc b453 ff3d 2a37 dfbd fc6a 42bd
000003e0: 58d1 ebbc b012 733c fa86 903d 9c10 393d
000003f0: b616 dcbd 207e b33c 46b3 fe3d a8af 15bd
0.09204736 0.015754312 -0.103977144 0.06137541 -0.111803085 -0.08356577 0.086665556 0.044629663
-0.031891674 -0.02927059 -0.007899642 0.041717336 0.002006784 0.017819926 0.053287804 0.06926374
0.018185273 -0.04300016 -0.009748265 -0.10792041 0.099796385 -0.029752493 -0.010511294 0.07629867
0.09094234 -0.05432771 1.12354755e-05 -0.019551754 0.09090468 0.062610924 -0.077597275 0.021125853
0.08421862 0.07585122 0.06507276 0.05359204 0.07526955 -0.12250954 -0.10019164 -0.007313207
-0.0026106536 0.029786095 -0.02416487 0.04829155 -0.046315923 -0.022366881 0.11250268 -0.060400292
0.040149122 0.032918215 -0.096341684 0.06381482 0.025495842 -0.05839254 0.08569926 0.07583287
-0.07330449 -0.00808005 0.10704985 0.085674256 -0.028854385 -0.106649265 -0.03464964 -0.0015555769
-0.05692956 -0.07317503 0.07947886 -0.046306252 -0.0978701 0.07885857 -0.059691846 -0.082046494
-0.011584654 -0.026545733 0.053914234 -0.010374278 -0.016136453 -0.11868921 -0.0717334 -0.041203767
0.021265313 -0.081554905 0.10074061 0.1070794 -0.016155735 0.074621946 -0.030661255 -0.052997082
-0.075194284 -0.09763533 -0.115749255 0.0772333 -0.10637367 -0.074427694 -0.036209896 -0.015583172
-0.05029671 -0.009272337 0.08073692 -0.060600877 -0.04277946 0.1011028 -0.026931807 -0.10431197
0.012042671 -0.10062453 -0.021531045 -0.06129004 -8.316338e-05 -0.043337777 -0.0866508 0.042234838
0.076526254 -0.0978519 -0.053474337 0.0012802929 -0.07117696 0.043623865 -0.096867874 0.023781165
0.013863817 -0.11998196 -0.11555712 -0.0037457794 -0.11973882 0.049323797 -0.00438495 -0.073007464
-0.024458826 -0.008734509 -0.049524993 -0.11166011 0.10831773 -0.05064851 -0.034623325 -0.0014439523
0.082274765 -0.055041656 -0.092626125 0.06333305 0.0015985817 -0.0257307 0.07743722 0.005986631
0.024773315 -0.03850971 -0.1071195 0.12148601 0.021413028 0.048065722 -0.09033801 -0.1057218
0.101312175 0.0140128285 -0.057357177 -0.07473934 0.0008414835 0.08104317 -0.10861325 0.083166674
0.12061158 0.020488366 -0.0042197406 0.07186122 -0.045648664 -0.08938013 -0.07417549 0.10174076
0.11183812 -0.031916976 0.0861983 -0.041873485 0.0944377 0.040961653 0.084703326 -0.09558685
-0.035452425 0.098378226 0.09878555 -0.07374826 -0.11630067 0.11685081 -0.08812311 0.10655396
0.09703447 0.12197614 -0.081140295 -0.06299363 0.10455401 -0.12195869 0.03567998 0.061309204
-0.09046559 0.00778307 0.10173988 0.021452904 -0.082123995 -0.09324396 0.03562881 0.07838239
0.020275667 -0.11219452 0.094155475 -0.059857354 -0.09780221 -0.09305699 0.104817525 0.06419337
-0.040634006 -0.102951586 0.11195865 -0.08504869 -0.10738322 -0.11851393 0.07320055 -0.04399304
0.10753408 0.034841314 -0.072073445 0.051677376 -0.087347016 0.08165297 -0.043233782 0.09805414
-0.0961518 0.057942525 -0.0071350187 -0.05570531 0.11855057 0.07741578 -0.065522075 0.0081034005
-0.06206639 -0.04753627 -0.101343006 0.10140675 -0.100770295 -0.09177102 0.109888 -0.08613959
0.11937393 0.027646288 0.018442512 0.026278362 -0.025950342 0.12467137 -0.108991936 -0.04746531
-0.028786346 0.014835998 0.07056995 0.045181856 -0.10746519 0.021910727 0.124365374 -0.036544472
