notebooks/best_model_part_tz.pth (torch, 747098 bytes, 25 tensors)

rnn.weight_ih_l0 f4 [256, 10]
0.10864476 -0.014692123 0.09226337 0.13729401 0.10303758 0.11552582 0.02095162 0.03276136
0.110146046 0.075368784 -0.056700584 0.04438685 0.07046165 -0.08439866 -0.10851532 0.21010014
0.19374783 0.072489135 0.08216436 -0.14409818 -0.069644175 -0.030399403 -0.23322396 -0.075868286
-0.12489845 -0.19712238 0.069184706 0.13408096 0.017299261 -0.054353196 0.06963724 0.11893539
-0.13031481 0.12298814 -0.049559694 0.018707596 0.08519069 -0.022285145 -0.12551701 -0.07419665
0.035085708 0.1108427 -0.090450734 -0.100572 -0.08849734 0.11244134 0.0948099 0.03999911
-0.18564393 0.027686516 -0.04473785 -0.094619796 -0.0020243851 -0.19428231 -0.0780856 0.04257193
0.0444265 -0.1089601 -0.24607429 0.18195552 0.0931012 -0.024953337 0.13639279 0.029985607
0.08681644 3.354085e-05 0.1619865 -0.11199717 -0.1064873 0.045600027 0.015042974 -0.1349224
-0.06631065 -0.15886249 0.13105613 0.03386068 -0.05411195 -0.011359675 -0.12862098 0.1317152
0.17883776 -0.11810845 0.19506495 -0.0458906 0.20375347 0.01499418 -0.14815845 -0.14996149
0.014206576 -0.13242812 -0.051958848 -0.091124594 -0.051874977 -0.11910681 0.055181004 0.08180234
0.12411879 0.07730522 0.04834633 0.06475891 0.01295555 -0.023766115 0.13123913 -0.13032764
0.029761018 0.073376365 -0.041663647 -0.09215727 -0.08774634 0.021282448 -0.034453228 0.0057283537
0.13075233 -0.04307252 0.009294193 0.04941565 0.005554167 -0.17497166 -0.037066244 -0.058815245
0.035609998 -0.023139713 -0.050868377 0.103796914 -0.016823944 -0.03065364 -0.121549465 0.1365095
-0.09384685 -0.11895954 0.038727324 0.12510602 -0.0050621224 -0.049022626 -0.048224006 0.16425088
0.115748495 0.019789385 -0.22411062 0.0065442403 0.003483739 -0.02588862 -0.1349592 0.03937094
-0.098847054 -0.06852261 0.17933445 0.17198639 -0.028744707 0.046445612 -0.14703916 0.023894997
0.02380558 0.013763384 0.07080438 -0.17596476 0.024782224 0.042996373 -0.11711763 0.023064991
-0.0002701713 0.05321445 -0.027424514 -0.064049214 -0.09614466 -0.11632984 0.18289512 -0.06610242
-0.124400824 0.08321672 0.06881074 0.0011962003 -0.02755779 0.09174848 0.011754419 0.13673326
-0.13399121 0.06448424 -0.009322273 -0.10187251 -0.078161985 0.07611378 0.009969681 0.11644522
0.110819004 0.13382052 -0.14005128 0.10445558 0.010761738 0.005784099 0.050380655 -0.095582485
0.13345999 -0.116459616 0.20228025 -0.08917131 0.082681924 -0.07694055 -0.026135366 0.10813127
0.06481025 -0.007421493 -0.10200973 0.18463187 0.07668576 0.1282449 -0.061980527 0.009601348
-0.04177119 0.16373843 0.019486306 0.0074115773 0.11572373 -0.017731534 0.12694573 -0.09292729
-0.062284738 -0.014932787 0.031307902 -0.013029523 -0.033961426 -0.06075492 0.08982232 0.22057158
0.12970738 -0.058013078 0.03311839 -0.11609828 0.08907666 -0.0409027 0.071300834 -0.11537351
0.0653077 0.15987815 -0.0584513 -0.0024135073 0.118298076 -0.03717271 -0.012446977 -0.0022144897
0.07093814 -0.02858958 -0.059828322 -0.055433832 -0.14175159 -0.02189183 0.11949322 -0.065925635
0.12089839 0.22571652 0.029310087 0.037106417 0.035703093 0.13097803 -0.06727644 0.020537991
00000000: 2581 de3d 3bb7 70bc 94f4 bc3d cd96 0c3e
00000010: 5e05 d33d cd98 ec3d bba2 ab3c c730 063d
00000020: 4094 e13d f35a 9a3d df3e 68bd fcce 353d
00000030: 334e 903d 34d9 acbd 483d debd 7e24 573e
00000040: d565 463e 2f75 943d ca45 a83d 798e 13be
00000050: 9ba1 8ebd 2b08 f9bc 43d2 6ebe d560 9bbd
00000060: c2ca ffbd 73da 49be b6b0 8d3d 854c 093e
00000070: 2eb7 8d3c 75a1 5ebd f89d 8e3d 6694 f33d
00000080: 3f71 05be 35e1 fb3d 1bff 4abd ac40 993c
00000090: 7578 ae3d 568f b6bc 8887 00be 6af4 97bd
000000a0: 08b6 0f3d 7f01 e33d 3c3e b9bd b1f8 cdbd
000000b0: 183e b5bd a547 e63d b12b c23d 1bd6 233d
000000c0: 7119 3ebe d5ce e23c 093f 37bd 06c8 c1bd
000000d0: 8cab 04bb f1f1 46be 58eb 9fbd e75f 2e3d
000000e0: 90f8 353d 7926 dfbd e6fa 7bbe 8c52 3a3e
000000f0: d8ab be3d f16a ccbc 8daa 0b3e 60a4 f53c
00000100: d1cc b13d 37ae 0c38 cadf 253e c65e e5bd
00000110: 0316 dabd 18c7 3a3d ce76 763c 1929 0abe
00000120: e1cd 87bd d9ac 22be 9433 063e 7fb1 0a3d
00000130: 7ea4 5dbd ee1d 3abc 38b5 03be 59e0 063e
00000140: 3f21 373e d8e2 f1bd 1bbf 473e c8f7 3bbd
00000150: c0a4 503e 26aa 753c d9b6 17be 818f 19be
00000160: b3c2 683c 3d9b 07be cdd2 54bd 889f babd
00000170: db7a 54bd 45ee f3bd 7a05 623d fc87 a73d
00000180: fe31 fe3d 3352 9e3d cd06 463d 52a0 843d
00000190: 8443 543c 28b1 c2bc 8d63 063e 9c74 05be
000001a0: 61cd f33c 5946 963d 80a7 2abd f3bc bcbd
000001b0: 5ab4 b3bd 8758 ae3c d41e 0dbd eab4 bb3b
000001c0: f0e3 053e d06c 30bd ac46 183c 1168 4a3d
000001d0: bbff b53b c52b 33be c6d2 17bd 41e8 70bd
000001e0: cadb 113d 7f8f bdbc 5c5b 50bd 7a93 d43d
000001f0: 5ed2 89bc 581d fbbc edee f8bd 25c9 0b3e
00000200: c732 c0bd 0fa1 f3bd 8ba0 1e3d cb1b 003e
00000210: 29e0 a5bb f3cb 48bd 8986 45bd 6231 283e
00000220: 8c0d ed3d 591d a23c 417d 65be 1171 d63b
00000230: 714f 643b 5f14 d4bc bf32 0abe 6c43 213d
00000240: 5370 cabd 9555 8cbd 73a3 373e 331d 303e
00000250: 057a ebbc c13d 3e3d 6f91 16be 71bf c33c
00000260: eb03 c33c d17f 613c e301 913d 1b30 34be
00000270: 1704 cb3c f71c 303d 5edb efbd cbf2 bc3c
00000280: c7a5 8db9 65f7 593d 60a9 e0bc 3c2c 83bd
00000290: 7ee7 c4bd 573e eebd dc48 3b3e b560 87bd
000002a0: dcc5 febd 876d aa3d a5ec 8c3d d2c9 9c3a
000002b0: e0c0 e1bc a1e6 bb3d 9b95 403c ce03 0c3e
000002c0: fe34 09be 5010 843d 72bc 18bc 89a2 d0bd
000002d0: 6413 a0bd 8be1 9b3d df57 233c d57a ee3d
000002e0: 13f5 e23d 3f08 093e 9a69 0fbe cfec d53d
000002f0: 0052 303c 8a88 bd3b f25b 4e3d c0c0 c3bd
00000300: bca9 083e 6182 eebd 8e22 4f3e 739f b6bd
00000310: 2455 a93d 0293 9dbd d619 d6bc ed73 dd3d
00000320: 3dbb 843d ff2f f3bb 7aea d0bd 2310 3d3e
00000330: 6c0d 9d3d a252 033e 4bdf 7dbd f94e 1d3c
00000340: 4418 2bbd 0cab 273e bfa1 9f3c d1dc f23b
00000350: 9000 ed3d b941 91bc 10fe 013e aa50 bebd
00000360: 481e 7fbd a6a8 74bc b73c 003d c879 55bc
00000370: 231b 0bbd 27da 78bd c4f4 b73d 84dd 613e
00000380: 03d2 043e 1f9f 6dbd 26a7 073d efc4 edbd
00000390: d36d b63d 9789 27bd 2c06 923d f248 ecbd
000003a0: 0bc0 853d 19b7 233e a16a 6fbd ef2b 1ebb
000003b0: 4346 f23d 6942 18bd 68ee 4bbc f920 11bb
000003c0: 0448 913d b234 eabc 8b0e 75bd 960e 63bd
000003d0: 5427 11be 7f56 b3bc dcb8 f43d 0504 87bd
000003e0: 9399 f73d 3b22 673e b51b f03c e6fc 173d
000003f0: 683d 123d 1b1f 063e 3bc8 89bd 4a3f a83c

rnn.weight_hh_l0 f4 [256, 64]
0.0077759135 0.008818285 -0.110409655 -0.13806537 -0.096936174 -0.02996426 0.045404304 -0.08987885
-0.019648626 0.09606031 -0.063061796 -0.047591522 0.09661896 -0.19665934 0.13023226 -0.102534235
-0.0006185086 0.0900255 -0.062750466 0.02391973 -0.05634197 -0.038661264 -0.117567554 -0.004276884
-0.01518628 -0.033249203 0.10614356 0.12948866 0.049786087 0.037715547 -0.052913964 0.053306065
0.12722415 0.112476386 -0.029305805 0.025576562 -0.014828837 -0.06212518 0.056710362 0.041805573
-0.10330656 -0.055556934 0.020304564 -0.07592277 0.012952085 -0.013443287 0.116505854 -0.1272921
0.10928318 -0.022383494 0.16979778 0.050934825 -0.0030056469 0.047979772 -0.13012981 -0.03682653
0.03475184 0.055267613 0.11462892 -0.017041944 -0.00525696 0.21860032 -0.007124389 0.070795506
0.07297245 0.10951043 0.061902072 -0.011686678 -0.2126898 0.17421524 -0.022780553 -0.007594965
0.105056606 0.01813105 0.0061869896 -0.021930987 0.010387858 0.081306525 0.105971634 0.0001872208
-0.03196183 -0.12896457 0.092248455 -0.13224341 0.032534264 -0.039763324 0.031169025 0.11007709
0.051833026 -0.02913962 0.14228113 0.15381145 -0.011615613 0.09095952 -0.05122861 0.13222316
0.12245267 0.018200235 -0.02924202 0.13826792 0.05261924 0.1848949 -0.055332407 0.03911268
0.10974608 -0.014354976 -0.08786698 -0.09787283 -0.006204072 0.04463888 -0.07280211 0.089906864
0.100690536 -0.008956716 0.01666411 -0.16527651 -0.16622303 -0.13472274 -0.0769897 0.03386744
0.07082326 0.13452679 0.024269804 0.088495955 -0.013603877 -0.13365327 0.09623448 0.06527969
0.1078209 -0.0018800638 -0.009153584 -0.056420114 -0.1237497 0.029805759 0.06717714 -0.052396007
-0.09580948 -0.17743339 0.11927536 -0.002729357 -0.080551855 0.12559977 -0.053502057 -0.054610115
0.049682416 0.060002487 0.1368439 0.14546348 0.095636316 0.08023426 0.04012516 -0.03414672
-0.0029209107 -0.0019591008 0.05551315 -0.061915886 0.042797066 0.10843926 0.116932586 -0.0053334674
0.13140291 -0.113976516 -0.00551452 -0.13105854 0.06745563 0.011149719 0.08967363 0.012654882
0.018824674 -0.019067816 -0.054374304 -0.023223002 -0.12334698 -0.091367714 -0.07849769 0.07773805
0.034185417 0.12843357 -0.0075632087 0.03748904 0.01593653 -0.08570672 0.05664126 0.062859856
-0.060415693 0.18715392 -0.087734036 -0.08248715 -0.04771562 -0.0048081074 -0.037529465 0.12752047
-0.06161569 0.06173239 -0.051861666 -0.054733098 -0.021102367 0.038714707 0.042651605 -0.1249221
0.03144945 -0.002639013 -0.08531491 -0.02624814 -0.164029 -0.005515547 -0.087984994 -0.049364332
-0.042243816 -0.09011995 -0.0044642575 0.01834381 -0.115629636 0.02064173 -0.10793036 -0.04850662
0.060177393 -0.0591016 0.10742444 -0.053796835 0.10085272 -0.022551391 0.05654909 0.041998837
-0.11435436 -0.12313619 -0.08709101 -0.00084153353 -0.06757162 0.05635439 0.04706347 0.17328411
-0.06574514 0.06569024 -0.026145639 0.019092087 -0.15755805 0.0012642888 -0.07598712 -0.037671193
-0.04761965 0.050203 0.10989818 0.10166543 -0.06260999 0.08440846 0.013555308 -0.18181026
0.198257 -0.072634146 0.06901602 0.13112733 0.11280701 0.1411845 -0.040316444 -0.050559167
00000000: 17cd fe3b 917a 103c 751e e2bd 0261 0dbe
00000010: 7986 c6bd 9c77 f5bc ddf9 393d 6712 b8bd
00000020: 28f6 a0bc 45bb c43d 8b26 81bd 54ef 42bd
00000030: 29e0 c53d 1161 49be 9b5b 053e 78fd d1bd
00000040: 6923 22ba 4a5f b83d 5183 80bd 4ff3 c33c
00000050: d6c6 66bd 465b 1ebd 42c7 f0bd 1a25 8cbb
00000060: e0cf 78bc 5130 08bd cb61 d93d ad98 043e
00000070: 7fec 4b3d 9e7b 1a3d 50bc 58bd 7657 5a3d
00000080: 0c47 023e 055a e63d ba12 f0bc f085 d13c
00000090: a6f4 72bc f976 7ebd 2049 683d 523c 2b3d
000000a0: 6492 d3bd ab8f 63bd c255 a63c 667d 9bbd
000000b0: fb34 543c 3c41 5cbc 9f9a ee3d dc58 02be
000000c0: dccf df3d 975d b7bc 78df 2d3e 09a1 503d
000000d0: 63fa 44bb 7086 443d c040 05be 6ad7 16bd
000000e0: f257 0e3d 4b60 623d 91c2 ea3d 8c9b 8bbc
000000f0: 9442 acbb c3d8 5f3e b573 e9bb 3cfd 903d
00000100: 9472 953d 0147 e03d 078d 7d3d 7b79 3fbc
00000110: 5bcb 59be 7b65 323e 489e babc 2fdf f8bb
00000120: eb27 d73d 9187 943c 3bbc ca3b 9da8 b3bc
00000130: d631 2a3c 0984 a63d a807 d93d b350 4439
00000140: 68ea 02bd 4a0f 04be c2ec bc3d d16a 07be
00000150: a642 053d dede 22bd 2f56 ff3c 1970 e13d
00000160: de4e 543d 36b6 eebc 25b2 113e c080 1d3e
00000170: 694f 3ebc fc48 ba3d 17d5 51bd 8265 073e
00000180: 77c8 fa3d a918 953c f68c efbc 1b96 0d3e
00000190: 4687 573d 1755 3d3e 3ca4 62bd 9e34 203d
000001a0: 8ec2 e03d 2231 6bbc 9af3 b3bd 8d71 c8bd
000001b0: 874b cbbb 42d7 363d 4619 95bd 1721 b83d
000001c0: d736 ce3d 31bf 12bc 2c83 883c 3f3e 29be
000001d0: 5f36 2abe c2f4 09be c7ac 9dbd 96b8 0a3d
000001e0: c90b 913d 64c1 093e 78d1 c63c 5e3d b53d
000001f0: cce2 5ebc 67dc 08be 9516 c53d 5cb1 853d
00000200: 34d1 dc3d 796c f6ba eaf8 15bc c718 67bd
00000210: 7c70 fdbd 352b f43c 2b94 893d 329d 56bd
00000220: c337 c4bd 19b1 35be a446 f43d 03df 32bb
00000230: 5ff8 a4bd 3a9d 003e f924 5bbd dbae 5fbd
00000240: ca7f 4b3d 2bc5 753d cf20 0c3e 61f4 143e
00000250: f9dc c33d dc51 a43d 485a 243d 6edd 0bbd
00000260: c06c 3fbb 4264 00bb c261 633d 839b 7dbd
00000270: fa4b 2f3d 6715 de3d 5a7a ef3d 5ec4 aebb
00000280: 7c8e 063e 856c e9bd 26b3 b4bb 3634 06be
00000290: 2d26 8a3d 50ad 363c cfa6 b73d 6c56 4f3c
000002a0: 3436 9a3c 1c34 9cbc 97b7 5ebd 2a3e bebc
000002b0: 579d fcbd ff1e bbbd 66c3 a0bd 2035 9f3d
000002c0: 0206 0c3d 1784 033e cbd4 f7bb 1c8e 193d
000002d0: 538d 823c 0187 afbd aa00 683d abbc 803d
000002e0: 7276 77bd 47a5 3f3e e7ad b3bd 06ef a8bd
000002f0: 7471 43bd 548d 9dbb 7fb8 19bd ba94 023e
00000300: bc60 7cbd 1adb 7c3d e66c 54bd d02f 60bd
00000310: dfde acbc 5093 1e3d 73b3 2e3d 28d7 ffbd
00000320: 23d1 003d 4bf3 2cbb 95b9 aebd 5706 d7bc
00000330: 38f7 27be c3bb b4bb 7a31 b4bd 4132 4abd
00000340: da07 2dbd cf90 b8bd e848 92bb c245 963c
00000350: 3bcf ecbd d818 a93c 980a ddbd e1ae 46bd
00000360: 927c 763d 8514 72bd 5801 dc3d 125a 5cbd
00000370: df8b ce3d b2bd b8bc 05a0 673d f906 2c3d
00000380: 9e32 eabd d42e fcbd c55c b2bd 5c9a 5cba
00000390: fd62 8abd dcd3 663d a0c5 403d 6471 313e
000003a0: 63a5 86bd 9b88 863d 612f d6bc 0267 9c3c
000003b0: e656 21be 7eb6 a53a 239f 9bbd 1c4d 1abd
000003c0: d20c 43bd a9a1 4d3d 4c12 e13d f735 d03d
000003d0: ab39 80bd 58de ac3d 1517 5e3c 782c 3abe
000003e0: e203 4b3e 36c1 94bd 4558 8d3d 3e46 063e
000003f0: 5d07 e73d ab92 103e db22 25bd 2117 4fbd

rnn.bias_ih_l0 f4 [256]
0.06169932 0.012315767 0.11147999 0.086084686 0.036838535 0.13167205 -0.10765951 0.023388712
0.09732525 -0.0023763366 0.017425349 -0.009757727 -0.010039548 0.10471808 0.1493426 0.037874952
0.058817763 0.116144374 -0.07343423 0.07320496 0.050466523 0.08242084 0.05344954 0.101661205
0.028457059 0.095571555 0.018203348 0.02317093 0.08895569 -0.05688432 -0.093433924 -0.007991907
0.118535146 -0.05285835 -0.03737473 0.022632036 -0.095176354 0.11438932 0.09312991 0.03693328
0.16442853 -0.04470516 -0.031810924 0.090449244 0.14151259 0.1247228 0.012193306 0.11585872
0.09769064 0.07551804 -0.034086235 0.053866554 0.15999694 0.20545423 -0.017089471 -0.08073922
-0.007412174 0.09481574 0.1387701 0.031218126 0.0049779904 -0.011492107 0.09219078 -0.022225644
-0.098676965 0.08093723 -0.116565146 0.07757952 -0.07251564 0.054577395 -0.058362436 0.10230737
-0.028187826 -0.08298436 -0.02182241 -0.061056435 0.12723461 0.09145896 -0.06434793 -0.032599892
-0.011917071 -0.07986551 0.016130827 0.02882943 0.009519968 -0.060566586 0.13553627 -0.0138189085
-0.079870686 -0.09965677 -0.04696988 0.10673244 -0.028548634 -0.059246473 0.08278299 -0.050966185
-0.10763976 -0.067836314 -0.025783468 -0.07148292 -0.10223288 0.022053868 0.09251137 -0.05440921
0.043062642 -0.09446988 -0.008836858 0.14647025 -0.00483205 -0.055511694 0.03419322 0.049301606
-0.014530601 -0.058588658 -0.015843853 -0.014297058 0.061376367 0.11391319 -0.1022524 -0.059001375
0.060254555 -0.037042655 0.07537905 0.106681086 0.07162681 0.040761158 0.1328028 0.053065024
-0.0061901445 0.037731294 0.026730116 0.009350038 -0.06470875 0.058889937 0.055098567 -0.12507527
0.006927775 -0.039144833 0.00043847368 -0.010921327 0.06290687 -0.08379736 0.10304527 0.03200738
-0.06082012 -0.03034713 0.010433384 -0.0006648453 -0.044453915 -0.035512265 -0.042157564 0.09994797
0.14557466 0.09068712 0.060902335 0.12051857 0.0016489194 -0.013853175 -0.036390297 0.0048368177
-0.05523129 -0.079889886 0.017372537 -0.0095254425 0.08336135 0.09440141 0.11169544 -0.04449728
-0.089384854 -0.030588126 -0.13060269 0.03443948 -0.11050166 0.04796546 -0.05463098 0.07331208
-0.073111914 0.05988475 0.04117911 0.051167216 -0.07256711 0.058969133 -0.067478284 0.007993026
0.010072722 0.07103077 0.053124312 -0.05511644 -0.08001893 0.07718451 0.018394519 -0.13277358
0.09268635 0.07057169 0.076465555 -0.02462233 0.05300098 0.20278466 0.0645302 0.063980095
-0.015912566 0.10637828 0.15539894 0.074022144 0.05182678 0.03295108 -0.035925318 0.13632362
0.09498682 0.051240783 0.048038613 -0.015201535 0.116068214 -0.035784986 -0.010947228 -0.067901276
0.102618985 0.07498935 0.08778937 0.027090445 0.10518058 0.10143122 -0.04148693 0.13690658
0.0473925 0.07899386 0.1391058 0.07188432 0.10676101 0.10989663 -0.02368158 0.12514202
-0.081124 0.023279937 0.031424083 -0.03892131 0.10780745 0.09020746 0.005654013 0.25527176
0.0036808804 -0.023638405 0.090746254 -0.02252297 0.05264819 0.18932948 -0.071736656 0.1174894
0.0517403 0.12802137 0.1547733 -0.04459323 0.17504418 -0.03058596 0.034344096 0.03915009
00000000: 6db8 7c3d 12c8 493c 9f4f e43d 2b4d b03d
00000010: 01e4 163d 0ad5 063e 977c dcbd af99 bf3c
00000020: 7652 c73d 50bc 1bbb 9bbf 8e3c e0de 1fbc
00000030: eb7c 24bc 6f76 d63d 44ed 183e c422 1b3d
00000040: e5ea 703d 1add ed3d b064 96bd 7bec 953d
00000050: fcb5 4e3d 42cc a83d e8ed 5a3d c033 d03d
00000060: c71e e93c 05bb c33d 301f 953c f6d0 bd3c
00000070: 672e b63d 88ff 68bd 495a bfbd 7df0 02bc
00000080: 8ec2 f23d ff81 58bd 3f16 19bd d266 b93c
00000090: d2eb c2bd f344 ea3d e5ba be3d 5a47 173d
000000a0: f45f 283e c21c 37bd 2c4c 02bd 743d b93d
000000b0: ade8 103e ab6e ff3d 6fc6 473c 5647 ed3d
000000c0: 0812 c83d 34a9 9a3d 029e 0bbd 2da3 5c3d
000000d0: 3dd6 233e 9862 523e 38ff 8bbc 9b5a a5bd
000000e0: d2e1 f2bb c12e c23d c019 0e3e 28bd ff3c
000000f0: 691e a33b 6449 3cbc 85ce bc3d 8e12 b6bc
00000100: 2617 cabd 6bc2 a53d b5b9 eebd 03e2 9e3d
00000110: 1483 94bd 8c8c 5f3d 730d 6fbd 8786 d13d
00000120: 28ea e6bc b4f3 a9bd e9c4 b2bc 5016 7abd
00000130: ca49 023e d64e bb3d d9c8 83bd 7787 05bd
00000140: d23f 43bc 8790 a3bd cc24 843c b22b ec3c
00000150: a4f9 1b3c ab14 78bd 05ca 0a3e b468 62bc
00000160: 3e93 a3bd d918 ccbd 7d63 40bd 8a96 da3d
00000170: d3de e9bc 6eac 72bd 218a a93d ebc1 50bd
00000180: 3c72 dcbd c4ed 8abd da37 d3bc a365 92bd
00000190: 795f d1bd 50aa b43c 9a76 bd3d 31dc 5ebd
000001a0: 7462 303d 6d79 c1bd 78c8 10bc 4cfc 153e
000001b0: 2c56 9ebb 3b60 63bd 310e 0c3d 7bf0 493d
000001c0: c211 6ebc a9fa 6fbd f8ca 81bc 353e 6abc
000001d0: c965 7b3d 524b e93d b569 d1bd 6dab 71bd
000001e0: 7bcd 763d 0aba 17bd 5560 9a3d 9d7b da3d
000001f0: 14b1 923d 2cf5 263d 75fd 073e b65a 593d
00000200: b2d6 cabb 218c 1a3d 1ef9 da3c e730 193c
00000210: 0586 84bd 9336 713d 09af 613d bb13 00be
00000220: 6402 e33b 5556 20bd f1e2 e539 5eef 32bc
00000230: 51d5 803d f39d abbd 6609 d33d 2c1a 033d
00000240: 851e 79bd 8b9a f8bc c9f0 2a3c 0349 2eba
00000250: 4f15 36bd 4f75 11bd 69ad 2cbd 85b1 cc3d
00000260: 8611 153e 2bba b93d ba74 793d 71d2 f63d
00000270: 8e20 d83a 6df8 62bc fe0d 15bd 2b7e 9e3b
00000280: 353a 62bd 4f9d a3bd da50 8e3c 9a10 1cbc
00000290: 5bb9 aa3d 8755 c13d 94c0 e43d c842 36bd
000002a0: 680f b7bd f393 fabc b6bc 05be 6a10 0d3d
000002b0: b24e e2bd 6e77 443d bcc4 5fbd a524 963d
000002c0: b3bb 95bd b649 753d 6dab 283d b794 513d
000002d0: 119e 94bd 9e89 713d 0e32 8abd 2ef5 023c
000002e0: 0f08 253c 9578 913d e198 593d c7c1 61bd
000002f0: f7e0 a3bd ea12 9e3d 1ab0 963c ccf5 07be
00000300: 57d2 bd3d e487 903d f999 9c3d c5b4 c9bc
00000310: 8e17 593d c8a6 4f3e 6928 843d ff07 833d
00000320: 125b 82bc dbdc d93d e620 1f3e ec98 973d
00000330: 5148 543d b6f7 063d 6d26 13bd 6b98 0b3e
00000340: 7388 c23d dbe1 513d 23c4 443d dc0f 79bc
00000350: 2cb5 ed3d 4793 12bd 015c 33bc d30f 8bbd
00000360: e729 d23d 0494 993d eaca b33d c8ec dd3c
00000370: ea68 d73d 2cbb cf3d 33ee 29bd 3d31 0c3e
00000380: a31e 423d 88c7 a13d c071 0e3e 1638 933d
00000390: 84a5 da3d 7c11 e13d dfff c1bc 3b25 003e
000003a0: 5724 a6bd 91b5 be3c 8ab6 003d f46b 1fbd
000003b0: 27ca dc3d b0be b83d 4c45 b93b fbb2 823e
000003c0: ed3a 713b 54a5 c1bc 2cd9 b93d 1782 b8bc
000003d0: a1a5 573d 96df 413e abea 92bd 489e f03d
000003e0: a3ed 533d 0918 033e e47c 1e3e 64a7 36bd
000003f0: c83e 333e 688f fabc 65ac 0c3d d85b 203d

rnn.bias_hh_l0 f4 [256]
0.046774853 -0.06364013 -0.00017770028 -0.019470073 -0.018836014 0.13024664 0.12531804 0.06513058
0.04769918 -0.0067097046 0.08275905 0.03388453 0.035880852 0.024341702 -0.023529153 0.14916302
-0.068957575 -0.050036404 0.05426441 -0.027148975 -0.032893166 -0.014985565 0.13123955 0.060024876
0.1511934 0.0070418073 -0.091492236 0.14749663 0.021509778 -0.041141223 0.14037487 0.0013263663
0.078272074 -0.022533292 0.116907895 -0.066654764 -0.0836828 0.19375734 0.03470142 0.13142022
0.0070616896 0.14619756 0.12362241 0.10815656 0.16157497 0.019831369 0.10838721 0.04227567
-0.009993935 0.02143837 0.003555573 0.037423678 0.089194074 -0.014622254 -0.046449613 -0.065096445
-0.02886931 0.053341024 -0.016620062 0.12574261 0.116777636 -0.054620527 -0.030696541 -0.0075298934
0.13693161 -0.02388386 -0.044518586 -0.020484185 0.021007923 0.043314293 -0.056254037 0.06908412
-0.060461313 0.11467898 0.15729232 0.0006248129 0.01502471 -0.083235756 -0.04329142 0.03682025
0.03932383 -0.00060537166 -0.025758967 -0.02151839 0.10906975 0.10627379 0.063410714 0.1279548
-0.04448807 0.091356106 -0.086428195 -0.0035332963 -0.001974816 0.004705259 0.07602318 -0.028036572
0.019807918 0.03966302 0.048894733 -0.012245343 0.11585555 -0.0054505276 0.16510156 -0.08580015
0.08934597 -0.07991845 0.041074604 0.07844076 -0.0065281317 -0.018556433 -0.020275196 0.13475823
-0.009273792 -0.091459006 -0.066141106 -0.012228243 0.049319223 -0.11692863 -0.1046736 0.1307126
-0.026983973 -0.016261568 0.030060971 0.013900773 0.050067138 -0.029551703 0.03678012 -0.012970524
-0.06276861 0.13635956 0.076265894 -0.0061026015 -0.1018661 -0.014718015 -0.02823731 0.06477809
-0.12018099 0.015063504 -0.020227952 0.076244816 0.085368045 -0.057893194 0.004200516 -0.08982744
-0.104365826 -0.07144111 -0.035639826 -0.07595858 -0.021230856 0.030330831 0.07899157 -0.099535525
0.05580013 0.107400306 0.060756348 0.015032952 -0.1145649 0.07441664 -0.09988285 -0.06859325
0.04688556 -0.025836507 0.02879016 0.0022944342 0.03239098 -0.095302604 0.019695276 0.12102197
0.0684501 0.046228625 7.247332e-05 0.06594394 0.012499115 -0.08952682 -0.11489137 -0.0751302
0.109076336 0.04007747 -0.09297076 0.0067021176 0.052741557 -0.01388834 -0.08889373 -0.0790953
0.11430651 -0.01818603 0.053905208 0.01539324 0.0019551036 0.025741315 0.13140438 -0.118370675
0.012423834 -0.053482164 0.1386619 0.073747456 0.09703784 0.120575316 0.011819863 0.07143602
0.0744082 0.028334878 0.05769963 0.046009284 -0.09492094 -0.037982244 0.17033808 0.06186093
0.030418644 0.08717915 0.10487751 -0.011477884 0.15819837 0.14591628 -0.039421543 0.010742461
0.03319753 -0.02408851 0.09390922 0.15583616 -0.05112709 -0.044705108 0.11355163 0.07825172
0.14007026 0.043644972 0.042412266 -0.013081801 0.03686208 0.018691046 -0.07256267 -0.0011485637
0.13057378 -0.033956025 0.09867057 0.07538175 0.097488046 0.0011536863 -0.03448062 0.17709932
-0.024232281 -0.042632133 -0.027660547 0.10354453 0.15048496 0.12596542 -0.031921998 0.09634757
0.15617666 0.19533394 -0.06691905 0.18891606 -0.02550727 -0.059762735 0.006437353 0.08653122
00000000: fd96 3f3d c255 82bd 0e55 3ab9 b47f 9fbc
00000010: fc4d 9abc 605f 053e 5f53 003e 2e63 853d
00000020: 3760 433d 15dd dbbb 947d a93d 81ca 0a3d
00000030: cdf7 123d 4068 c73c 36c0 c0bc 31be 183e
00000040: a139 8dbd f9f2 4cbd 5c44 5e3d 8767 debc
00000050: fcba 06bd 0486 75bc a963 063e a5dc 753d
00000060: 71d2 1a3e f6be e63b 4860 bbbd 5b09 173e
00000070: 4635 b03c b383 28bd 6ebe 0f3e 78d9 ad3a
00000080: 1c4d a03d bd97 b8bc 686d ef3d 4b82 88bd
00000090: e361 abbd 5368 463e 1423 0e3d 0693 063e
000000a0: bf65 e73b d0b4 153e bf2d fd3d 3081 dd3d
000000b0: e973 253e 6575 a23c 1dfa dd3d 4129 2d3d
000000c0: 9abd 23bc 859f af3c 9e04 693b 9249 193d
000000d0: 62ab b63d 2e92 6fbc f341 3ebd 4951 85bd
000000e0: 557f ecbc 1e7c 5a3d cc26 88bc acc2 003e
000000f0: 1d29 ef3d c6b9 5fbd 5077 fbbc 53bd f6bb
00000100: cd37 0c3e 16a8 c3bc 1f59 36bd 73ce a7bc
00000110: cf18 ac3c 546a 313d a26a 66bd fa7b 8d3d
00000120: 48a6 77bd d0dc ea3d 3d11 213e 7cca 233a
00000130: 342a 763c 8277 aabd 5852 31bd d5d0 163d
00000140: 0612 213d ceb1 1eba 7804 d3bc 5647 b0bc
00000150: f65f df3d 13a6 d93d 7add 813d 9506 033e
00000160: 1f39 36bd e918 bb3d 4401 b1bd e08e 67bb
00000170: ea6b 01bb 932e 9a3b 0ab2 9b3d f4ac e5bc
00000180: 3744 a23c b175 223d d845 483d b1a0 48bc
00000190: ad45 ed3d 579a b2bb 6210 293e fdb7 afbd
000001a0: 05fb b63d 49ac a3bd d83d 283d 8da5 a03d
000001b0: f0e9 d5bb a903 98bc 2b18 a6bc 10fe 093e
000001c0: 1af1 17bc dc4e bbbd fd74 87bd f858 48bc
000001d0: f402 4a3d 4778 efbd 1d5f d6bd 86d9 053e
000001e0: 7e0d ddbc fb36 85bc 6d42 f63c 11c0 633c
000001f0: 3313 4d3d 6a16 f2bc c0a6 163d 5282 54bc
00000200: d48c 80bd d7a1 0b3e 4b31 9c3d 55f8 c7bb
00000210: 2d9f d0bd d423 71bc ee51 e7bc 60aa 843d
00000220: 7321 f6bd eacc 763c 17b5 a5bc 3e26 9c3d
00000230: 71d5 ae3d 6a21 6dbd 7ba4 893b 73f7 b7bd
00000240: c0bd d5bd b74f 92bd 11fb 11bd 2c90 9bbd
00000250: 55ec adbc 5d78 f83c 55c6 a13d 48d9 cbbd
00000260: ad8e 643d b1f4 db3d a6db 783d c54c 763c
00000270: 01a1 eabd c067 983d 618f ccbd 9e7a 8cbd
00000280: 130b 403d 15a7 d3bc 57d9 eb3c 385e 163b
00000290: 67ac 043d 032e c3bd fd57 a13c 5eda f73d
000002a0: 912f 8c3d 3a5a 3d3d d1fc 9738 9e0d 873d
000002b0: 17c9 4c3c d659 b7bd 2b4c ebbd dddd 99bd
000002c0: 6a63 df3d 4628 243d 7467 bebd 709d db3b
000002d0: 8807 583d ec8b 63bc ea0d b6bd b7fc a1bd
000002e0: 8819 ea3d dffa 94bc b5cb 5c3d ee33 7c3c
000002f0: 3221 003b 73df d23c df8e 063e 536c f2bd
00000300: 568d 4b3c 1d10 5bbd 63fd 0d3e e808 973d
00000310: c6bb c63d 31f0 f63d 19a8 413c 0c4d 923d
00000320: 5463 983d 8c1e e83c 7256 6c3d 3b74 3c3d
00000330: e965 c2bd 4593 1bbd 1b6d 2e3e e361 7d3d
00000340: 8530 f93c fb8a b23d 05ca d63d bc0d 3cbc
00000350: c1fe 213e 146b 153e 7c78 21bd 2601 303c
00000360: 22fa 073d 4455 c5bc 7a53 c03d 8493 1f3e
00000370: a46a 51bd b41c 37bd c28d e83d 7042 a03d
00000380: 946e 0f3e 12c5 323d 7cb8 2d3d 0d55 56bc
00000390: b1fc 163d f71d 993c bd9b 94bd 678b 96ba
000003a0: 22b5 053e 7915 0bbd cc13 ca3d bf61 9a3d
000003b0: d0a7 c73d 4a37 973a 8d3b 0dbd 8659 353e
000003c0: c782 c6bc 089f 2ebd 5f98 e2bc 280f d43d
000003d0: bb18 1a3e 14fd 003e a4c0 02bd e051 c53d
000003e0: c6ec 1f3e 9f05 483e db0c 89bd 3673 413e
000003f0: 9ff4 d0bc c5c9 74bd 6ef0 d23b 4837 b13d

rnn.weight_ih_l1 f4 [256, 64]
0.14354795 -0.0654675 -0.035276987 0.056464467 -0.15760773 0.1480174 0.08468691 0.10834641
0.04660258 -0.10721476 -0.09561172 0.029161714 0.079323635 -0.07697541 0.006477691 -0.028977579
-0.17231128 -0.05315331 0.04221792 0.058507796 0.12069941 -0.0068770973 0.034495145 -0.035526626
0.1689903 0.015142193 0.047663916 0.024366269 -0.13326474 -0.011982639 0.0642862 0.006090308
-0.024908656 0.12756595 0.10731661 -0.15770201 -0.042837653 0.06987559 0.031124152 -0.1464491
0.065706156 -0.07384055 -0.12234739 0.037524834 -0.15819348 -0.047758162 0.11948107 0.11940547
-0.11191397 0.18250027 0.023756139 0.073802516 -0.26823634 -0.029455304 -0.09569341 0.013625622
-0.10117531 0.13119856 0.045972846 0.019771388 -0.077090144 -0.062822096 0.033515196 0.09673017
-0.09225523 0.044853944 0.12727593 -0.052247137 -0.093666084 0.18488817 0.07844329 -0.025782544
-0.010235028 -0.051671725 -0.0008999622 0.0024858294 0.004755522 0.1276447 0.1431748 -0.0518012
-0.14232504 -0.07281573 -0.0025366694 0.109569594 0.1451667 0.042953644 -0.03172779 -0.187003
0.22561416 0.04923593 -0.025583018 -0.026420886 -0.04870979 -0.058900565 -0.029723942 0.05553943
-0.035408318 -0.013558059 0.0878645 -0.014135147 -0.03590093 0.16784857 -0.058657546 0.06333118
-0.10174306 0.10060952 -0.024373919 -0.17292401 -0.08591503 0.018719267 0.12159238 0.021188164
0.010968896 0.20497091 -0.031899862 -0.003829598 -0.06603125 0.023586258 -0.023585634 -0.00451677
-0.08853588 0.022321753 -0.007864542 0.09423208 0.074301615 -0.09477105 0.057615623 -0.096030176
0.004966388 -0.14585422 -0.012673246 0.13308638 -0.0319515 0.06802922 -0.05272619 -0.084339514
0.033026345 -0.06535321 0.084891096 -0.10169042 -0.11196517 0.07162219 -0.10958309 -0.053527158
-0.027211094 0.11319835 0.063333556 -0.14048596 0.023487983 -0.087741464 -0.024892189 0.07469836
0.10314746 -0.067077704 -0.07401388 0.04712851 -0.12566325 -0.0385082 0.029831303 -0.14410874
0.0071550324 0.10429506 0.12862597 -0.0012404325 -0.05400337 -0.11421886 -0.05486038 -0.123347394
-0.09926273 -0.032874554 -0.16654463 -0.021904727 -0.08297335 -0.08910027 0.05899427 -0.019425591
-0.05954038 0.0842152 -0.026884869 0.14437494 -0.097552486 -0.13533442 0.08932478 -0.061606172
0.01755434 0.07016684 0.10903119 -0.057467595 -0.15682316 0.02155142 0.063268155 -0.07663547
0.14181428 0.07072532 -0.05387088 -0.03699631 0.015290018 0.03688285 -0.04069446 0.06347334
-0.022529801 -0.08891367 -0.014253939 -0.11233117 -0.065811604 0.047335193 -0.0678892 -0.14797191
-0.06511803 -0.08799637 -0.036681928 -0.047847766 -0.0070185284 -0.10864896 0.079462565 -0.18218032
-0.07689332 0.092381254 -0.034229577 -0.05737913 0.045120914 0.060592487 -0.115930416 0.11237662
-0.040482618 -0.01575262 0.037762858 0.054291375 0.103837326 0.09635404 -0.096441835 -0.09909682
-0.001625632 -0.04775386 -0.10816503 -0.050663073 -0.15523985 -0.0021831684 -0.10577531 -0.04682338
0.008798261 -0.04961395 0.10450764 -0.051899906 -0.05602051 -0.0015599998 -0.02378975 -0.092453375
-0.07976804 0.15100317 -0.009935415 0.02887143 -0.10671803 -0.09356975 0.025793629 0.015250181
00000000: 3cfe 123e d313 86bd 9a7e 10bd 4947 673d
00000010: ec63 21be e091 173e 5570 ad3d b9e4 dd3d
00000020: 59e2 3e3d 6993 dbbd 14d0 c3bd 8ce4 ee3c
00000030: 6e74 a23d 49a5 9dbd cf42 d43b 6362 edbc
00000040: 5e72 30be 49b7 59bd b3ec 2c3d dfa5 6f3d
00000050: 4131 f73d 4659 e1bb c84a 0d3d 5e84 11bd
00000060: cb0b 2d3e f616 783c 3d3b 433d c59b c73c
00000070: 8d76 08be d552 44bc 7ca8 833d 3591 c73b
00000080: 3d0d ccbc a6a0 023e d0c8 db3d a37c 21be
00000090: 8976 2fbd ef1a 8f3d 14f8 fe3c c1f6 15be
000000a0: f390 863d b739 97bd 4591 fabd a4b3 193d
000000b0: 79fd 21be 109e 43bd 7eb2 f43d db8a f43d
000000c0: 2733 e5bd 5ae1 3a3e 3c9c c23c c625 973d
000000d0: 4656 89be 404c f1bc e8fa c3bd 003e 5f3c
000000e0: 0035 cfbd ea58 063e 064e 3c3d 9bf7 a13c
000000f0: 70e1 9dbd dfa8 80bd 3b47 093d 781a c63d
00000100: 4ff0 bcbd c5b8 373d 9f54 023e 1801 56bd
00000110: 01d4 bfbd 5353 3d3e e0a6 a03d ea35 d3bc
00000120: d2b0 27bc bba5 53bd 71eb 6bba 4ce9 223b
00000130: 36d4 9b3b 4bb5 023e 6a9c 123e 7f2d 54bd
00000140: a8bd 11be 6a20 95bd 403e 26bb 0666 e03d
00000150: 94a6 143e 29f0 2f3d 00f5 01bd b77d 3fbe
00000160: 6607 673e 9dab 493d 7a93 d1bc 9d70 d8bc
00000170: eb83 47bd b841 71bd a07f f3bc 507d 633d
00000180: 5008 11bd 9f22 5ebc 4ef2 b33d 1b97 67bc
00000190: db0c 13bd 7fe0 2b3e e542 70bd c7b3 813d
000001a0: aa5e d0bd 5d0c ce3d d0ab c7bc fe12 31be
000001b0: 38f4 afbd 2659 993c 6d05 f93d cd92 ad3c
000001c0: e2b6 333c e5e3 513e 6ea9 02bd fef9 7abb
000001d0: 643b 87bd f837 c13c a936 c1bc 6a01 94bb
000001e0: 4d52 b5bd 1cdc b63c 48da 00bc c0fc c03d
000001f0: 722b 983d 5317 c2bd 5cfe 6b3d 78ab c4bd
00000200: 15bd a23b cf5a 15be 72a3 4fbc cc47 083e
00000210: 93df 02bd e752 8b3d 6bf7 57bd 32ba acbd
00000220: a246 073d e7d7 85bd 62db ad3d 1143 d0bd
00000230: ff4d e5bd a8ae 923d 196d e0bd 4b3f 5bbd
00000240: cde9 debc 89d4 e73d 06b5 813d 8ddb 0fbe
00000250: df69 c03c ccb1 b3bd b4ea cbbc 74fb 983d
00000260: fa3e d33d 0960 89bd 9794 97bd d309 413d
00000270: dead 00be c6ba 1dbd c760 f43c 3e91 13be
00000280: c374 ea3b a698 d53d 87b6 033e 0296 a2ba
00000290: a332 5dbd 94eb e9bd 47b5 60bd 8f9d fcbd
000002a0: 424a cbbd 78a7 06bd ad8a 2abe 8b71 b3bc
000002b0: efed a9bd 347a b6bd faa3 713d 6b22 9fbc
000002c0: 9de0 73bd 0579 ac3d a83d dcbc 06d7 133e
000002d0: 99c9 c7bd 1b95 0abe e9ef b63d c156 7cbd
000002e0: 1fce 8f3c a2b3 8f3d bf4b df3d 2463 6bbd
000002f0: 4096 20be 9b8c b03c bc92 813d 0ff3 9cbd
00000300: c337 113e 70d8 903d b6a7 5cbd 7189 17bd
00000310: fc82 7a3c 7912 173d 3caf 26bd 4ffe 813d
00000320: 6b90 b8bc 5f18 b6bd 5a89 69bc e20d e6bd
00000330: 3cc8 86bd 8ce2 413d 7e09 8bbd f385 17be
00000340: 9a5c 85bd 7137 b4bd ca3f 16bd 05fc 43bd
00000350: affb e5bb 5983 debd 45bd a23d 7a8d 3abe
00000360: 3f7a 9dbd 6232 bd3d 5034 0cbd 6106 6bbd
00000370: b5d0 383d d42f 783d ed6c edbd b725 e63d
00000380: 1ad1 25bd a30b 81bc 3aad 1a3d a260 5e3d
00000390: aaa8 d43d 4455 c53d 4c83 c5bd 46f3 cabd
000003a0: 2913 d5ba 8d99 43bd a185 ddbd 1584 4fbd
000003b0: 32f7 1ebe 7d13 0fbb baa0 d8bd dfc9 3fbd
000003c0: 9526 103c ff37 4bbd 1a08 d63d ff94 54bd
000003d0: c375 65bd e878 ccba b9e2 c2bc 3258 bdbd
000003e0: 6d5d a3bd 93a0 1a3e 27c8 22bc c783 ec3c
000003f0: fc8e dabd 7fa1 bfbd 294d d33c e5db 793c

rnn.weight_hh_l1 f4 [256, 64]
0.06165495 -0.017638223 -0.1003732 0.08569136 -0.05317789 0.047393076 0.036475994 0.07758847
0.056082703 0.02564293 -0.10061135 -0.12388824 -0.052324694 -0.030501077 0.0081712995 0.02038515
0.018951485 -0.02995579 0.028902486 -0.10104965 -0.08423907 0.060448736 0.073297955 0.047993857
-0.09528207 0.032679766 -0.049010538 -0.07943695 -0.06502084 -0.1154495 -0.08746659 0.125169
0.081654325 0.10514107 0.012300833 0.04097112 0.0056853048 -0.09173514 0.16324301 -0.11431902
0.1200313 0.0996499 0.053570095 5.7091358e-05 -0.020846622 0.02720885 -0.018184539 0.020150522
0.012731752 -0.098008305 -0.12199387 0.08362923 0.15542644 -0.10925862 -0.058671627 -0.08342576
0.062110554 0.043715525 0.023949048 -0.11545459 0.022180086 -0.043972783 -0.11252265 0.09992143
-0.14198272 0.026826167 -0.010098172 -0.015928617 0.098537266 -0.10534196 0.09609491 -0.05145731
-0.10451893 0.010777643 -0.01998656 -0.09114533 0.034213565 -0.05950431 0.109066986 -0.028638354
0.12360578 0.17673394 0.049019225 0.021692432 0.008127754 -0.039926164 0.004552171 0.2642142
0.08794403 0.043706454 -0.012007177 -0.10452811 -0.13771866 -0.12903956 -0.1090627 0.11113743
-0.083623566 0.07468936 0.08802006 0.03659336 -0.027306834 -0.14059378 0.08387751 -0.032759245
0.056675445 0.10542617 0.07544849 0.14911199 -0.020877847 0.030260256 -0.05353503 0.10674139
-0.045831647 0.049529605 0.015298818 0.10323076 0.00086062844 -0.11883527 -0.04079717 -0.002926948
-0.024342317 -0.06595897 0.011960704 0.08987694 -0.043925207 -0.09650308 0.081352204 -0.06506211
-0.09498103 0.06394095 0.00072385825 0.08514257 -0.048607737 0.057246428 -0.054188322 -0.02090292
-0.11078057 0.015125152 -0.13754067 -0.008828489 0.085223265 0.0963986 0.016358754 -0.028877584
-0.118714705 0.06549186 0.04722584 0.06638067 0.030386755 0.10500142 0.106331505 0.041760236
-0.082975656 -0.10502953 -0.105641924 0.0080642 0.02021414 0.11322598 -0.0550009 0.03400029
-0.10518743 -0.058912892 0.13341832 -0.07998103 -0.018219972 0.10226001 0.016206572 -0.0906142
0.094759494 -0.03501141 -0.0805644 -0.08925309 0.042443205 -0.11945297 -0.028556198 -0.06169061
-0.021178413 0.13386683 0.10005694 -0.036610447 0.062049955 -0.04077417 -0.013392312 -0.13377574
-0.10964244 -0.07017461 -0.06856488 -0.06058295 0.0061546117 0.105065465 0.056251314 0.097972736
-0.026099958 0.062026877 -0.024013782 0.043855093 0.07057076 0.08235477 0.07374185 0.10014156
0.060946364 -0.084377 -0.10803076 -0.22619449 -0.07256203 -0.08209401 0.047779527 0.124893524
-0.0065503777 -0.09402468 0.02620634 0.12153289 -0.10083506 0.047603127 0.034512844 0.07603268
0.043133512 0.026371118 -0.07897312 0.13213846 -0.018860899 0.100502394 0.04499504 0.13760962
-0.048954144 -0.1085822 0.021599954 0.045179613 -0.10041771 -0.12131554 -0.020268295 -0.020818338
0.110312976 0.08604697 -0.0077852714 0.11103204 -0.014003115 0.05735823 0.05686648 0.009669158
0.11759405 0.07374489 0.04976396 -0.05772511 0.028651213 -0.09607067 0.10185336 -0.12205367
0.06829753 0.010999785 -0.031234274 -0.011234684 -0.110761344 -0.04446472 -0.0039911843 -0.03375131
00000000: e789 7c3d 097e 90bc 7790 cdbd f47e af3d
00000010: 0fd1 59bd 3e1f 423d da67 153d b4e6 9e3d
00000020: fab6 653d 1f11 d23c 530d cebd 1eb9 fdbd
00000030: 6b52 56bd 65dd f9bc eae0 053c c2fe a63c
00000040: 2540 9b3c d865 f5bc e8c4 ec3c 1ef3 cebd
00000050: 8985 acbd 1899 773d 3d1d 963d 3595 443d
00000060: 3f23 c3bd 38db 053d 46bf 48bd d7af a2bd
00000070: a529 85bd ca70 ecbd af21 b3bd 4d2c 003e
00000080: 623a a73d 3454 d73d 6f89 493c 55d1 273d
00000090: cb4b ba3b a2df bbbd 2d29 273e 1720 eabd
000000a0: f8d2 f53d 3f15 cc3d 516c 5b3d 6175 6f38
000000b0: 89c6 aabc 18e5 de3c bef7 94bc b512 a53c
000000c0: d798 503c 94b8 c8bd ecd7 f9bd cd45 ab3d
000000d0: 1c28 1f3e fcc2 dfbd a951 70bd 20db aabd
000000e0: a367 7e3d 0d0f 333d cb30 c43c 7573 ecbd
000000f0: 03b3 b53c ce1c 34bd 4672 e6bd 9ba3 cc3d
00000100: eb63 11be 8dc2 db3c ce72 25bc bb7c 82bc
00000110: e8cd c93d 87bd d7bd 68cd c43d e6c4 52bd
00000120: 050e d6bd b694 303c dbba a3bc 67aa babd
00000130: 8623 0c3d cbba 73bd 835e df3d fb9a eabc
00000140: 0725 fd3d bef9 343e 62c8 483d 54b4 b13c
00000150: 452a 053c 9e89 23bd 612a 953b 1547 873e
00000160: 001c b43d 8a05 333d c0b9 44bc d512 d6bd
00000170: 1f06 0dbe f222 04be 445c dfbd 059c e33d
00000180: d542 abbd bcf6 983d dc43 b43d ebe2 153d
00000190: 95b2 dfbc d1f7 0fbe f9c7 ab3d 8f2e 06bd
000001a0: 8324 683d ade9 d73d bd84 9a3d d0b0 183e
000001b0: 0508 abbc 5be4 f73c 8c47 5bbd 3b9b da3d
000001c0: f7b9 3bbd 8edf 4a3d e5a7 7a3c a66a d33d
000001d0: cc9b 613a e85f f3bd ef1a 27bd 0ad2 3fbb
000001e0: 8a69 c7bc 7f15 87bd d4f6 433c 6711 b83d
000001f0: ebea 33bd 68a3 c5bd fc9b a63d 493f 85bd
00000200: 6a85 c2bd 79f3 823d 4ec1 3d3a 3a5f ae3d
00000210: e818 47bd 3b7b 6a3d 93f4 5dbd 9a3c abbc
00000220: ece0 e2bd 7ccf 773c 76d7 0cbe 5ea5 10bc
00000230: 8989 ae3d a16c c53d cb02 863c af90 ecbc
00000240: b220 f3bd 9920 863d e26f 413d 97f2 873d
00000250: a5ed f83c fc0a d73d 55c4 d93d c80c 2b3d
00000260: 24ef a9bd b919 d7bd cb5a d8bd b51f 043c
00000270: 2098 a53c 06e3 e73d a048 61bd e343 0b3d
00000280: 826c d7bd a54e 71bd d09e 083e 18cd a3bd
00000290: 0d42 95bc b26d d13d a5c3 843c f093 b9bd
000002a0: 4411 c23d 2068 0fbd f3fe a4bd 53ca b6bd
000002b0: edd8 2d3d c2a3 f4bd b0ee e9bc 4baf 7cbd
000002c0: 5a7e adbc 6314 093e a7ea cc3d d6f4 15bd
000002d0: 1828 7e3d d102 27bd 6e6b 5bbc 82fc 08be
000002e0: 378c e0bd b5b7 8fbd be6b 8cbd d425 78bd
000002f0: a0ac c93b 902c d73d c767 663d eea5 c83d
00000300: 94cf d5bc e50f 7e3d 8db8 c4bc 66a1 333d
00000310: 6787 903d 9ea9 a83d f805 973d 0517 cd3d
00000320: e5a2 793d d9cd acbd 3b3f ddbd 879f 67be
00000330: 679b 94bd e820 a8bd 77b4 433d 2dc8 ff3d
00000340: 8da4 d6bb 0390 c0bd aeae d63c 3ce6 f83d
00000350: 9d82 cebd 7ffb 423d 575d 0d3d 06b7 9b3d
00000360: c4ac 303d 3e08 d83c a9bc a1bd 4e4f 073e
00000370: 2c82 9abc 33d4 cd3d b84c 383d 89e9 0c3e
00000380: 2484 48bd 5860 debd 63f2 b03c 420e 393d
00000390: cda7 cdbd 4874 f8bd b209 a6bc 388b aabc
000003a0: c5eb e13d 6539 b03d 971b ffbb c464 e33d
000003b0: 526d 65bc 77f0 6a3d d3ec 683d 636b 1e3c
000003c0: 26d5 f03d 9007 973d 4bd5 4b3d 2a71 6cbd
000003d0: f3b5 ea3c b3c0 c4bd 7f98 d03d 46f7 f9bd
000003e0: 93df 8b3d 7138 343c 05df ffbc ae11 38bc
000003f0: d8d6 e2bd a320 36bd 7bc8 82bb d03e 0abd

rnn.bias_ih_l1 f4 [256]
-0.05032506 0.1898755 0.06851275 0.040787574 -0.010555574 0.114551835 0.02966553 0.028848555
0.07784904 -0.07697251 -0.00089179684 -0.06865486 -0.0042285644 -0.020516098 0.0013232153 0.093599856
0.21637623 -0.03633681 0.115414985 -0.0016931402 0.2076781 0.14199615 0.03214247 0.07198144
0.2360244 0.0017640988 -0.035482287 -0.05297391 -0.1069471 -0.08621705 -0.02901947 0.17698139
-0.040974654 -0.0025060026 0.13427745 0.04476605 0.017932266 0.09076273 0.11967607 0.04447892
-0.050711464 -0.029883454 -0.008024228 -0.09727356 0.12987734 0.067027755 0.15866134 0.026181849
0.058451682 0.20690823 0.09389232 -0.03657818 -0.053184614 -0.086887956 -0.042472277 0.07728641
0.009891226 -0.020621577 0.027799757 0.13914639 0.11552132 0.07507863 -0.0422091 0.09812069
0.021644533 0.028545767 0.10508179 0.06264394 0.07822127 0.11646063 -0.074246295 -0.027615676
0.067592755 0.0013023614 0.028278304 -0.02640184 0.06425879 0.011998264 0.10670969 -0.09336554
0.104884684 0.07618902 -0.0047989967 0.050983313 0.10785361 0.050501715 -0.096813954 -0.11140419
-0.0503356 -0.012722389 -0.007833167 0.055113956 0.00765735 -0.14350376 0.013417944 -0.12660085
-0.024093214 -0.075479954 -0.0053762086 -0.02159472 -0.0137051875 0.1288267 -0.14538729 -0.11119449
-0.084451556 -0.011872193 0.01907985 0.070364326 0.06600289 0.012877228 -0.043185588 0.105556145
0.050004892 0.082687885 0.11025296 -0.11819122 0.05389781 -0.09913056 -0.009137207 0.0028976724
-0.024303582 -0.118207105 -0.11171174 0.1264866 0.1070094 -0.11195334 0.10141043 0.004191018
-0.009043632 0.03006567 -0.013399268 -0.021271102 -0.08566376 0.030501436 -0.10097475 0.03694811
0.019390726 -0.0934641 0.05714376 0.07423936 0.06675017 0.10379869 -0.056447435 0.13299583
0.014406004 -0.109439015 0.008711555 0.057187885 -0.022696739 0.06416122 -0.044924017 0.13575032
-0.05193867 0.055813115 -0.10010515 0.10095533 -0.09431473 -0.1258582 0.051073007 0.06174705
-0.023293959 0.09559581 0.093320645 -0.024813434 -0.09259708 -0.099406965 0.016510248 -0.08392894
0.08962992 0.029874777 -0.10506707 0.11424737 0.0302759 -0.090735964 0.02774301 0.057747126
0.07086781 -2.2303086e-05 -0.10483212 0.053777367 0.084998176 -0.055641178 0.025057022 0.020323047
-0.018292319 -0.06497284 0.06958138 -0.09892588 0.12496259 0.03425739 0.044411447 -0.038483612
0.006314514 0.14576809 0.0646301 0.11742508 -0.041088685 -0.052882805 -0.0303287 0.13922876
0.17246558 0.139 0.08783894 -0.036678478 0.08423622 0.025447989 0.023558235 0.037548378
0.11034602 -0.0072604064 -0.010919113 0.14235072 0.062283024 0.002895967 0.12305816 0.014977758
0.112262495 -0.029224474 0.10861928 0.15402403 0.008483183 -0.084922895 0.07178248 0.013527428
0.026551737 -0.07247543 0.06359981 -0.11304143 -0.0023439135 -0.0608555 0.031431448 -0.07679877
0.14197806 0.10951894 0.07438598 0.11240189 -0.043091267 0.14262585 -0.03361776 0.1658329
0.057008713 0.108516864 0.002666045 0.0036309415 -0.086498804 0.078224614 0.07673199 -0.055851582
0.067348436 0.12793131 -0.0343932 -0.047199022 -0.006730075 -0.081773706 -0.0028030565 -0.10442103
00000000: a621 4ebd b96e 423e 6a50 8c3d df10 273d
00000010: 49f1 2cbc 279a ea3d 2005 f33c ce53 ec3c
00000020: 516f 9f3d c3a3 9dbd 79c7 69ba eb9a 8cbd
00000030: c58f 8abb 6011 a8bc bd6f ad3a 48b1 bf3d
00000040: bb91 5d3e e8d5 14bd b15e ec3d 5cec ddba
00000050: 91a9 543e 7067 113e d3a7 033d 016b 933d
00000060: 61b0 713e 5539 e73a e055 11bd 2cfb 58bd
00000070: 1507 dbbd 9192 b0bd 3dba edbc 9c3a 353e
00000080: 0ad5 27bd bf3b 24bb 0780 093e 9b5c 373d
00000090: b0e6 923c cfe1 b93d ba18 f53d 872f 363d
000000a0: d3b6 4fbd 25ce f4bc 0d78 03bc 5c37 c7bd
000000b0: 91fe 043e d945 893d 1e78 223e 517b d63c
000000c0: 086b 6f3d c0df 533e 9e4a c03d 00d3 15bd
000000d0: 1cd8 59bd 50f2 b1bd 69f7 2dbd 5648 9e3d
000000e0: cf0e 223c 95ee a8bc 51bc e33c 647c 0e3e
000000f0: 7196 ec3d d3c2 993d 73e3 2cbd 80f3 c83d
00000100: e04f b13c d0d8 e93c 1f35 d73d 774b 803d
00000110: 7932 a03d e982 ee3d 710e 98bd 453a e2bc
00000120: 126e 8a3d ffb3 aa3a e7a7 e73c ac48 d8bc
00000130: 1d9a 833d 5e94 443c 9c8a da3d 6f36 bfbd
00000140: c8cd d63d fd08 9c3d e740 9dbb e1d3 503d
00000150: 5ae2 dc3d e3da 4e3d 6546 c6bd e127 e4bd
00000160: b42c 4ebd 9171 50bc af56 00bc 2cbf 613d
00000170: 82ea fa3b a6f2 12be f0d6 5b3c a7a3 01be
00000180: 225f c5bc 3c95 9abd e82a b0bb 69e7 b0bc
00000190: b98b 60bc 25eb 033e 68e0 14be f0b9 e3bd
000001a0: f0f4 acbd 9683 42bc 584d 9c3c 2c1b 903d
000001b0: 862c 873d 02fb 523c 5fe3 30bd d22d d83d
000001c0: eed1 4c3d 4458 a93d 4ecc e13d 3d0e f2bd
000001d0: f3c3 5c3d f704 cbbd 39b4 15bc e0e6 3d3b
000001e0: 4e18 c7bc 9116 f2bd 20c9 e4bd b485 013e
000001f0: bf27 db3d cb47 e5bd 46b0 cf3d cf54 893b
00000200: be2b 14bc 484c f63c 9a88 5bbc bc40 aebc
00000210: 7b70 afbd 26de f93c dacb cebd e756 173d
00000220: 4dd9 9e3c 1b6a bfbd 930f 6a3d ce0a 983d
00000230: 50b4 883d 6894 d43d 6d35 67bd 0f30 083e
00000240: 2907 6c3c 9021 e0bd e9ba 0e3c d83d 6a3d
00000250: 83ee b9bc f566 833d 3f02 38bd 2202 0b3e
00000260: a5bd 54bd 4b9c 643d ee03 cdbd abc1 ce3d
00000270: 1528 c1bd f9e0 00be ee31 513d 7aea 7c3d
00000280: f9d2 bebc bcc7 c33d e51e bf3d 8b45 cbbc
00000290: 8aa3 bdbd e195 cbbd 8040 873c f0e2 abbd
000002a0: e48f b73d f3bb f43c 672d d7bd 86fa e93d
000002b0: 2a05 f83c c7d3 b9bd 4f45 e33c 4088 6c3d
000002c0: 2423 913d 8317 bbb7 39b2 d6bd a845 5c3d
000002d0: 8613 ae3d 01e8 63bd 6244 cd3c 857c a63c
000002e0: c6d9 95bc 7b10 85bd af80 8e3d a799 cabd
000002f0: 63ec ff3d 7a51 0c3d c7e8 353d fea0 1dbd
00000300: fce9 ce3b 3b44 153e c95c 843d 8f7c f03d
00000310: 9c4c 28bd a49b 58bd e573 f8bc fc91 0e3e
00000320: d19a 303e 0456 0e3e e7e4 b33d 2c3c 16bd
00000330: 0a84 ac3d 4d78 d03c 33fd c03c 54cc 193d
00000340: 18fd e13d b4e8 edbb 14e6 32bc 63c4 113e
00000350: 7c1c 7f3d 44ca 3d3b eb05 fc3d 4565 753c
00000360: e1e9 e53d 2a68 efbc c973 de3d 7ab8 1d3e
00000370: 0cfd 0a3c 0eec adbd b102 933d 25a2 5d3c
00000380: 0783 d93c 006e 94bd 9e40 823d 4482 e7bd
00000390: 589c 19bb 9e43 79bd 43be 003d ac48 9dbd
000003a0: b262 113e 774b e03d ad57 983d f632 e63d
000003b0: 7880 30bd 830c 123e c7b2 09bd 1ad0 293e
000003c0: f881 693d 173e de3d d0b8 2e3b 17f5 6d3b
000003d0: 4926 b1bd 3a34 a03d a925 9d3d a1c4 64bd
000003e0: faed 893d 6d00 033e e2df 0cbd c353 41bd
000003f0: f687 dcbb f978 a7bd 7cb3 37bb b1da d5bd

rnn.bias_hh_l1 f4 [256]
-0.029665604 0.14691378 0.11957626 -0.0113479365 0.13426231 0.13998671 0.08504742 0.010788236
-0.0025459921 -0.026108533 0.088696696 0.04469941 0.035228 0.13366811 -0.038120147 0.14516354
0.091425054 -0.02201543 0.08849934 0.04144152 -0.011304074 0.038018007 -0.02010387 0.08552332
0.11048863 0.063166216 0.10431835 0.037458748 -0.0129692815 -0.022502296 0.06259986 -0.037383087
0.1212575 -0.09183793 -0.008315778 -0.07406362 -0.04582172 0.024826597 0.24185613 -0.045496505
0.06923438 0.054676775 0.051834926 -0.024437 0.019925509 0.039743263 0.07841249 0.0058042016
0.0685102 0.01085657 -0.09778865 -0.061080255 0.008074933 0.12962747 0.14472848 -0.019099154
-0.10526463 -0.082896285 0.0023407624 -0.08231015 0.07864925 -0.058634683 0.0510691 -0.07063343
-0.042373758 -0.019779162 -0.06563193 0.073349915 0.0694117 0.017742869 0.06330344 0.029197369
-0.019106785 0.14001997 -0.07881413 0.07009054 0.07800148 -0.104651205 -0.06844584 -0.08466638
0.061118517 -0.051633332 -0.11289934 -0.06850959 -0.13452455 0.03572595 -0.043464456 -0.117688596
-0.11268901 -0.04686147 0.08760711 -0.04826235 0.0235931 -0.006766982 0.12059635 0.0510067
-0.069029786 0.0052044396 0.062084362 -0.015134102 -0.028386243 -0.059491448 -0.1152051 -0.12681918
0.11060813 0.0583999 0.011845598 -0.0638965 0.053752206 0.100439526 0.068287864 0.15204942
0.08730346 -0.11672421 0.12291935 0.010534403 0.015980706 -0.092024334 0.11007445 0.01776477
0.04218872 0.116493665 0.025143325 -0.09718739 -0.044272836 -0.08390942 -0.05278146 -0.1258326
-0.091177054 0.06273682 0.02723556 -0.09761098 0.026725544 0.09378172 -0.09874307 0.066758014
0.056416854 0.0927581 0.07345418 0.03411034 -0.12977687 -0.04384851 -0.017261706 0.00029891657
0.12628062 0.124858804 0.08176979 -0.0362832 -0.11274687 -0.0646571 -0.011204526 -0.06558511
0.07427424 0.056824837 0.105796754 -0.0062603937 -0.050902996 0.09992789 -0.033725467 0.030612273
0.014512304 -0.009752497 -0.013653545 0.11854285 -0.028404688 0.08454672 0.07330506 -0.081081
0.10430238 0.078347705 0.118819095 -0.06534494 -0.1110714 -0.052127395 -0.108403675 0.09373318
-0.121259235 -0.11770006 -0.12465143 -0.04506103 0.10390645 -0.065980285 -0.08220042 0.033089742
0.06698388 -0.017902385 -0.061067432 0.121867284 0.106274635 -0.09937952 0.054379504 -0.10772294
0.16442297 0.17505708 0.13580282 -0.105156325 0.06560096 0.079810716 -0.10790786 0.1462013
0.13312186 0.012800231 0.07817867 -0.08873852 -0.06328564 -0.04394723 -0.031559266 0.121518835
0.19489111 0.10858392 -0.033094678 0.09669927 0.15104114 -0.046356816 0.10908111 -0.07792921
0.034467585 0.13206342 0.041329097 0.16126646 0.08085511 0.015763927 -0.044545658 0.11009669
0.11492551 -0.07422821 0.13540691 -0.018362582 0.03278021 0.08561438 0.12615854 0.07142009
0.037687965 0.1018463 0.14130078 0.046300594 0.11949805 0.15732417 0.12559427 0.19575913
0.078251496 0.176491 0.095344275 0.02543329 0.10541983 -0.017762449 -0.036482092 -0.10525632
-0.02226519 0.114008784 0.08940894 0.0748026 0.07158469 -0.06965896 -0.021565236 -0.08434222
00000000: 4805 f3bc 9170 163e 66e4 f43d b2ec 39bc
00000010: 0f7c 093e ad58 0f3e 572d ae3d 24c1 303c
00000020: a9da 26bb 90e1 d5bc 9da6 b53d bb16 373d
00000030: 3c4b 103d 4be0 083e df23 1cbd c0a5 143e
00000040: 0f3d bb3d b459 b4bc 243f b53d 95be 293d
00000050: b934 39bc c5b8 1b3d dfb0 a4bc da26 af3d
00000060: dd47 e23d 4a5d 813d dca4 d53d 586e 193d
00000070: 1c7d 54bc bc56 b8bc 5b34 803d 021f 19bd
00000080: da55 f83d 8615 bcbd e73e 08bc abae 97bd
00000090: 8eaf 3bbd 2661 cb3c 22a9 773e 8b5a 3abd
000000a0: c1ca 8d3d c1f4 5f3d dc50 543d 1a30 c8bc
000000b0: d23a a33c d5c9 223d ba96 a03d 2c31 be3b
000000c0: 134f 8c3d c1df 313c 6a45 c8bd 4a2f 7abd
000000d0: b94c 043c 10bd 043e b433 143e d475 9cbc
000000e0: fb94 d7bd 87c5 a9bd 7a67 193b 3992 a8bd
000000f0: dc12 a13d ec2a 70bd d52d 513d 42a8 90bd
00000100: 1b90 2dbd e907 a2bc 096a 86bd 7b38 963d
00000110: b927 8e3d 7e59 913c 3ca5 813d 522f ef3c
00000120: d585 9cbc 6561 0f3e 4d69 a1bd a18b 8f3d
00000130: 3dbf 9f3d 5f53 d6bd 552d 8cbd 9165 adbd
00000140: 6957 7a3d 797d 53bd c537 e7bd c24e 8cbd
00000150: cec0 09be 6055 123d c907 32bd b806 f1bd
00000160: 7fc9 e6bd d0f1 3fbd 5b6b b33d beae 45bd
00000170: 5146 c13c 8fbd ddbb 38fb f63d 67ec 503d
00000180: 7d5f 8dbd 018a aa3b 2c4c 7e3d 06f5 77bc
00000190: 448a e8bc 4ead 73bd a7f0 ebbd e3dc 01be
000001a0: 8486 e23d bc34 6f3d 0a14 423c 2bdc 82bd
000001b0: 462b 5c3d 3db3 cd3d 82da 8b3d d8b2 1b3e
000001c0: 28cc b23d 1a0d efbd 24bd fb3d 7d98 2c3c
000001d0: f8e9 823c 4177 bcbd b76e e13d 6c87 913c
000001e0: 14ce 2c3d 3b94 ee3d 60f9 cd3c 2f0a c7bd
000001f0: 6f57 35bd b4d8 abbd 5f31 58bd 43da 00be
00000200: 09bb babd 297c 803d 1c1d df3c 44e8 c7bd
00000210: 87ef da3c a110 c03d cf39 cabd 6db8 883d
00000220: 5c15 673d f5f7 bd3d 256f 963d 49b7 0b3d
00000230: 3ae4 04be 7f9a 33bd 6c68 8dbc e7b7 9c39
00000240: b54f 013e f9b5 ff3d eb76 a73d b19d 14bd
00000250: d5e7 e6bd f16a 84bd 3093 37bc 7c51 86bd
00000260: 181d 983d 29c1 683d f8ab d83d fd23 cdbb
00000270: a97f 50bd fea6 cc3d b723 0abd 97c6 fa3c
00000280: 04c5 6d3c f0c8 1fbc 1eb3 5fbc 98c6 f23d
00000290: f3b0 e8bc d526 ad3d f720 963d cc0d a6bd
000002a0: 7c9c d53d c374 a03d 6d57 f33d 91d3 85bd
000002b0: 6779 e3bd 8983 55bd bf02 debd 2ef7 bf3d
000002c0: c356 f8bd bb0c f1bd 4049 ffbd ea91 38bd
000002d0: e8cc d43d ac20 87bd b258 a8bd 1c89 073d
000002e0: d82e 893d 06a8 92bc d821 7abd 8e95 f93d
000002f0: 84a6 d93d 7d87 cbbd 0bbd 5e3d d89d dcbd
00000300: 7f5e 283e 2a42 333e e50f 0b3e 335c d7bd
00000310: cc59 863d cd73 a33d ccfe dcbd cbb5 153e
00000320: 1951 083e 0fb8 513c 231c a03d 8bbc b5bd
00000330: e79b 81bd 0302 34bd 4a44 01bd dede f83d
00000340: 8991 473e 3f61 de3d 498e 07bd 440a c63d
00000350: 87aa 1a3e a5e0 3dbd eb65 df3d 5a99 9fbd
00000360: e22d 0d3d a23b 073e b348 293d 0923 253e
00000370: 5d97 a53d 5a23 813c 8275 36bd 607a e13d
00000380: 115e eb3d f604 98bd 1ca8 0a3e 206d 96bc
00000390: 8b44 063d 9856 af3d b42f 013e b244 923d
000003a0: b25e 1a3d cb94 d03d 27b1 103e b1a5 3d3d
000003b0: 65bb f43d 9619 213e c99b 003e 1575 483e
000003c0: 5242 a03d 0fba 343e dc43 c33d 7a59 d03c
000003d0: 5ae6 d73d 8e82 91bc 3f6e 15bd a090 d7bd
000003e0: 7d65 b6bc 707d e93d 091c b73d 1b32 993d
000003f0: fe9a 923d 5ba9 8ebd 94a9 b0bc 9dbb acbd
