notebooks/best_model_total_cond_tz.pth (torch, 192440 bytes, 25 tensors)

rnn.weight_ih_l0 f4 [128, 5]
0.09629647 -0.0945106 -0.009710643 -0.036313355 -0.21127556 -0.15011722 0.23465772 0.27779853
-0.18030383 -0.20875515 -0.048504326 -0.18152669 -0.09101792 0.026463116 0.31772235 -0.026800068
0.023656249 0.15202041 -0.052672606 -0.07585447 -0.06228274 0.099867105 0.11028856 0.29862863
0.34185755 0.103165925 -0.13553806 0.17192179 0.0889206 -0.104708076 0.20577218 0.12155804
0.082443975 0.041068174 -0.14303891 -0.021488056 0.058270313 -0.19188708 -0.105173096 -0.16052867
0.015113458 -0.055935986 0.010169281 -0.17081474 0.0125110615 -0.30008933 0.065209165 -0.25719216
-0.047591254 0.121966064 0.12769228 0.050069705 -0.15192135 -0.14930934 -0.19961677 -0.13636817
-0.03184499 0.13806614 0.13674024 -0.10603308 -0.2681824 -0.048996437 0.14462224 0.012317351
0.021601459 0.098144464 -0.0043306486 -0.03581229 -0.16791524 0.0065242 -0.023618922 0.18671107
-0.08993661 -0.2863992 0.012578728 0.1538142 -0.106193356 0.055462006 -0.19714087 -0.009746954
0.00089343707 -0.010251442 -0.06361906 0.046236616 0.20338643 0.07682972 -0.16041166 0.08296255
-0.19624214 -0.15130904 -0.018818436 -0.023535274 -0.1246477 -0.098494925 -0.13040502 -0.085922316
-0.005612951 -0.20714341 0.13028452 -0.23233019 -0.33353958 0.3436609 -0.011720187 0.059549827
0.15828289 0.29086256 0.15724188 0.0065982523 -0.34230796 0.2800309 -0.10691941 0.044922467
0.123422444 0.20025255 -0.15874317 0.02030513 0.07970764 -0.1284731 -0.0667368 0.19277519
0.046972603 0.08822344 0.20709081 -0.00045437049 0.11437174 -0.010712051 0.07112421 -0.081298284
-0.05840014 0.1544247 0.015284868 -0.12571216 0.53977215 0.257732 -0.06136733 0.14052603
0.2151185 0.011010156 -0.11203958 -0.21542668 -0.025478983 0.3913059 0.31911275 -0.026316231
0.12108294 -0.33585683 -0.06259423 -0.027447289 -0.12438806 -0.1519481 -0.1272759 -0.07056743
-0.1454143 -0.09047129 0.2188483 0.10138372 0.19084562 -0.31658491 -0.33496505 -0.011892536
0.37968516 -0.24154337 0.031944714 0.04827426 -0.18685743 -0.30045676 0.23952468 0.33006287
-0.15762424 -0.10009242 0.0380067 0.0016288434 -0.022349918 0.17791757 0.14765121 -0.15957817
-0.00959618 0.0755756 0.012859204 0.21887992 0.12121761 -0.0023773282 -0.08595728 0.38909575
0.1759754 0.2564818 -0.09509009 0.2916489 -0.20506184 -0.13468586 -0.023410585 0.0970727
-0.16678508 -0.089019746 -0.2743856 0.02902143 -0.23988058 -0.029323228 0.3132985 0.20079388
0.07896868 -0.28277487 0.15734915 0.21375728 0.18927662 0.12564567 0.18714443 -0.24760675
0.04193271 -0.071671434 -0.0719841 -0.07713622 0.12716846 0.021854213 0.10208125 0.09893162
-0.05783469 0.06380414 0.06094945 0.22119606 -0.27509636 -0.28921562 -0.14885801 0.16389157
0.16257223 -0.0057438603 -0.09977197 0.1538285 -0.30760145 -0.15520811 -0.101578794 -0.016006256
-0.32453522 0.0628247 -0.07597524 0.20707184 -0.08642124 -0.099566564 0.09008695 0.043696858
0.11633569 0.11175264 -0.061429124 0.07036752 -0.044689354 0.19559611 -0.1795539 0.031683546
0.1002234 -0.22490022 0.11493504 -0.057911765 -0.036337588 -0.07692748 -0.10717221 0.13088691
00000000: 1537 c53d c68e c1bd 6419 1fbc 50bd 14bd
00000010: 9f58 58be 54b8 19be 1d4a 703e 9c3b 8e3e
00000020: 91a1 38be e9c3 55be 79ac 46bd 22e2 39be
00000030: 9a67 babd 2dc9 d83c 81ac a23e d18b dbbc
00000040: c0ca c13c 3dab 1b3e 3bbf 57bd 9759 9bbd
00000050: 301c 7fbd 2087 cc3d f8de e13d dae5 983e
00000060: f407 af3e a848 d33d 7dca 0abe 440c 303e
00000070: 011c b63d 3071 d6bd f1b5 523e 6cf3 f83d
00000080: 63d8 a83d 1a37 283d cb78 12be b807 b0bc
00000090: daac 6e3d 0c7e 44be fe64 d7bd a161 24be
000000a0: 709e 773c 221d 65bd 0e9d 263c 0fea 2ebe
000000b0: 32fb 4c3c 4fa5 99be 628c 853d b1ae 83be
000000c0: 0cef 42bd 58c9 f93d c4c1 023e e415 4d3d
000000d0: 4591 1bbe 8ce4 18be 5768 4cbe 19a4 0bbe
000000e0: e46f 02bd 3661 0d3e a205 0c3e df27 d9bd
000000f0: 344f 89be 7db0 48bd da17 143e b7ce 493c
00000100: 8bf5 b03c f7ff c83d 1de8 8dbb e8af 12bd
00000110: f9f1 2bbe f5c8 d53b 787c c1bc 3031 3f3e
00000120: af30 b8bd eaa2 92be 0217 4e3c 7881 1d3e
00000130: e77b d9bd 212c 633d 4cdf 49be b0b1 1fbc
00000140: 8c35 6a3a aaf5 27bc b64a 82bd 9b62 3d3d
00000150: 8844 503e e658 9d3d f442 24be 45e8 a93d
00000160: b3f3 48be c2f0 1abe 1f29 9abc 0ccd c0bc
00000170: 4b47 ffbd b5b7 c9bd e588 05be 0af8 afbd
00000180: d8ec b7bb 671d 54be 4e69 053e f7e7 6dbe
00000190: b3c5 aabe 52f4 af3e 0706 40bc 85ea 733d
000001a0: e914 223e f0eb 943e 0404 213e 2736 d83b
000001b0: fd42 afbe 3660 8f3e 90f8 dabd 9f00 383d
000001c0: e8c4 fc3d 010f 4d3e 928d 22be f256 a63c
000001d0: c23d a33d 748e 03be 4ead 88bd dc66 453e
000001e0: 5866 403d 7eae b43d 9d0f 543e 9338 eeb9
000001f0: bb3b ea3d 9981 2fbc 92a9 913d b77f a6bd
00000200: fc34 6fbd 8221 1e3e 626d 7a3c b0ba 00be
00000210: 822e 0a3f 73f5 833e 4f5c 7bbd 0ee6 0f3e
00000220: 0648 5c3e f163 343c 0275 e5bd d098 5cbe
00000230: 4db9 d0bc 3f59 c83e bf62 a33e 2395 d7bc
00000240: 55fa f73d 6df5 abbe 6731 80bd 23d9 e0bc
00000250: 2bbf febd 4898 1bbe 9d54 02be a885 90bd
00000260: 7ce7 14be 0349 b9bd c519 603e 45a2 cf3d
00000270: 096d 433e 6b17 a2be 8a80 abbe e9d8 42bc
00000280: 1866 c23e 2557 77be 76d8 023d 3bbb 453d
00000290: 8e57 3fbe 78d5 99be f545 753e 00fe a83e
000002a0: 4068 21be 41fd ccbd eaac 1b3d ea7e d53a
000002b0: 2d17 b7bc 0630 363e e131 173e 7668 23be
000002c0: 4c39 1dbc 61c7 9a3d 69af 523c 0f22 603e
000002d0: f040 f83d f3cc 1bbb 5f0a b0bd 8f37 c73e
000002e0: e532 343e 9551 833e 98be c2bd 0153 953e
000002f0: bbfb 51be 17eb 09be 8ec7 bfbc 0dce c63d
00000300: b5c9 2abe fc4f b6bd 457c 8cbe 5abe ed3c
00000310: 41a3 75be 4437 f0bc a968 a03e e99c 4d3e
00000320: 55ba a13d dec7 90be 2320 213e 30e3 5a3e
00000330: bbd1 413e 42a9 003e caa2 3f3e a08c 7dbe
00000340: a2c1 2b3d 79c8 92bd 666c 93bd 98f9 9dbd
00000350: 7338 023e 9b07 b33c f90f d13d a99c ca3d
00000360: 11e4 6cbd bfab 823d 21a6 793d 3881 623e
00000370: 6ed9 8cbe 1214 94be 3c6e 18be 31d3 273e
00000380: 5679 263e fe36 bcbb 3f55 ccbd 3885 1d3e
00000390: f07d 9dbe e0ee 1ebe 8b08 d0bd 8d1f 83bc
000003a0: 7b29 a6be 3caa 803d e898 9bbd a40a 543e
000003b0: 9efd b0bd 8ee9 cbbd 827f b83d 7afb 323d
000003c0: 6841 ee3d 91de e43d 1b9d 7bbd d91c 903d
000003d0: 2f0c 37bd 594a 483e fadc 37be 9bc6 013d
000003e0: ed41 cd3d 3e4c 66be 1063 eb3d e334 6dbd
000003f0: b9d6 14bd 288c 9dbd 1b7d dbbd 3807 063e

rnn.weight_hh_l0 f4 [128, 32]
-0.07427649 -0.36885786 -0.14198995 -0.62902606 0.144562 -0.031642593 0.03217237 0.3421182
-0.07210119 -0.07307762 0.021792032 0.00061327324 -0.24713781 -0.011577849 0.0562551 -0.14746992
0.15103218 0.007713576 -0.07654077 -0.3479111 -0.32828787 0.52193457 -0.06381376 -0.01733506
0.051306017 -0.095006905 -0.27984735 0.15803464 0.0724418 0.057267312 -0.08043829 -0.21657388
0.12974621 0.02166706 -0.034845352 -0.23851575 0.027542137 0.14505541 0.0016963177 0.14973894
0.21069357 0.21964063 -0.10880135 0.038180396 -0.093211524 0.08787724 -0.044543307 0.13188623
-0.15666795 0.09277205 -0.044779584 -0.16929919 0.20947115 0.03903362 0.16008534 0.07111299
0.21671705 -0.020927612 -0.18044575 0.21798947 -0.046071377 -0.13109341 0.22555475 -0.10690939
0.09150702 -0.18044165 -0.15745308 0.21292812 -0.076889604 0.20303784 0.16023482 -0.11175734
-0.045272674 -0.0061754547 0.056461975 0.252931 0.23169164 -0.046883807 -0.06246887 0.015193261
-0.018291645 -0.26047146 -0.25087988 -0.041573003 0.038450792 0.17071597 -0.020448202 0.031534605
0.1301282 0.24156238 0.07219859 -0.039800882 0.022390068 0.001858927 -0.034496512 -0.037137546
0.027686777 -0.19007726 -0.27729422 0.038423453 -0.104367144 -0.05119491 -0.02159676 0.18311062
0.18545614 0.03352789 -4.354791e-05 0.15336609 -0.058299467 -0.0024606774 -0.12354032 0.05686249
0.33433393 0.053463485 -0.09552135 -0.009233059 -0.27439952 0.013614559 0.057798438 -0.06596207
-0.109320916 0.027820136 0.13607803 0.07969869 0.19682041 -0.06091225 0.09751777 0.048213053
0.22704443 -0.20629781 -0.3281697 0.07205526 -0.032329764 0.20181224 0.2789647 0.06869988
-0.10746215 -0.13157004 -0.018189792 0.3324218 0.04974368 0.0705405 -0.405934 -0.3631525
0.4405597 -0.27942747 -0.5232985 -0.43109158 -0.15142712 0.2931468 -0.29797906 -0.19842137
-0.09480925 0.07737993 -0.07178468 -0.11870605 -0.21075892 -0.2606507 0.053159826 -0.12559433
0.117385246 0.08595018 -0.049210623 0.00035684538 -0.24355757 -0.0032952833 0.23660448 0.36385536
-0.012958604 -0.10535361 -0.02991673 -0.14494027 -0.21718025 0.29696202 -0.35363865 -0.19798402
0.19478504 -0.15456156 -0.080643244 -0.09550369 -0.19199125 0.27355728 -0.28681585 -0.16291837
-0.14831142 0.18485996 0.06953086 -0.2661804 0.23065144 -0.2722048 0.04068382 -0.12099005
0.21791399 -0.027063442 -0.082552224 -0.1748622 -0.17401564 0.013675713 0.1214805 0.16372795
0.032263402 0.05741876 -0.010080909 -0.13452965 -0.10672569 0.03477128 0.11750912 -0.102543615
0.036714084 0.07522944 -0.18033934 -0.13602006 -0.16516468 -0.06958117 -0.014991994 -0.05537552
0.16312928 -0.07797321 -0.1117562 0.043774653 0.26910272 0.12419946 -0.044759955 0.015609098
0.09078989 -0.07998877 -0.028433044 0.12993631 -0.215011 -0.031488486 0.19613089 -0.074264966
0.035704564 0.1838089 -0.18447955 0.005823542 -0.058964405 0.024031233 0.12575237 -0.13104266
-0.0041892403 -0.20984885 -0.08421963 -0.047986027 0.0071423887 -0.041211396 -0.3967376 -0.040196203
0.11728179 0.098356485 -0.23188464 0.05846758 -0.24266443 -0.036837585 0.1823777 0.111873604
00000000: 461e 98bd f0da bcbe d065 11be da07 21bf
00000010: 1008 143e aa9b 01bd 2dc7 033d 1e2a af3e
00000020: caa9 93bd b8a9 95bd 3485 b23c 12c4 203a
00000030: b211 7dbe 05b1 3dbc bf6b 663d 5b02 17be
00000040: 2ea8 1a3e 2ac2 fc3b 68c1 9cbd 6721 b2be
00000050: 5915 a8be 819d 053f cab0 82bd 4102 8ebc
00000060: 4226 523d fb92 c2bd 2748 8fbe d5d3 213e
00000070: 5e5c 943d 2191 6a3d d5bc a4bd 8bc5 5dbe
00000080: 31dc 043e 1e7f b13c 00ba 0ebd 793d 74be
00000090: 0ca0 e13c 6889 143e fa56 de3a 2a55 193e
000000a0: 0ec0 573e 79e9 603e 3ed3 debd 0c63 1c3d
000000b0: afe5 bebd fbf8 b33d 0b73 36bd 2f0d 073e
000000c0: 906d 20be 46ff bd3d cc6a 37bd c45c 2dbe
000000d0: 9b7f 563e b8e1 1f3d 69ed 233e b0a3 913d
000000e0: 13eb 5d3e 6270 abbc c5c6 38be a238 5f3e
000000f0: 57b5 3cbd 5a3d 06be d3f7 663e 4ff3 dabd
00000100: 0868 bb3d b2c5 38be 613b 21be d409 5a3e
00000110: 4c78 9dbd 27e9 4f3e 9914 243e 08e1 e4bd
00000120: d76f 39bd 785b cabb ac44 673d 2c80 813e
00000130: 9340 6d3e 3c09 40bd 5cdf 7fbd 28ed 783c
00000140: 5cd8 95bc 845c 85be 5473 80be 7448 2abd
00000150: 947e 1d3d 2bd0 2e3e fd82 a7bc 6e2a 013d
00000160: 5440 053e 215c 773e dbdc 933d 4006 23bd
00000170: 606b b73c 3da7 f33a 374c 0dbd 8a1d 18bd
00000180: 61cf e23c 9da3 42be 82f9 8dbe e961 1d3d
00000190: 71be d5bd c1b1 51bd b0eb b0bc 5a81 3b3e
000001a0: 37e8 3d3e 8a54 093d 36a7 36b8 000c 1d3e
000001b0: 6ccb 6ebd 5143 21bb b502 fdbd a4e8 683d
000001c0: d12d ab3e 87fc 5a3d b3a0 c3bd 4246 17bc
000001d0: 187e 8cbe 990f 5f3c 0ebe 6c3d 1f17 87bd
000001e0: a5e3 dfbd 0ee7 e33c 0a58 0b3e 1139 a33d
000001f0: 4a8b 493e 207f 79bd 66b7 c73d 0d7b 453d
00000200: 567e 683e bc3f 53be dc05 a8be b591 933d
00000210: 376c 04bd dea7 4e3e 76d4 8e3e 86b2 8c3d
00000220: 1e15 dcbd 4cba 06be c202 95bc 3133 aa3e
00000230: 07c0 4b3d 8a77 903d 95d6 cfbe 20ef b9be
00000240: 0a91 e13e 1e11 8fbe e4f6 05bf 09b8 dcbe
00000250: b60f 1bbe 5617 963e b690 98be f92e 4bbe
00000260: 5a2b c2bd 5e79 9e3d d903 93bd 281c f3bd
00000270: 30d1 57be 0274 85be 1ebe 593d cd9b 00be
00000280: ad67 f03d a606 b03d 1491 49bd fa16 bb39
00000290: 2867 79be aef5 57bb 7248 723e 404b ba3e
000002a0: 5350 54bc a2c3 d7bd ee13 f5bc 396b 14be
000002b0: 8064 5ebe 680b 983e 2010 b5be 53bc 4abe
000002c0: bb75 473e 6345 1ebe 4928 a5bd 7097 c3bd
000002d0: 5b99 44be b30f 8c3e 87d9 92be 13d4 26be
000002e0: f3de 17be ee4b 3d3e 3266 8e3d cc48 88be
000002f0: e42f 6c3e 6d5e 8bbe 14a4 263d a2c9 f7bd
00000300: d824 5f3e 27b4 ddbc 2411 a9bd 140f 33be
00000310: 2831 32be 1910 603c c5ca f83d 4da8 273e
00000320: a126 043d ef2f 6b3d 662a 25bc 24c2 09be
00000330: 0093 dabd 546c 0e3d 9fa8 f03d 6302 d2bd
00000340: 8261 163d e511 9a3d e0aa 38be d848 0bbe
00000350: ee20 29be 9380 8ebd fba0 75bc 71d1 62bd
00000360: 5d0b 273e 6bb0 9fbd 6fe0 e4bd 0d4d 333d
00000370: d5c7 893e 495c fe3d 3756 37bd 4dbd 7f3c
00000380: 0df0 b93d 27d1 a3bd 6aec e8bc 060e 053e
00000390: d82b 5cbe 12fa 00bd 89d6 483e 3b18 98bd
000003a0: f33e 123d 6638 3c3e 35e8 3cbe 69d3 be3b
000003b0: a984 71bd 26dd c43c 3bc5 003e 0c30 06be
000003c0: e545 89bb 9ee2 56be 577b acbd ff8c 44bd
000003d0: b30a ea3b 48cd 28bd 3121 cbbe c6a4 24bd
000003e0: 6f31 f03d 206f c93d 2b73 6dbe b37b 6f3d
000003f0: 067d 78be 02e3 16bd 38c1 3a3e fd1d e53d

rnn.bias_ih_l0 f4 [128]
0.37234825 0.039770808 0.0937318 0.16052394 0.01931313 0.17671423 0.020396115 0.082361065
0.15313345 0.17479968 0.072052665 0.13647166 0.05337504 0.34067473 0.07117886 0.09654044
0.003410341 0.3283018 -0.058893785 0.14981528 0.23558824 0.22233133 0.19518805 -0.034928557
0.085743904 0.027172228 0.17383066 -0.020528387 0.16190179 0.103087574 0.14381257 -0.069861904
0.119296946 0.07886082 -0.091424815 0.060325693 -0.06332098 0.104337715 -0.055961993 0.21189125
0.11430034 0.0760716 -0.054226317 0.040944118 0.034641042 0.0668033 -0.053685937 0.16189376
0.09656715 0.14105916 0.152321 0.13711362 -0.003857574 0.15879487 0.08321911 0.2059144
0.1731134 -0.13677876 0.025985282 0.20825686 0.1604808 0.0635188 0.03149009 -0.02960423
-0.14743209 -0.07673152 -0.1327042 -0.07711805 -0.14750104 -0.08670361 -0.084921755 0.013040049
0.08333542 -0.07261551 -0.032262765 -0.08490895 -0.0859439 -0.07198173 0.057247814 -0.10380478
0.12973261 -0.057808563 0.091211215 -0.1356637 -0.090933874 0.0835899 -0.1987849 0.008464014
0.06057169 -0.055080272 -0.11616185 0.012774861 0.085579254 0.07966718 -0.06775895 -0.19199008
0.4505314 -0.117997125 -0.00046026413 0.16407397 0.22338068 0.051078882 -0.04306173 0.2703552
0.029637855 -0.04040343 0.25748926 0.3194179 0.18074982 0.16971219 0.29559997 0.05099276
-0.004922432 0.23902625 0.07670171 0.095903456 0.082120255 0.013389938 0.21705322 0.23195462
0.2009519 0.1001081 0.1363099 0.028779458 0.1362345 0.005135588 0.20990014 -0.11240544
00000000: 6ea4 be3e b7e6 223d 75f6 bf3d 6360 243e
00000010: 9236 9e3c 93f4 343e c115 a73c ebac a83d
00000020: 04cf 1c3e b0fe 323e 5990 933d 3abf 0b3e
00000030: c99f 5a3d eb6c ae3e 39c6 913d ffb6 c53d
00000040: 0780 5f3b 2c17 a83e 9c3a 71bd 2d69 193e
00000050: 0b3e 713e d3aa 633e 60df 473e 3f11 0fbd
00000060: 809a af3d 4b98 de3c aa00 323e 262b a8bc
00000070: 95c9 253e 941f d33d 9a43 133e c213 8fbd
00000080: f551 f43d c881 a13d ef3c bbbd 1318 773d
00000090: 6eae 81bd 03af d53d 6738 65bd 05fa 583e
000000a0: 4c16 ea3d 6dcb 9b3d 6a1c 5ebd 05b5 273d
000000b0: c4e3 0d3d 2bd0 883d c9e5 5bbd 7ac7 253e
000000c0: ffc4 c53d d071 103e 09fa 1b3e 8367 0c3e
000000d0: 5acf 7cbb 1f9b 223e c86e aa3d 39db 523e
000000e0: a444 313e bb0f 0cbe 16df d43c 4941 553e
000000f0: 1455 243e 2516 823d c1fb 003d 9284 f2bc
00000100: 70f8 16be 6a25 9dbd 9ce3 07be 11f0 9dbd
00000110: 830a 17be aa91 b1bd 75eb adbd eea5 553c
00000120: c3ab aa3d 71b7 94bd f625 04bd bee4 adbd
00000130: 5b03 b0bd 286b 93bd af7c 6a3d 9a97 d4bd
00000140: a0d8 043e acc8 6cbd f2cc ba3d 6deb 0abe
00000150: 8a3b babd 2e31 ab3d 458e 4bbe a6ac 0a3c
00000160: 051a 783d da9b 61bd 44e6 edbd a74d 513c
00000170: 2d44 af3d 8c28 a33d 34c5 8abd 0c99 44be
00000180: 0dac e63e 7aa8 f1bd 9b4f f1b9 0203 283e
00000190: e8bd 643e 1738 513d 7f61 30bd ff6b 8a3e
000001a0: 16cb f23c 117e 25bd a2d5 833e be8a a33e
000001b0: 7b16 393e 08c9 2d3e e158 973e c9dd 503d
000001c0: 5a4c a1bb 4cc3 743e c915 9d3d 0869 c43d
000001d0: aa2e a83d 7861 5b3c 3343 5e3e 8385 6d3e
000001e0: 56c6 4d3e 7a05 cd3d d394 0b3e e6c2 eb3c
000001f0: 0f81 0b3e 6f48 a83b 10f0 563e d334 e6bd

rnn.bias_hh_l0 f4 [128]
0.34575182 -0.067243785 0.17152962 -0.015524743 0.05655262 0.09770221 0.026050834 -0.07947587
-0.04719185 0.170792 0.011448774 0.016038787 0.033408627 0.21789804 0.33293873 0.005228022
0.10114282 0.17680651 0.19831085 0.042802513 0.13450764 0.15116662 -0.058139168 -0.09378784
0.11108391 0.20691429 0.13650371 0.18873687 0.22444984 -0.024698507 0.16815487 -0.017530618
0.07599731 0.030452276 0.03508212 0.0049713957 0.123017296 -0.010408333 0.09989728 0.20832385
0.16416895 -0.10593312 -0.08146619 -0.007988639 0.019086773 -0.14187014 -0.089429505 0.15923701
0.04398312 0.016988194 0.13281263 0.13404039 0.20237903 -0.0071210484 -0.14469752 0.011265046
0.0136357695 -0.108429424 -0.02100183 0.19925855 -0.036756992 -0.1013649 -0.20496431 -0.06872046
-0.1128819 -0.01811568 -0.11209672 -0.025938706 0.012080291 0.043216825 0.0047449567 0.019325426
0.08181665 0.05047354 0.02839937 0.05593837 0.029748913 -0.03310505 0.072953045 -0.041083127
0.16711657 0.05009553 -0.23444837 -0.14358054 0.115182996 -0.14605992 0.012375174 0.12617159
-0.00839806 0.09609463 -0.146281 0.009146427 -0.1065273 -0.046805453 -0.056723893 -0.08416239
0.3458317 0.06632631 0.23138793 0.25583127 0.26287636 0.13420434 -0.09020837 0.18436418
0.21923676 0.18593454 0.07227794 0.013871158 0.17694816 0.28957403 0.3544942 -0.0011535622
0.18273467 0.013652608 -0.08766963 0.16652091 0.31249478 0.32840666 0.09034335 0.18801035
0.24854186 0.05349869 0.25849694 0.2584047 0.02938165 0.03332611 -0.08274155 0.0075689224
00000000: 6206 b13e 1cb7 89bd 76a5 2f3e 7e5b 7ebc
00000010: b8a3 673d 1918 c83d 8f68 d53c 3fc4 a2bd
00000020: 3e4c 41bd 19e4 2e3e a393 3b3c c663 833c
00000030: 7cd7 083d aa20 5f3e f276 aa3e d44f ab3b
00000040: f823 cf3d c40c 353e 0012 4b3e b051 2f3d
00000050: 5fbc 093e 6ccb 1a3e 5623 6ebd d713 c0bd
00000060: f67f e33d 57e1 533e a1c7 0b3e 3d44 413e
00000070: 2ed6 653e 8654 cabc ca30 2c3e 5f9c 8fbc
00000080: 7aa4 9b3d 0d77 f93c 45b2 0f3d 17e7 a23b
00000090: 7ef0 fb3d b687 2abc f296 cc3d d952 553e
000000a0: e81b 283e 77f3 d8bd bfd7 a6bd c8e2 02bc
000000b0: dd5b 9c3c 6846 11be d126 b7bd 070f 233e
000000c0: a527 343d d32a 8b3c 0900 083e e241 093e
000000d0: 733c 4f3e af57 e9bb 962b 14be 0791 383c
000000e0: 9068 5f3c 3f10 debd 080c acbc 6f0a 4c3e
000000f0: 808e 16bd 6798 cfbd 2ae2 51be 50bd 8cbd
00000100: a02e e7bd 5667 94bc f792 e5bd 697d d4bc
00000110: 6aec 453c 2004 313d 957b 9b3b 5b50 9e3c
00000120: 7d8f a73d 58bd 4e3d cca5 e83c a21f 653d
00000130: feb3 f33c 2999 07bd 6868 953d c846 28bd
00000140: 9b20 2b3e f830 4d3d 3c13 70be c706 13be
00000150: 10e5 eb3d bb90 15be 3ec1 4a3c 2033 013e
00000160: 0498 09bc 43cd c43d b0ca 15be e5da 153c
00000170: fc2a dabd 13b7 3fbd 5057 68bd 555d acbd
00000180: da10 b13e 17d6 873d f5f0 6c3e 51fc 823e
00000190: bb97 863e dd6c 093e 2abf b8bd f7c9 3c3e
000001a0: 9a7f 603e a065 3e3e 7506 943d da43 633c
000001b0: e631 353e 0c43 943e 4480 b53e 2033 97ba
000001c0: cc1e 3b3e 30af 5f3c 238c b3bd 7584 2a3e
000001d0: 51ff 9f3e eb24 a83e ef05 b93d c985 403e
000001e0: c281 7e3e 7121 5b3d b659 843e 9f4d 843e
000001f0: c9b1 f03c f680 083d 6774 a9bd b904 f83b

rnn.weight_ih_l1 f4 [128, 32]
-0.1563829 0.0028507987 -0.25542933 -0.34351864 0.12659074 -0.08604212 0.02613651 0.102480195
0.22926648 0.14492364 -0.057895806 -0.056076076 -0.15334986 0.19462565 0.11343975 0.09946119
0.025228925 0.1106687 -0.17419745 0.039612442 -0.1624149 0.042460598 0.009099624 0.011460948
-0.20200501 -0.06948517 -0.082933635 0.022802882 0.22514138 0.060999706 -0.114620715 0.10661176
0.20447779 -0.34766996 -0.23364973 -0.089952245 -0.014073336 -0.032190427 0.20810637 0.16033687
0.10948031 -0.086006984 -0.05505092 0.06620557 -0.20187534 0.09643566 -0.17862502 0.08468965
0.20009622 -0.1872957 -0.17058189 -0.027234118 -0.29904374 -0.025055246 -0.16271389 -0.20042731
0.0063288533 0.0035057557 -0.23332807 -0.18400326 0.1850824 -0.028604196 0.10680448 0.07811573
0.079719536 -0.14080404 0.028723672 -0.16722144 -0.08093263 -0.13404675 0.103682585 -0.1439968
0.019303562 0.0062666386 0.039252877 -0.19005129 -0.073754445 -0.06891601 0.11307865 0.044535134
0.09967305 0.19347131 -0.16195801 0.099583946 0.0790313 -0.17724822 0.17916407 0.11803295
-0.19031334 -0.030982196 -0.056674857 0.030342693 0.07192633 0.11980359 -0.0451926 -0.041328527
-0.08062196 -0.08183073 -0.041006498 -0.24615099 0.20560345 -0.16460812 0.034577295 -0.05376346
-0.09687405 -0.05890117 -0.023159351 -0.01278623 0.032062743 0.061443217 -0.19508205 0.1631755
0.27953455 0.025416639 -0.10805322 -0.17996891 -0.11730157 0.28525117 -0.05024166 -0.03634395
0.09704368 -0.025364794 0.083346516 -0.1101603 0.094634764 -0.06410165 0.06751742 -0.0802958
0.16510901 -0.10204499 0.046719905 0.090646885 -0.092704564 0.09437014 0.10657503 -0.015947768
0.20310943 -0.0060187755 -0.05280207 0.09649006 -0.029633697 0.0998181 -0.12386809 0.017671134
-0.08260498 -0.051803734 0.017552005 0.085317306 -0.14864779 -0.20861605 -0.06495471 -0.06206851
0.009019226 -0.16256934 0.044023506 -0.059554342 0.010963571 0.01703392 0.032435887 -0.20948654
0.059682157 -0.09612345 -0.14126594 -0.14350042 -0.064021476 -0.08626296 0.021667676 0.07594748
0.21328887 0.062398914 0.020509303 -0.020200765 -0.23819858 -0.055420287 -0.0331778 0.06936681
0.11398846 0.028300986 -0.18867311 -0.101233944 -0.24019983 0.14089075 -0.19835487 0.08740455
-0.03399528 0.011125672 -0.2177023 -0.114188805 -0.18091443 0.16367589 0.09170671 0.062076036
0.15662748 0.029574528 -0.10466158 -0.21450041 0.23050709 -0.14694564 -0.18670413 0.029172922
0.1761521 -0.081255026 -0.1049261 -0.031944547 -0.10738348 0.096091054 0.002348119 -0.03877627
0.1086146 -0.004644776 0.04267933 0.004853783 0.064975664 0.14098652 0.039202247 -0.20550615
-0.18656586 0.02246788 -0.087109536 -0.19467287 -0.086004846 -0.0020978956 0.0781159 -0.02887672
0.053713657 -0.12835178 0.09653208 -0.22821341 0.2398296 -0.010006548 0.19482377 0.026182799
-0.03324358 -0.09496791 0.021017598 0.085964866 -0.05070272 -0.023977553 -0.22734937 -0.14864454
0.09518104 -0.11889644 0.050823588 0.11320522 -0.19654478 -0.09716873 -0.07502186 -0.081411146
-0.13125993 -0.14564107 -0.13582344 -0.23937955 0.35294402 -0.014673394 0.03790013 -0.09718446
00000000: d722 20be 77d4 3a3b a2c7 82be ade1 afbe
00000010: 01a1 013e da36 b0bd 3c1c d63c 23e1 d13d
00000020: d5c4 6a3e dd66 143e 2724 6dbd 07b0 65bd
00000030: bf07 1dbe f24b 473e 1a53 e83d 4fb2 cb3d
00000040: e4ac ce3c 45a6 e23d d160 32be a840 223d
00000050: 1750 26be 2aeb 2d3d 9716 153c b3c6 3b3c
00000060: 67da 4ebe 3e4e 8ebd 1cd9 a9bd 1ccd ba3c
00000070: 768b 663e d4da 793d 44be eabd 4457 da3d
00000080: a062 513e cc01 b2be e041 6fbe e238 b8bd
00000090: d993 66bc 1cda 03bd d619 553e 592f 243e
000000a0: 3637 e03d 6e24 b0bd 137d 61bd c996 873d
000000b0: 69b8 4ebe 0f80 c53d 7ae9 36be c471 ad3d
000000c0: 06e6 4c3e 72ca 3fbe 05ad 2ebe 161a dfbc
000000d0: 431c 99be a940 cdbc 789e 26be d13c 4dbe
000000e0: 4562 cf3b d2c0 653b 8eed 6ebe 5a6b 3cbe
000000f0: 3e86 3d3e 5953 eabc 4fbc da3d 24fb 9f3d
00000100: ff43 a33d ef2e 10be e84d eb3c 193c 2bbe
00000110: 02c0 a5bd 8d43 09be 8957 d43d e673 13be
00000120: 8122 9e3c 6058 cd3b a0c7 203d ce9c 42be
00000130: 920c 97bd d623 8dbd c795 e73d 796a 363d
00000140: 6221 cc3d 581d 463e 52d8 25be abf2 cb3d
00000150: 2adb a13d 8f80 35be c976 373e 42bb f13d
00000160: 80e1 42be 60ce fdbc e523 68bd 3d91 f83c
00000170: 1d4e 933d 965b f53d e01b 39bd 1a48 29bd
00000180: 201d a5bd df96 a7bd 6ef6 27bd 010f 7cbe
00000190: b689 523e 088f 28be eca0 0d3d 1337 5cbd
000001a0: e765 c6bd 5a42 71bd aeb8 bdbc 567d 51bc
000001b0: 3954 033d e2ab 7b3d 97c3 47be 7a17 273e
000001c0: 271f 8f3e 8e36 d03c 024b ddbd c549 38be
000001d0: ce3b f0bd 710c 923e 33ca 4dbd 65dd 14bd
000001e0: d6be c63d d4c9 cfbc 94b1 aa3d b99b e1bd
000001f0: dfcf c13d ba47 83bd 9346 8a3d 2072 a4bd
00000200: 5612 293e f7fc d0bd 5f5d 3f3d 13a5 b93d
00000210: e4db bdbd 2245 c13d 0244 da3d e5a4 82bc
00000220: ebfb 4f3e 2639 c5bb fc46 58bd 959c c53d
00000230: 5ec2 f2bc 6f6d cc3d 8eae fdbd 0ec3 903c
00000240: cd2c a9bd 2730 54bd 39c9 8f3c d7ba ae3d
00000250: 2037 18be 729f 55be fa06 85bd 8d3b 7ebd
00000260: 60c5 133c 9478 26be fe51 343d 41ef 73bd
00000270: 8da0 333c b88a 8b3c 7edb 043d a483 56be
00000280: 4775 743d 5fdc c4bd 05a8 10be c6f1 12be
00000290: b11d 83bd a3aa b0bd 6980 b13c 5a8a 9b3d
000002a0: 6668 5a3e 0196 7f3d 2003 a83c 137c a5bc
000002b0: 54ea 73be 6200 63bd 72e5 07bd 3010 8e3d
000002c0: c872 e93d 78d7 e73c 8633 41be be53 cfbd
000002d0: f2f6 75be aa45 103e 8a1d 4bbe 2801 b33d
000002e0: a23e 0bbd 7348 363c 5aed 5ebe d2db e9bd
000002f0: a241 39be a79a 273e bad0 bb3d 7143 7e3d
00000300: f462 203e 4846 f23c cf58 d6bd ffa5 5bbe
00000310: 0d0a 6c3e eb78 16be 5e2f 3fbe 0dfc ee3c
00000320: 3761 343e 0969 a6bd 7fe3 d6bd 49d8 02bd
00000330: dfeb dbbd 63cb c43d e6e2 193b ded3 1ebd
00000340: 5571 de3d 3533 98bb 85d0 2e3d 7c0c 9f3b
00000350: f611 853d c55e 103e 8992 203d 3470 52be
00000360: 1f0b 3fbe 8f0e b83c 7c66 b2bd 5358 47be
00000370: 4f23 b0bd d97c 09bb 3bfb 9f3d df8e ecbc
00000380: da02 5c3d a66e 03be 9cb2 c53d c7b0 69be
00000390: e495 753e 81f2 23bc e27f 473e 4f7d d63c
000003a0: 6c2a 08bd 897e c2bd 192d ac3c 590e b03d
000003b0: a8ad 4fbd 936c c4bc 46ce 68be 4636 18be
000003c0: 47ee c23d fa7f f3bd 652c 503d 23d8 e73d
000003d0: 0943 49be 6600 c7bd 10a5 99bd e3ba a6bd
000003e0: 0169 06be ef22 15be 4d15 0bbe ea1f 75be
000003f0: 14b5 b43e ad68 70bc 2b3d 1b3d a508 c7bd

rnn.weight_hh_l1 f4 [128, 32]
0.02632198 -0.11534425 0.03198857 -0.114508085 0.16316979 0.19515912 0.16854203 -0.07367911
-0.11780122 0.18926339 -0.149005 0.14031145 -0.17227949 0.08214816 -0.054044068 -0.07720054
0.19384874 0.19549559 0.011217009 -0.054402214 -0.10744176 -0.2757647 -0.11564172 0.12829465
-0.0068406453 -0.107855976 0.21129303 0.14156134 0.13566107 0.1087927 -0.23082507 0.03834079
0.10079135 0.10684703 0.078460045 0.1336263 -0.15296601 0.12096022 0.16937351 -0.04770988
-0.021072986 -0.05519242 -0.0023377757 0.10415061 -0.090319306 0.21587366 0.19870377 -0.11927884
0.076924786 0.07906619 0.20201458 -0.027742626 0.11188735 -0.05593755 0.02575495 0.083407424
-0.1612487 -0.106736474 -0.085013695 0.020894747 -0.015735732 0.18839103 -0.2160919 0.16903588
0.073426306 -0.008669555 -0.18445386 0.18749021 0.022626476 -0.12083537 0.03078664 0.07283047
0.21865569 0.099466085 0.1444981 0.25901157 -0.044396345 0.23261316 0.069697715 -0.104654014
-0.082500465 -0.04735963 -0.2516987 0.21109992 -0.058347028 -0.12341902 0.0072450284 -0.13277616
-0.19653521 -0.14929941 -0.15933852 0.19227389 0.042489026 -0.11618623 0.036262315 0.15280366
-0.1466128 -0.07236988 -0.14685754 -0.045086753 0.1496386 -0.08338074 -0.07543653 -0.028480353
-0.059678257 -0.16941936 -0.21129927 -0.16172665 -0.062399164 -0.19098432 0.1608377 0.01853955
-0.17324825 0.15864958 0.046914194 0.07999311 0.03887443 -0.11423235 -0.03040258 0.07834096
-0.1021825 -0.19452447 0.073865235 -0.056455866 0.0740125 0.17048696 0.03988393 0.28429446
-0.10761846 -0.09754563 0.027541414 -0.042687554 -0.088477604 0.18366607 0.13344944 -0.19968733
-0.10083917 -0.0016712124 0.075052395 -0.1564203 0.048439637 0.20724669 -0.045394998 -0.10821096
0.16620591 -0.0078063197 0.15972093 -0.1309621 0.027098399 0.14529954 0.0009728245 0.02307946
0.09138244 -0.1405559 -0.12728947 0.10208716 -0.033760373 -0.15771677 -0.14909068 0.047331095
-0.22747764 0.042322233 -0.06875472 0.018950285 -0.017706899 0.19624588 -0.090494126 0.024340395
0.09162829 0.0036577962 0.14453943 -0.10235866 0.05900817 -0.0014761292 0.12268102 0.010736794
-0.20568785 0.0136355525 0.20208146 0.06862977 0.20505331 -0.14200547 -0.06326656 -0.038544998
-0.032772962 0.10912016 -0.20214073 0.07014128 0.03904661 0.11811242 0.032888144 0.012220185
0.07205703 0.049363784 -0.009544931 0.14860964 -0.0024817714 0.1351199 -0.117597915 0.15993331
0.10070701 0.029048553 -0.025023809 -0.094574705 0.056138594 -0.14155355 -0.08810493 0.010825413
-0.073943794 0.035684545 -0.12460525 0.01827089 0.052123 -0.08024107 -0.007276285 -0.1366059
0.11731115 -0.14344718 -0.12536727 0.09020349 0.0033574975 0.1361647 -0.015259496 0.26987296
-0.08726141 -0.10567086 -0.33554748 0.06206286 0.082574025 0.053155866 0.109353796 0.1618155
0.014276194 -0.09547334 -0.16514426 0.13523135 -0.20392558 -0.0068455483 0.012869297 -0.049132552
0.00021765914 0.052775346 -0.08486163 -0.09328831 -0.07536642 -0.076058224 0.109673314 -0.055403378
0.047892414 -0.15324335 0.06155578 0.07366965 0.12460376 -0.009977873 0.15804033 0.17472062
00000000: 31a1 d73c 9b39 ecbd 7206 033d 3783 eabd
00000010: fb15 273e cbd7 473e 4896 2c3e 13e5 96bd
00000020: c441 f1bd 43ce 413e c494 18be cead 0f3e
00000030: 096a 30be 4b3d a83d 505d 5dbd 511b 9ebd
00000040: 4980 463e ff2f 483e 8cc7 373c dbd4 5ebd
00000050: 6d0a dcbd 0831 8dbe 91d5 ecbd ac5f 033e
00000060: 7e27 e0bb 98e3 dcbd 335d 583e 75f5 103e
00000070: bcea 0a3e b5ce de3d 685d 6cbe 3b0b 1d3d
00000080: b26b ce3d 9ed2 da3d a9af a03d 55d5 083e
00000090: 1fa3 1cbe feb9 f73d 4070 2d3e 6f6b 43bd
000000a0: 41a1 acbc 7211 62bd 5e35 19bb ea4c d53d
000000b0: 54f9 b8bd fc0d 5d3e 0079 4b3e 7748 f4bd
000000c0: be8a 9d3d 74ed a13d e9dc 4e3e 8144 e3bc
000000d0: 3225 e53d c61e 65bd 0bfc d23c 83d1 aa3d
000000e0: 611e 25be a798 dabd a91b aebd 762b ab3c
000000f0: 39e8 80bc 94e9 403e 3247 5dbe be17 2d3e
00000100: 8860 963d c00a 0ebc 79e1 3cbe 6ffd 3f3e
00000110: 295b b93c 8978 f7bd 4334 fc3c 2428 953d
00000120: 47e7 5f3e e0b4 cb3d 4ff7 133e 2a9d 843e
00000130: f1d8 35bd 2532 6e3e adbd 8e3d d854 d6bd
00000140: 01f6 a8bd 2cfc 41bd a7de 80be 942a 583e
00000150: 4bfd 6ebd 1cc3 fcbd b467 ed3b 79f6 07be
00000160: 8740 49be f2e1 18be a329 23be 72e3 443e
00000170: f908 2e3d 0cf3 edbd cb87 143d 9078 1c3e
00000180: aa21 16be a936 94bd d361 16be e3ac 38bd
00000190: dc3a 193e 85c3 aabd 787e 9abd a14f e9bc
000001a0: 3071 74bd 457c 2dbe d65e 58be ac9b 25be
000001b0: 4496 7fbd 6591 43be a3b2 243e 41e0 973c
000001c0: fd67 31be 0975 223e 1929 403d 6dd3 a33d
000001d0: cb3a 1f3d a6f2 e9bd d50e f9bc 3a71 a03d
000001e0: 0f45 d1bd 6c31 47be a846 973d 443e 67bd
000001f0: de93 973d 2294 2e3e 555d 233d 0b8f 913e
00000200: 1167 dcbd 01c6 c7bd 889e e13c 25d9 2ebd
00000210: bf33 b5bd f512 3c3e f8a6 083e d67a 4cbe
00000220: c484 cebd 950c dbba 12b5 993d a52c 20be
00000230: a468 463d 7a38 543e 1bf0 39bd b59d ddbd
00000240: e231 2a3e 28cc ffbb e28d 233e ee1a 06be
00000250: 76fd dd3c 67c9 143e 2605 7f3a 2311 bd3c
00000260: b726 bb3d e3ed 0fbe 2c58 02be 1313 d13d
00000270: 5148 0abd 8180 21be 3aab 18be 40de 413d
00000280: e6ef 68be 145a 2d3d 46cf 8cbd a13d 9b3c
00000290: 0f0e 91bc aef4 483e fc54 b9bd 8265 c73c
000002a0: 9da7 bb3d a3b7 6f3b 2502 143e 6ba1 d1bd
000002b0: 8db2 713d ad7a c1ba 3040 fb3d 61e9 2f3c
000002c0: d69f 52be a767 5f3c 71ee 4e3e c48d 8c3d
000002d0: 7ff9 513e e269 11be e691 81bd 5ce1 1dbd
000002e0: f13c 06bd 647a df3d fbfd 4ebe 3ba6 8f3d
000002f0: 57ef 1f3d ede4 f13d b8b5 063d 2c37 483c
00000300: a392 933d ae31 4a3d 5862 1cbc 202d 183e
00000310: 37a5 22bb df5c 0a3e 2dd7 f0bd 8fc5 233e
00000320: 7a3f ce3d 3bf7 ed3c bbfe ccbc 62b0 c1bd
00000330: 95f1 653d 6af3 10be 5c70 b4bd 135d 313c
00000340: d86f 97bd f529 123d 0a31 ffbd d5ac 953c
00000350: ed7e 553d 6e55 a4bd e76d eebb 6be2 0bbe
00000360: d440 f03d d1e3 12be 4760 00be 9bbc b83d
00000370: 7609 5c3b c26e 0b3e f702 7abc ca2c 8a3e
00000380: 1cb6 b2bd f769 d8bd e1cc abbe a035 7e3d
00000390: 921c a93d f7b9 593d e2f4 df3d f6b2 253e
000003a0: b3e6 693c 8787 c3bd 941b 29be 167a 0a3e
000003b0: ded1 50be 9f50 e0bb bed9 523c 373f 49bd
000003c0: 6e3b 6439 f62a 583d efcb adbd f10d bfbd
000003d0: b659 9abd 6ac4 9bbd 679c e03d a7ee 62bd
000003e0: d62a 443d d3eb 1cbe ea21 7c3d 1de0 963d
000003f0: 4230 ff3d 3c7a 23bc 53d5 213e f6e9 323e

rnn.bias_ih_l1 f4 [128]
0.09159336 0.21046703 0.05834547 0.07920183 0.0031184827 0.08325908 -0.034678478 0.09822957
0.2065209 0.03264484 -0.034924835 0.21377994 0.22431086 0.110494964 0.19021875 0.1873994
0.15235327 0.018090604 0.03149824 0.141408 0.16562289 0.055531908 -0.013242697 0.10561423
0.1614918 0.2927211 -0.05030588 0.12650175 0.12726316 0.009133248 0.055535752 0.070504844
0.120061465 0.15374796 -0.12727739 0.17219996 -0.08790378 -0.05872426 0.028508207 0.07513072
0.06275479 -0.0027037833 -6.0471143e-06 -0.158122 -0.035230692 -0.03426712 0.021684263 -0.022904165
-0.005955065 -0.036984712 0.015582432 0.036602806 0.031687006 0.107229196 0.05541324 0.17324282
0.007997192 -0.07851492 0.17288032 -0.02548934 -0.009476414 -0.03264786 0.035359718 -0.03935156
0.003520857 -0.09924751 0.05177262 0.12480773 -0.10231961 0.11556826 -0.117825 -0.1471719
0.12997113 0.023720779 -0.08963727 -0.117071815 0.18043669 0.023630941 0.07294269 -0.12351306
0.01943223 0.17218651 0.030783953 -0.06959749 -0.111427486 0.0028569726 0.017395211 -0.053525113
0.121884376 0.1528265 0.058285512 -0.1695311 -0.087448895 -0.1255562 -0.06907649 -0.028925678
0.010103998 0.0055065528 0.18551362 0.07630373 0.095349096 0.2751711 0.15330051 0.09267507
0.1914654 0.052433167 0.016881783 0.25049677 0.0756905 0.009206538 -0.03499848 -0.03780604
0.04721673 0.12183157 0.09753497 0.22045057 -0.042595617 0.21253742 -0.008711442 0.050514147
0.09925162 0.05016959 0.2599248 0.079752825 -0.10248972 0.07155322 -0.03018625 0.23163845
00000000: 4d95 bb3d ab84 573e a9fb 6e3d 9234 a23d
00000010: 755f 4c3b bd83 aa3d 050b 0ebd 962c c93d
00000020: 377a 533e 99b6 053d 580d 0fbd 21e9 5a3e
00000030: bfb1 653e 2f4b e23d b4c8 423e a1e5 3f3e
00000040: 7f02 1c3e bf32 943c 4c04 013d 42cd 103e
00000050: 0c99 293e 6d75 633d e6f7 58bc 464c d83d
00000060: 1b5e 253e 8adf 953e 8a0d 4ebd ad89 013e
00000070: 4651 023e 9ea3 153c 7579 633d d864 903d
00000080: c9e2 f53d 1b70 1d3e 0155 02be 3055 303e
00000090: e606 b4bd da88 70bd 0b8a e93c 23de 993d
000000a0: 9585 803d f531 31bb 51e8 cab6 bcea 21be
000000b0: 0f4e 10bd ae5b 0cbd 32a3 b13c 84a1 bbbc
000000c0: b522 c3bb 487d 17bd 754d 7f3c d3ec 153d
000000d0: 3cca 013d fb9a db3d fef8 623d 9166 313e
000000e0: a806 033c 6ecc a0bd 8a07 313e 05cf d0bc
000000f0: f642 1bbc c3b9 05bd 5ad5 103d 1a2f 21bd
00000100: 2ebe 663b 4742 cbbd 870f 543d 329b ff3d
00000110: f28c d1bd 0daf ec3d 3c4e f1bd 3bb4 16be
00000120: 2717 053e 1452 c23c bf93 b7bd 59c3 efbd
00000130: 65c4 383e ad95 c13c fa62 953d 6af4 fcbd
00000140: 5730 9f3c a951 303e a12e fc3c 2189 8ebd
00000150: 1834 e4bd 0c3c 3b3b 6780 8e3c 263d 5bbd
00000160: 849e f93d 8d7e 1c3e cabc 6e3d 9099 2dbe
00000170: 6818 b3bd ce91 00be fa77 8dbd 8bf5 ecbc
00000180: 3d8b 253c 5070 b43b 48f7 3d3e 2145 9c3d
00000190: 6346 c33d 3ae3 8c3e cffa 1c3e 6dcc bd3d
000001a0: 810f 443e 29c4 563d aa4b 8a3c 1d41 803e
000001b0: 9f03 9b3d 05d7 163c 915a 0fbd 82da 1abd
000001c0: 5466 413d d582 f93d 6ac0 c73d cbbd 613e
000001d0: be78 2ebd 69a3 593e 70ba 0ebc ece7 4e3d
000001e0: 6f44 cb3d a17e 4d3d dd14 853e 7355 a33d
000001f0: 21e6 d1bd 7f8a 923d 2849 f7bc a132 6d3e

rnn.bias_hh_l1 f4 [128]
-0.05609575 0.1548675 0.02105274 -0.040197723 0.08328863 0.18371707 0.19501863 -0.06214172
0.04217717 -0.09753275 -0.06510468 0.247987 0.1157719 0.15184355 -0.0005501308 0.07528094
0.03471123 -0.051456433 0.02907207 0.09410642 0.033939134 0.15379721 0.113646366 0.19825408
0.24954529 0.043316826 0.23673032 0.1920913 0.16694409 0.05479414 0.09818991 0.16592455
0.08300913 0.00359809 -0.14201686 0.034597643 -0.10086158 -0.06747122 0.1453502 -0.12349194
0.13050288 -0.0664627 -0.06739261 -0.05094333 0.055799432 -0.055602796 -0.15626729 1.3586384e-05
0.17820053 0.13753791 0.005172856 0.0118619865 -0.0822853 -0.040601946 0.0011292787 -0.15712067
-0.014032615 -0.15784852 0.060121812 -0.11127833 -0.090014935 0.010360054 -0.103438325 0.17801829
-0.0012014244 0.07204981 0.16521095 0.10327436 0.064727664 0.16107672 0.071527585 -0.0501626
-0.064567134 0.026622808 0.08060902 -0.012503135 0.058910493 -0.09238914 0.08475274 -0.15464087
0.13309419 0.15966265 0.023519145 -0.048958927 0.086895466 0.12208661 0.053575393 -0.059813164
0.10582744 0.10009564 -0.027732624 0.122936934 0.10380674 0.17808712 -0.14303054 0.008742877
0.18079919 0.16869193 0.14358824 0.16250458 -0.01523478 0.11556238 -0.020052236 0.06418463
0.0596903 0.1006464 0.12868376 -0.05526835 0.019572247 -0.022251535 0.062896684 -0.052578144
0.019094164 -0.0025441383 0.026582293 0.022155765 0.15562636 0.21159261 0.106505044 -0.1160065
0.27467477 0.03210598 -0.08826175 0.095873415 -0.009970167 0.11724892 0.25337115 0.16162245
00000000: a8c4 65bd 9695 1e3e cc76 ac3c 5ea6 24bd
00000010: 3b93 aa3d 5420 3c3e f7b2 473e 5188 7ebd
00000020: f8c1 2c3d 40bf c7bd 9a55 85bd 4ef0 7d3e
00000030: d119 ed3d e07c 1b3e a736 10ba e52c 9a3d
00000040: 5d2d 0e3d fbc3 52bd 8d28 ee3c deba c03d
00000050: c303 0b3d 047d 1d3e 6dbf e83d 1e03 4b3e
00000060: cd88 7f3e fc6c 313d 6f69 723e 95b3 443e
00000070: 64f3 2a3e d26f 603d cb17 c93d 20e8 293e
00000080: b100 aa3d efcd 6b3b de6c 11be 42b6 0d3d
00000090: 8490 cebd 5a2e 8abd afd6 143e 58e9 fcbd
000000a0: 8ca2 053e 991d 88bd 2305 8abd f4a9 50bd
000000b0: f28d 643d c2bf 63bd 8804 20be 13f1 6337
000000c0: 337a 363e bdd6 0c3e 1081 a93b c758 423c
000000d0: 3285 a8bd 3a4e 26bd 4e04 943a 3ee4 20be
000000e0: 0ee9 65bc 0ba3 21be 4a42 763d e5e5 e3bd
000000f0: c059 b8bd 37bd 293c 79d7 d3bd 6d4a 363e
00000100: 1d79 9dba da8e 933d 0f2d 293e 8281 d33d
00000110: f08f 843d 4cf1 243e 0e7d 923d 4c77 4dbd
00000120: c63b 84bd 1318 da3c 5816 a53d f3d9 4cbc
00000130: 214c 713d 8436 bdbd d892 ad3d 2d5a 1ebe
00000140: d849 083e 9b7e 233e 39ab c03c 2889 48bd
00000150: 40f6 b13d 8b08 fa3d df71 5b3d a6fe 74bd
00000160: 0fbc d83d f1fe cc3d 872f e3bc 5cc6 fb3d
00000170: a198 d43d 785c 363e 9976 12be 493e 0f3c
00000180: 6c23 393e 94bd 2c3e cc08 133e 9a67 263e
00000190: 4c9b 79bc f8ab ec3d 9644 a4bc 3b73 833d
000001a0: d17d 743d b31f ce3d adc5 033e 1161 62bd
000001b0: fa55 a03c da48 b6bc facf 803d 2e5c 57bd
000001c0: 5d6b 9c3c 8fbb 26bb 1cc3 d93c 0280 b53c
000001d0: 845c 1f3e bcab 583e 511f da3d d194 edbd
000001e0: 2ca2 8c3e 8f81 033d 94c2 b4bd 4859 c43d
000001f0: e959 23bc 3420 f03d ddb9 813e 5b80 253e

rnn.weight_ih_l2 f4 [128, 32]
0.09232481 0.0026364755 0.009799461 0.054382544 0.12049139 -0.09280358 -0.1121721 -0.17206396
-0.09066868 0.21819548 -0.054346383 0.008901313 0.16133443 0.1780786 -0.11314575 -0.07220225
0.0018203367 0.09626878 -0.043088023 -0.0867601 -0.100690044 0.18067557 -0.089439705 -0.119146965
-0.038379606 0.14942122 -0.13732764 2.7055015e-05 0.11252168 -0.06457046 -0.047470562 -0.11187563
0.09745299 -0.19786799 0.057136152 -0.09457226 -0.055212688 0.37082863 -0.05840329 -0.016345333
0.0867938 0.24094403 0.11999703 -0.15142317 -0.036940176 0.07862777 0.10390504 -0.111971214
-0.07372212 0.074576184 -0.009252999 -0.14965498 0.07388304 -0.05063911 0.10503275 -0.04173209
0.022371694 0.04851435 -0.020529956 0.11025839 -0.06756136 0.112290755 -0.32107252 0.13768664
0.047152426 -0.1672219 -0.021910803 -0.01206346 -0.08466448 0.2233268 0.050921634 -0.12340662
-0.011780998 0.043925483 0.065933585 0.13857408 0.021879306 -0.043823183 -0.079140484 0.02365228
-0.13781258 0.11489425 0.03878817 -0.0563374 0.1228102 0.03860386 -0.047107887 0.1344464
-0.005582304 0.13663962 -0.11711548 0.0034561788 -0.031964835 -0.014172838 -0.1274414 0.071948186
-0.040554665 -0.007108953 -0.14459139 0.102640755 -0.024583235 0.29369825 0.23737971 0.021752488
-0.02284174 0.22320582 -0.12224517 -0.17917252 -0.008506413 0.012430944 0.07017077 -0.13907646
-0.11976225 0.1471946 -0.07825965 -0.15241471 -0.112993605 -0.14091063 -0.09484812 -0.10734344
0.1521994 0.19369036 -0.07546603 0.024414625 0.020590551 0.048423674 -0.4513259 0.21699257
-0.08098993 -0.22301997 0.0064514545 0.17983516 0.036404833 -0.050584517 0.08974587 -0.019054318
0.022067996 0.253339 -0.033613373 -0.17822446 -0.0637627 0.12574014 -0.034800258 -0.12362322
0.11536694 0.0794756 0.07640377 0.021326654 -0.11352254 -0.04982755 0.0063851858 -0.07611269
-0.05267074 0.09930777 -0.08602704 0.2678583 0.10548299 -0.079212576 -0.20254922 0.27396598
-0.03422321 -0.025754895 0.20200013 0.36177126 0.30854127 0.18274608 -0.116645075 -0.45368707
0.14898705 -0.05784652 -0.10032591 -0.26493153 0.273671 -0.03336757 0.056387376 -0.5500756
0.2448227 0.27331322 0.14764068 0.06256498 0.077562444 0.24794118 0.1747247 -0.15429667
0.41615567 0.40232646 0.12991881 1.149923e-05 -0.102710314 -0.1358302 -0.35622305 0.0137918955
-0.05734418 0.10204713 -0.12348255 -0.06695017 0.045577597 -0.03528463 0.10715209 0.071526624
-0.026034323 0.058880765 0.063950785 0.11585634 -0.0174993 0.2621388 -0.0645284 -0.1809591
-0.056406476 0.1960551 -0.1270136 -0.037793726 -0.0065819295 0.044360023 0.0336261 -0.040530942
0.03627139 0.14618064 -0.0026803464 0.12020627 -0.025895435 -0.13221893 0.016519146 0.17565008
0.17770073 -0.089740366 -0.090903 0.057434402 -0.097261794 0.1414069 -0.002087691 0.029376132
-0.10049576 -0.026105793 0.20386735 0.03935967 0.11766368 0.16511866 0.19851714 0.10974114
-0.045294862 0.056448277 0.28906494 -0.112753354 -0.13604473 -0.021722347 0.18502314 -0.051533334
-0.10395871 -0.077424906 -0.067112364 0.008933628 0.05423972 -0.14070259 -0.44332916 0.15468062
00000000: ca14 bd3d b8c8 2c3b eb8d 203c 3bc0 5e3d
00000010: 31c4 f63d ce0f bebd 7cba e5bd 8931 30be
00000020: 80b0 b9bd a36e 5f3e 509a 5ebd d0d6 113c
00000030: da34 253e 3d5a 363e f5b8 e7bd c6de 93bd
00000040: 5d98 ee3a 9128 c53d 117d 30bd 48af b1bd
00000050: 9536 cebd 0403 393e 2a2c b7bd 5303 f4bd
00000060: ef33 1dbd e001 193e 9e9f 0cbe 34f4 e237
00000070: c471 e63d 843d 84bd 7e70 42bd 0d1f e5bd
00000080: 6f95 c73d e89d 4abe 9907 6a3d 1aaf c1bd
00000090: b326 62bd 40dd bd3e 4a38 6fbd a6e6 85bc
000000a0: f3c0 b13d 08ba 763e 01c1 f53d ad0e 1bbe
000000b0: 954e 17bd 9907 a13d 2acc d43d 2a51 e5bd
000000c0: 9ffb 96bd 66bb 983d e499 17bc 283f 19be
000000d0: fe4f 973d f56a 4fbd 691b d73d 45ef 2abd
000000e0: d844 b73c fcb6 463d 702e a8bc 27cf e13d
000000f0: 9c5d 8abd b2f8 e53d 9e63 a4be bafd 0c3e
00000100: e722 413d 383c 2bbe 497e b3bc d2a5 45bc
00000110: 9264 adbd c8af 643e 3493 503d 9cbc fcbd
00000120: 1605 41bc 35eb 333d 3008 873d 5de6 0d3e
00000130: 3b3c b33c f07f 33bd 6814 a2bd 6dc2 c13c
00000140: be1e 0dbe ad4d eb3d 58e0 1e3d 0cc2 66bd
00000150: ea83 fb3d 151f 1e3d 33f4 40bd 51ac 093e
00000160: c3eb b6bb 42eb 0b3e 3eda efbd 0f81 623b
00000170: 8fed 02bd 3135 68bc 0080 02be 9259 933d
00000180: a61c 26bd 38f2 e8bb c40f 14be 5135 d23d
00000190: c862 c9bc 9e5f 963e ab13 733e 4632 b23c
000001a0: 9a1e bbbc 1190 643e ad5b fabd 0079 37be
000001b0: 7b5e 0bbc 28ab 4b3c b1b5 8f3d 0f6a 0ebe
000001c0: e945 f5bd 2eba 163e 9846 a0bd 9a12 1cbe
000001d0: 3169 e7bd e04a 10be bb3f c2bd e1d6 dbbd
000001e0: 29da 1b3e c456 463e ef8d 9abd 2e01 c83c
000001f0: 84ad a83c e757 463d 3014 e7be 4d33 5e3e
00000200: 0cde a5bd 595f 64be b966 d33b b526 383e
00000210: 3c1d 153d b631 4fbd afcc b73d cd17 9cbc
00000220: f1c7 b43c a6b5 813e 2dae 09bd 7980 36be
00000230: 0596 82bd 06c2 003e b78a 0ebd 2c2e fdbd
00000240: 8145 ec3d 1ac4 a23d 9479 9c3d 3cb5 ae3c
00000250: 817e e8bd f917 4cbd d23a d13b f8e0 9bbd
00000260: 46bd 57bd df61 cb3d f22e b0bd b924 893e
00000270: 7707 d83d 343a a2bd 1069 4fbe 4545 8c3e
00000280: a32d 0cbd eefb d2bc 1fd9 4e3e 153a b93e
00000290: 1ff9 9d3e ca21 3b3e 9de3 eebd ac49 e8be
000002a0: 1090 183e 79f0 6cbd ac77 cdbd 1ba5 87be
000002b0: 9b1e 8c3e 6fac 08bd 73f6 663d c1d1 0cbf
000002c0: cdb2 7a3e b6ef 8b3e 1e2f 173e 1122 803d
000002d0: 0fd9 9e3d 4be4 7d3e 08eb 323e f2ff 1dbe
000002e0: 5b12 d53e bcfd cd3e 7009 053e d1ec 4037
000002f0: c959 d2bd 1217 0bbe de62 b6be 67f7 613c
00000300: bbe1 6abd 16fe d03d 6be4 fcbd 2c1d 89bd
00000310: 93af 3a3d 9e86 10bd 8e72 db3d 8d7c 923d
00000320: ef45 d5bc f52c 713d a1f8 823d 1746 ed3d
00000330: b15a 8fbc 0f37 863e 7727 84bd 584d 39be
00000340: 7a0a 67bd abc2 483e da0f 02be 98cd 1abd
00000350: 3aad d7bb dbb2 353d 85bb 093d c603 26bd
00000360: 4f91 143d 61b0 153e c0a8 2fbb b42e f63d
00000370: aa22 d4bc 6664 07be 2953 873c 9ddd 333e
00000380: 2ef7 353e ccc9 b7bd 5a2b babd 5640 6b3d
00000390: 3131 c7bd f8cc 103e a5d1 08bb 37a6 f03c
000003a0: b9d0 cdbd d1db d5bc 9ac2 503e 9b37 213d
000003b0: a8f9 f03d de14 293e 1448 4b3e f6bf e03d
000003c0: 1b87 39bd 4f36 673d 5200 943e 3beb e6bd
000003d0: 4f4f 0bbe 10f3 b1bc b576 3d3e 9e14 53bd
000003e0: 4ee8 d4bd f390 9ebd 3572 89bd 5a5e 123c
000003f0: 782a 5e3d 5714 10be 0afc e2be 9964 1e3e

rnn.weight_hh_l2 f4 [128, 32]
0.119927295 0.13696419 0.03757876 0.021729304 0.18475193 -0.029906733 0.017704254 0.026460966
0.0487011 -0.050785307 0.12992078 -0.08491598 0.10890979 -0.104972936 0.17018223 -0.064099014
0.11826274 -0.08898914 -0.049953073 0.012239802 -0.02601395 -0.026087472 -0.0007714515 0.13175486
0.13558297 0.07796499 0.027310101 -0.15745445 0.13582186 -0.023479447 -0.105820976 0.15943003
0.05326888 -0.21847759 0.14304106 0.049763784 -0.057370342 -0.08371621 0.12047417 -0.03236662
-0.08289538 -0.08615094 -0.090599306 -0.2020673 -0.0708105 0.08328483 0.23171422 0.12709115
0.13187167 0.060126618 0.09822515 0.07316192 -0.00030009565 0.039694224 -0.05193074 0.047857437
-0.2206508 -0.1093629 -0.067852214 0.077405386 0.0320985 0.1328075 -0.18389146 0.17067958
0.105824076 -0.17150299 -0.12477277 0.0953728 -0.10489139 -0.0052142125 -0.16945648 -0.024337929
0.098132364 0.13941124 -0.009505478 0.116456926 0.10840557 0.09508318 0.026829002 -0.14090547
-0.09646307 -0.053050723 0.16222125 0.066685334 -0.011902648 0.13487035 0.022918502 0.07564903
-0.17834048 -0.10369824 0.019219024 0.001150844 -0.13397479 -0.14135452 0.05632514 0.09156356
-0.061988335 -0.1456372 0.059066173 0.10006624 0.19774817 0.34761116 0.148895 -0.013734367
-0.03870873 0.124153055 -0.009772359 -0.10696258 -0.0279393 0.062434874 0.3084966 -0.14047031
-0.111370444 0.18181671 -0.11107726 -0.11509039 -0.102605045 -0.10876408 0.052657045 -0.2018685
-0.18901946 -0.062434174 -0.07992385 0.0022576295 -0.1125206 0.21424337 -0.15697964 -0.1294409
-0.18638381 -0.054752767 -0.054011174 0.15210354 -0.06140568 -0.18430468 -0.03631753 -0.097208716
0.10121917 -0.0077461894 0.15199699 0.118578725 -0.040745866 0.014809111 -0.11333048 -0.16092823
0.07249501 0.051718052 0.13705455 -0.057025176 0.022586307 0.2011292 -0.06947992 -0.09811162
-0.16873409 0.047007196 0.1677885 0.049592543 0.0730053 -0.18195455 -0.11197929 -0.10066554
0.23464859 -0.12780695 0.10359935 -0.01163194 -0.31738332 -0.22507647 0.2179389 0.1755977
-0.38558626 0.1059146 -0.068536095 -0.21598023 0.19570543 -0.077162296 0.24818642 0.20887487
-0.08798885 -0.01051465 0.087191775 0.08142933 0.2924686 0.106965415 -0.004838867 0.1649975
-0.36712667 -0.24718606 0.20930228 0.39154154 -0.19238752 0.30246815 -0.109091 -0.14554809
0.14521697 -0.14803249 0.07331919 -0.09002357 0.10906451 0.19942254 0.07569944 -0.0025816483
-0.11387869 -0.040458057 0.03319081 0.0016460756 -0.0107763875 0.06576377 0.07521218 0.009816541
-0.1653194 0.00033331133 -0.15163375 -0.041600592 -0.05888634 -0.091239445 -0.12250799 0.08209903
-0.19843501 0.15198539 0.009579434 0.052683372 0.04957715 -0.1681865 0.10739798 0.06145755
-0.24269274 -0.028405258 0.091304064 -0.041270413 0.2142563 0.09828657 0.15162809 -0.049661335
-0.41595098 0.13754539 0.26209864 0.025124656 -0.0659046 0.053028945 0.38638532 0.015611007
-0.042707562 0.07112627 0.16363104 0.0076415776 0.08588035 -0.085107245 0.080590315 -0.09411046
-0.2659605 -0.04755662 -0.12055502 0.1824374 0.008100337 0.16714995 -0.11711784 0.19226667
00000000: 719c f53d 5740 0c3e 30ec 193d a701 b23c
00000010: 9c2f 3d3e f7fe f4bc 8308 913c abc4 d83c
00000020: ce7a 473d 4104 50bd f409 053e 6ee8 adbd
00000030: 190c df3d 0dfc d6bd 4044 2e3e 5846 83bd
00000040: bc33 f23d f03f b6bd 989b 4cbd 7389 483c
00000050: 351b d5bc 65b5 d5bc 3c3b 4aba bfea 063e
00000060: 43d6 0a3e 1cac 9f3d 6fb9 df3c bd3b 21be
00000070: e314 0b3e f857 c0bc abb8 d8bd a041 233e
00000080: 7830 5a3d 97b8 5fbe 5b79 123e 1cd5 4b3d
00000090: 2afd 6abd 6873 abbd 29bb f63d dc92 04bd
000000a0: 0ec5 a9bd e76f b0bd 218c b9bd bbea 4ebe
000000b0: 1805 91bd 3d91 aa3d 7e46 6d3e 2f24 023e
000000c0: 5e09 073e 5447 763d 442a c93d ebd5 953d
000000d0: 2856 9db9 6996 223d 54b5 54bd 2906 443d
000000e0: 49f2 61be a8f9 dfbd 1af6 8abd b786 9e3d
000000f0: b779 033d b0fe 073e 0b4e 3cbe a1c6 2e3e
00000100: 4bba d83d 7b9e 2fbe de88 ffbd d152 c33d
00000110: 4cd1 d6bd fcdb aabb 0086 2dbe 5660 c7bc
00000120: 9ff9 c83d d2c1 0e3e ddbc 1bbc f880 ee3d
00000130: bd03 de3d f8ba c23d 7fc8 db3c 8649 10be
00000140: 6e8e c5bd b74b 59bd 541d 263e 5292 883d
00000150: 5303 43bc 741b 0a3e 95bf bb3c e1ed 9a3d
00000160: e39e 36be be5f d4bd 3771 9d3c ebd7 963a
00000170: b030 09be 3dbf 10be 31b5 663d ad85 bb3d
00000180: 7be7 7dbd eb21 15be 5fef 713d 87ef cc3d
00000190: 7f7e 4a3e 17fa b13e ee77 183e 1c06 61bc
000001a0: 0c8d 1ebd f543 fe3d 3f1c 20bc 320f dbbd
000001b0: f5e0 e4bc b6bb 7f3d 44f3 9d3e 73d7 0fbe
000001c0: 3016 e4bd 292e 3a3e 797c e3bd 83b4 ebbd
000001d0: 9822 d2bd b4bf debd eaae 573d 9eb6 4ebe
000001e0: 518e 41be faba 7fbd 1eaf a3bd bdf4 133b
000001f0: 3371 e6bd 9d62 5b3e 45bf 20be 288c 04be
00000200: 66db 3ebe 7044 60bd d23a 5dbd 08c1 1b3e
00000210: 8684 7bbd 5eba 3cbe b1c1 14bd 5d15 c7bd
00000220: ff4b cf3d bfd3 fdbb 19a5 1b3e 67d9 f23d
00000230: 23e5 26bd eaa1 723c d019 e8bd 5fca 24be
00000240: 4478 943d 4fd6 533d 0758 0c3e 3b93 69bd
00000250: eb06 b93c d0f4 4d3e 7d4b 8ebd bfee c8bd
00000260: a1c8 2cbe 9e8a 403d c0d0 2b3e 8d21 4b3d
00000270: cd83 953d 4b52 3abe 6655 e5bd bc29 cebd
00000280: b847 703e d3df 02be e52b d43d e493 3ebc
00000290: 1180 a2be 727a 66be 602b 5f3e e2cf 333e
000002a0: 906b c5be c1e9 d83d a75c 8cbd ec29 5dbe
000002b0: 0167 483e 4407 9ebd 9524 7e3e 4be3 553e
000002c0: 8033 b4bd a345 2cbc 9a91 b23d 6cc4 a63d
000002d0: 72be 953e af10 db3d 5c8f 9ebb 1bf5 283e
000002e0: 07f8 bbbe 581e 7dbe 5653 563e 2278 c83e
000002f0: 3c01 45be 1bdd 9a3e 1a6b dfbd 8f0a 15be
00000300: c2b3 143e d495 17be 5f28 963d 475e b8bd
00000310: 375d df3d 6c35 4c3e 4f08 9b3d df30 29bb
00000320: 3b39 e9bd 59b7 25bd 16f3 073d 22c1 d73a
00000330: 728f 30bc 28af 863d d808 9a3d 8fd5 203c
00000340: 7d49 29be 4ac0 ae39 e145 1bbe 6265 2abd
00000350: ce32 71bd bfdb babd 78e5 fabd 8923 a83d
00000360: 8c32 4bbe 0fa2 1b3e 0ff3 1c3c 85ca 573d
00000370: 6911 4b3d 1539 2cbe 79f3 db3d e9ba 7b3d
00000380: 7284 78be 25b2 e8bc a0fd ba3d 2a0b 29bd
00000390: 0166 5b3e 784a c93d 6544 1b3e af69 4bbd
000003a0: 87f7 d4be b3d8 0c3e cb31 863e 39d2 cd3c
000003b0: fef8 86bd e134 593d 4cd4 c53e 4fc5 7f3c
000003c0: 20ee 2ebd a6aa 913d e58e 273e 3366 fa3b
000003d0: 09e2 af3d b54c aebd 890c a53d fcbc c0bd
000003e0: fa2b 88be bbca 42bd 8de5 f6bd dfd0 3a3e
000003f0: 47b7 043c 5b29 2b3e 7adb efbd 8ee1 443e
