notebooks/best_model_v2.pth (torch, 768577 bytes, 25 tensors)

rnn.weight_ih_l0 f4 [256, 31]
0.05864083 -0.015341735 0.14500244 0.018958542 0.042870026 0.031832173 0.044104252 0.040444557
0.035063446 0.086479634 -0.024783915 0.15786943 0.029397486 0.09692625 0.15413481 0.14848992
-0.08222915 0.0139746005 -0.07988049 -0.01946626 0.08347135 -0.019863248 0.003093393 -0.025578901
0.070956826 -0.0663716 -0.021035789 0.06887686 -0.019509848 0.12219365 -0.26029134 0.16075933
-0.060014654 -0.0029616412 -0.018712355 0.12774779 -0.09520734 0.0057242964 0.055975445 0.004842451
-0.0018299225 -0.09026915 -0.13722025 -0.08886599 -0.09002184 -0.0013212842 0.0414045 -0.030799666
-0.08781254 0.008131348 -0.11018833 -0.07695486 -0.17554796 -0.1482657 -0.021205783 0.013255846
-0.06535536 -0.052383643 -0.20785283 -0.1294264 -0.3518066 -0.11801457 -0.06975591 -0.061111953
0.0032842392 -0.117951035 0.01568198 -0.066979416 -0.0032546443 -0.1493271 -0.18834049 -0.2967943
-0.15488657 -0.084921345 -0.064706616 -0.08526153 0.04494999 -0.1555001 -0.14194489 -0.05860779
-0.07153037 -0.12223075 -0.2341272 -0.16200186 -0.26501074 -0.2349276 -0.14458083 -0.086391225
-0.1888835 -0.09305281 -0.24726559 0.2831814 0.094620295 0.15399906 0.055234883 -0.03189101
0.075336784 0.18319768 -0.19454893 -0.07186004 -0.20250583 -0.075221755 -0.06909872 -0.2206683
-0.11544445 -0.30915588 -0.41440055 -0.35881367 -0.27452645 -0.24177103 -0.05830108 -0.12013539
-0.1790611 -0.029366074 0.059810698 0.15905726 0.13710317 0.03808998 -0.0588221 0.06320034
0.15072824 0.03925678 0.17539082 -0.15898567 0.25671518 -0.07390459 -0.07922473 0.046051305
0.16216603 0.049985513 0.069400765 0.02119654 -0.06608084 -0.05030026 0.052604735 0.009002968
0.19899787 0.2463473 0.1031171 -0.278635 -0.20155224 -0.13026579 0.08172718 0.05360046
0.12105509 0.09165374 0.17008787 0.0062638363 -0.076835684 0.15444672 -0.005402904 0.11122418
0.14181262 -0.4047568 -0.19526422 0.15056401 0.40659213 0.28623125 0.2383157 0.03389451
0.022368241 -0.11034768 0.020084018 -0.060429778 -0.07546183 -0.0055641267 -0.024690244 -0.07605074
-0.15994643 -0.049168456 -0.24454033 -0.07713229 -0.24622247 -0.08433667 0.0032242092 -0.12690708
-0.011033025 -0.024713192 -0.025733283 -0.10566688 -0.14216086 -0.056380223 -0.040914662 0.10865159
-0.74060965 0.29958043 0.09572667 0.06256369 0.18692821 0.20996435 0.06803409 -0.0025188879
-0.21389922 0.044946026 0.028248096 -0.3060178 -0.39119992 0.06317873 -0.011015471 -0.021468077
-0.15244216 -0.14832519 0.061436497 -0.062478956 -0.17774948 -0.12680572 -0.07322106 -0.12217722
-0.1977506 -0.1448964 -0.2073867 -0.19019963 -0.209003 -0.01098898 -0.21710725 -0.3423294
-0.012248037 0.19428852 0.015703382 0.13145173 -0.067670025 0.27470002 0.47794667 0.32165018
0.18816215 0.08890855 -0.21610893 -0.25860837 -0.23232211 0.057821475 0.1909089 0.12654133
-0.084537074 -0.045546405 -0.06794063 -0.18932179 0.026213657 -0.021070844 -0.0020576592 0.22461686
-0.04467281 -0.047214586 -0.080817625 0.15299153 0.15460719 -0.016374718 -0.5272724 -0.1020671
-0.05422585 -0.120754614 -0.11504738 -0.03621724 0.08448271 0.21396782 0.12847084 -0.12858503
00000000: 5e31 703d e75b 7bbc 857b 143e f24e 9b3c
00000010: 7b98 2f3d 7462 023d a9a6 343d 31a9 253d
00000020: b09e 0f3d 3c1c b13d a307 cbbc 86a8 213e
00000030: ffd2 f03c 4581 c63d 84d5 1d3e be0d 183e
00000040: c267 a8bd b9f5 643c 6298 a3bd b577 9fbc
00000050: 07f3 aa3d 40b8 a2bc 86ba 4a3b d88a d1bc
00000060: d051 913d d5ed 87bd 3f53 acbc 500f 8d3d
00000070: 1ed3 9fbc aa40 fa3d e844 85be 189e 243e
00000080: edd1 75bd 1818 42bb a74a 99bc 51d0 023e
00000090: 11fc c2bd e192 bb3b 8246 653d 6cad 9e3b
000000a0: 03da efba 08df b8bd 7783 0cbe 5fff b5bd
000000b0: 5f5d b8bd f12e adba c497 293d 954f fcbc
000000c0: 10d7 b3bd 5839 053c 6baa e1bd 829a 9dbd
000000d0: d8c2 33be f7d2 17be c0b7 adbc 0c2f 593c
000000e0: 08d9 85bd 3b90 56bd 5fd7 54be 5b88 04be
000000f0: ff1f b4be 9fb1 f1bd 30dc 8ebd 8750 7abd
00000100: 643c 573b 5090 f1bd 7f77 803c 812c 89bd
00000110: df4b 55bb 34e9 18be 54dc 40be 6cf5 97be
00000120: 969a 1ebe 3eeb adbd e784 84bd 999d aebd
00000130: 7b1d 383d 6b3b 1fbe 005a 11be b90e 70bd
00000140: 847e 92bd 1e54 fabd 0abf 6fbe d1e3 25be
00000150: 7daf 87be dc90 70be ff0c 14be e2ed b0bd
00000160: ad6a 41be 7992 bebd 3133 7dbe 27fd 903e
00000170: 49c8 c13d eeb1 1d3e f93d 623d 26a0 02bd
00000180: 2c4a 9a3d 2c98 3b3e d637 47be 5b2b 93bd
00000190: b05d 4fbe dd0d 9abd a183 8dbd dff6 61be
000001a0: 246e ecbd ae49 9ebe 4f2c d4be 6db6 b7be
000001b0: bb8e 8cbe d392 77be 1dcd 6ebd 8b09 f6bd
000001c0: cb5b 37be 1f91 f0bc 10fc 743d e8df 223e
000001d0: c664 0c3e 3d04 1c3d 71ef 70bd 2e6f 813d
000001e0: 8158 1a3e b8cb 203d a799 333e 24cd 22be
000001f0: 2c70 833e 4a5b 97bd 9340 a2bd 4ba0 3c3d
00000200: da0e 263e 9cbd 4c3d fd21 8e3d 5ea4 ad3c
00000210: 6455 87bd a507 4ebd 1078 573d 2f81 133c
00000220: 19c6 4b3e 7742 7c3e 0f2f d33d 3fa9 8ebe
00000230: b663 4ebe 6564 05be 9460 a73d 288c 5b3d
00000240: bbeb f73d f5b4 bb3d 842b 2e3e de40 cd3b
00000250: 075c 9dbd 4827 1e3e d80a b1bb 81c9 e33d
00000260: 5437 113e 493c cfbe 58f3 47be 742d 1a3e
00000270: d82c d03e e78c 923e 0809 743e f8d4 0a3d
00000280: 9a3d b73c f7fd e1bd 3d87 a43c 3785 77bd
00000290: bb8b 9abd 4753 b6bb 3243 cabc 7ec0 9bbd
000002a0: ffc8 23be dd64 49bd c868 7abe 89f7 9dbd
000002b0: be21 7cbe b4b8 acbd 414d 533b eef3 01be
000002c0: dcc3 34bc 5273 cabc 9bce d2bc e167 d8bd
000002d0: 9e92 11be f3ee 66bd 2296 27bd ba84 de3d
000002e0: 9898 3dbf 9b62 993e 580c c43d 6421 803d
000002f0: 1c6a 3f3e e500 573e 7555 8b3d ed13 25bb
00000300: 6608 5bbe 5319 383d 8d68 e73c 5dae 9cbe
00000310: 5b4b c8be da63 813d 3c7a 34bc d2dd afbc
00000320: cc19 1cbe 8fe2 17be d6a4 7b3d efe9 7fbd
00000330: f603 36be 5cd9 01be ecf4 95bd 0d38 fabd
00000340: 227f 4abe b95f 14be 2e5d 54be b1c3 42be
00000350: e204 56be 1f0b 34bc 5d51 5ebe cd45 afbe
00000360: feab 48bc 92f3 463e 61a4 803c 489b 063e
00000370: 9596 8abd 7ba5 8c3e 6db5 f43e 55af a43e
00000380: 94ad 403e b015 b63d a94b 5dbe 5168 84be
00000390: d9e5 6dbe 36d6 6c3d 9f7d 433e 0d94 013e
000003a0: c621 adbd de8e 3abd 7524 8bbd 92dd 41be
000003b0: 06be d63c c39c acbc cbd9 06bb f601 663e
000003c0: d6fa 36bd 1564 41bd b683 a5bd d0a9 1c3e
000003d0: 5951 1e3e 4624 86bc 53fb 06bf 8e08 d1bd
000003e0: ed1b 5ebd 324e f7bd f69d ebbd 8758 14bd
000003f0: 4505 ad3d 611a 5b3e dc8d 033e cbab 03be

rnn.weight_hh_l0 f4 [256, 64]
0.21025473 0.09489579 0.053839665 -0.058989942 -0.023341058 -0.08211859 -0.08460245 -0.3459853
-0.20453653 0.059745833 -0.017033841 -0.13030654 0.02394028 0.071998976 0.058821235 0.12134604
0.02784558 -0.093775384 -0.01830685 -0.055420525 0.021477025 0.1346068 0.16252333 -0.039987702
-0.064686984 -0.31690302 -0.024077777 -0.21742147 0.15478358 -0.32910493 0.0021462464 -0.23420583
0.038611665 0.17213096 0.06750739 0.061434273 0.045917664 0.2232921 -0.19062617 0.065109566
-0.21921192 -0.26780096 -0.05031529 -0.10252291 0.1724555 0.064954825 -0.08730563 0.056328457
0.22465691 0.08977371 0.0070169717 0.024622006 -0.06358506 -0.11021675 -0.05172595 -0.2343419
-0.1005132 0.09613205 -0.023176407 -0.075956196 -0.09263743 -0.17219336 -0.06080939 -0.14854144
-0.21643254 -0.031754296 0.05302255 0.13230115 0.14810286 -0.034360908 0.101478115 -0.042919956
0.2273003 -0.22788669 0.18433884 -0.09412653 -0.007482844 0.04132846 0.027763618 0.040893976
-0.11683119 -0.1108091 -0.1415717 -0.18228799 0.06363775 -0.14081861 0.23168963 -0.10046033
-0.004616786 0.1992105 -0.16820417 0.25453404 0.053270027 -0.13328843 0.12577502 0.008182098
0.021256963 -0.06171827 -0.020271357 -0.06550002 0.16996713 0.09869498 -0.023564296 0.030363884
0.100599945 0.26133528 -0.06771146 -0.122297674 0.05269127 0.215717 -0.25365177 0.08665846
-0.13742521 -0.066617824 -0.30057302 0.101289764 -0.20766999 0.191723 -0.030360375 0.035147224
0.1336152 0.12263759 -0.09983967 0.12443979 0.061948873 -0.0076254704 0.05335023 0.11878083
-0.14268993 0.0025242916 -0.22535871 0.18288234 -0.011871291 0.0112002585 0.09855565 -0.00485577
-0.29350013 0.15806578 0.010303972 -0.017742312 -0.07849636 -0.08505526 -0.108341865 -0.018705312
0.1403897 -0.17936672 -0.119222954 -0.13067369 -0.0058194664 0.13323694 0.049328987 0.090484954
0.004355527 0.08520643 -0.1953903 -0.017395562 0.055906035 0.057811778 0.029953903 -0.07248267
-0.016381532 -0.14991666 -0.018266564 0.3422479 -0.07627959 0.10003686 0.12779011 0.11810574
0.0013238115 -0.049833205 0.0034827339 0.037273575 -0.07535062 -0.02886771 0.09244803 -0.13703224
0.054353602 0.18261592 -0.0070145605 0.042172596 -0.10584707 0.17754862 0.020878142 0.21756329
-0.12384786 -0.20262006 0.23745994 0.0069088745 -0.20734993 0.2871698 -0.16312774 0.1891959
0.0047524655 -0.105928995 -0.38545796 -0.044171374 0.28621435 0.11921043 -0.23100278 0.07148064
-0.2119858 -0.11958715 -0.10307484 0.3890311 0.047007404 0.023559878 -0.0639405 -0.25432783
0.16999547 0.055484865 0.012537483 -0.0031930557 -0.18397127 0.11108258 -0.10019086 0.29846123
0.062258802 0.031791385 -0.057112828 -0.22465926 0.080165826 0.081404336 -0.025282197 0.120714575
-0.32232788 0.34802496 -0.3632405 0.0133731915 -0.19269341 -0.05573175 -0.043733973 0.113072716
-0.09341787 0.117373124 0.44127515 -0.023002313 0.026769752 0.32642403 -0.06342745 -0.2135822
-0.10985223 0.41008598 0.21277706 0.24693133 0.23088902 0.12218385 -0.054869227 0.069643244
-0.34827527 -0.21905752 0.28578565 0.094174385 -0.25828698 0.15228894 -0.10858472 0.19284132
00000000: 044d 573e b958 c23d fb86 5c3d 709f 71bd
00000010: bf35 bfbc cb2d a8bd 0d44 adbd fc24 b1be
00000020: 0672 51be 0cb8 743d 8e8a 8bbc 146f 05be
00000030: 681e c43c 3374 933d 89ee 703d 4684 f83d
00000040: 6a1c e43c 4f0d c0bd 3ff8 95bc a200 63bd
00000050: 96f0 af3c 5dd6 093e 846c 263e 25ca 23bd
00000060: 9c7a 84bd 1d41 a2be c23e c5bc bca3 5ebe
00000070: 967f 1e3e 7180 a8be 0aa8 0c3b a7d3 6fbe
00000080: 4427 1e3d 1943 303e 5141 8a3d 81a2 7b3d
00000090: 2914 3c3d afa6 643e 8233 43be 2a58 853d
000000a0: 1779 60be 351d 89be 6817 4ebd 88f7 d1bd
000000b0: 2d98 303e 0907 853d 4bcd b2bd abb8 663d
000000c0: 760c 663e 47db b73d a0ee e53b 17b4 c93c
000000d0: e238 82bd 52b9 e1bd 97de 53bd 53f7 6fbe
000000e0: ddd9 cdbd e1e0 c43d 73dc bdbc ec8e 9bbd
000000f0: b1b8 bdbd 7553 30be 4413 79bd 3f1b 18be
00000100: 7ea0 5dbe cb10 02bd 2c2e 593d f479 073e
00000110: 47a8 173e 06be 0cbd c2d3 cf3d d6cc 2fbd
00000120: 69c1 683e 215b 69be 52c3 3c3e 69c5 c0bd
00000130: a532 f5bb 0848 293d 8770 e33c 7180 273d
00000140: 3145 efbd e2ef e2bd 2cf8 10be b4a9 3abe
00000150: 8254 823d c132 10be 0c40 6d3e 25be cdbd
00000160: 6848 97bb d6fd 4b3e b73d 2cbe 4952 823e
00000170: ac31 5a3d c37c 08be 2bcb 003e 350e 063c
00000180: 1523 ae3c 4ccc 7cbd 1e10 a6bc e024 86bd
00000190: dd0b 2e3e 9820 ca3d e909 c1bc aebd f83c
000001a0: 5807 ce3d bdcd 853e 4eac 8abd 3477 fabd
000001b0: cdd2 573d ebe4 5c3e a5de 81be fe79 b13d
000001c0: 32b9 0cbe ed6e 88bd b5e4 99be 0271 cf3d
000001d0: 71a7 54be 0953 443e 52b6 f8bc 89f6 0f3d
000001e0: 6cd2 083e 6b29 fb3d be78 ccbd 4ada fe3d
000001f0: 1abe 7d3d 15df f9bb c585 5a3d 5d43 f33d
00000200: 4f1d 12be 966e 253b 6fc4 66be 8245 3b3e
00000210: ce7f 42bc 4a81 373c 8bd7 c93d 271d 9fbb
00000220: a645 96be ffdb 213e fed1 283c 5358 91bc
00000230: b3c2 a0bd 7431 aebd 57e2 ddbd e23b 99bc
00000240: 51c2 0f3e e9ab 37be 2a2b f4bd 53cf 05be
00000250: 39b1 bebb 446f 083e 310d 4a3d 2d50 b93d
00000260: cfb8 8e3b b580 ae3d 6514 48be 2381 8ebc
00000270: bafd 643d 0bcc 6c3d e361 f53c cb71 94bd
00000280: 9032 86bc c183 19be c3a3 95bc 1e3b af3e
00000290: 7938 9cbd 20e0 cc3d 69db 023e 6ce1 f13d
000002a0: be83 ad3a e71d 4cbd 943e 643b 2dac 183d
000002b0: 6d51 9abd fa7b ecbc 6555 bd3d 2e52 0cbe
000002c0: e2a1 5e3d abff 3a3e 66da e5bb 2cbd 2c3d
000002d0: 59c6 d8bd 4ecf 353e a308 ab3c e9c8 5e3e
000002e0: f2a3 fdbd a27b 4fbe b328 733e d763 e23b
000002f0: 8a53 54be ec07 933e f50a 27be 92bc 413e
00000300: 92ba 9b3b 4df1 d8bd bf5a c5be 0bed 34bd
00000310: b08a 923e 9924 f43d fe8b 6cbe 7164 923d
00000320: ce12 59be 1cea f4bd e718 d3bd 162f c73e
00000330: d68a 403d a500 c13c 3df3 82bd 4237 82be
00000340: 4b13 2e3e 1944 633d 046a 4d3c 9642 51bb
00000350: f762 3cbe 447f e33d de30 cdbd e9cf 983e
00000360: 1603 7f3d af37 023d 24ef 69bd 140d 66be
00000370: fb2d a43d 51b7 a63d 9c1c cfbc 3439 f73d
00000380: 2908 a5be 5430 b23e a9fa b9be 3b1b 5b3c
00000390: 6c51 45be fa46 64bd 6522 33bd ab92 e73d
000003a0: de51 bfbd 5261 f03d d1ee e13e 596f bcbc
000003b0: 3d4c db3c 0d21 a73e 40e6 81bd 4bb5 5abe
000003c0: 35fa e0bd caf6 d13e 3be2 593e 91db 7c3e
000003d0: 2c6e 6c3e 873b fa3d 8ebe 60bd 1ea1 8e3d
000003e0: 2351 b2be 9d50 60be 7f52 923e 80de c03d
000003f0: 313e 84be a2f1 1b3e aa61 debd 3278 453e

rnn.bias_ih_l0 f4 [256]
-0.13594104 -0.29739454 -0.13112246 0.08687109 -0.24027757 -0.25365242 -0.13459022 -0.38213223
-0.018258438 -0.11513346 -0.12435642 -0.26613992 0.095728666 -0.10493123 0.22003476 -0.14504161
-0.21403289 0.20525123 -0.0075059477 -0.08515439 -0.04001314 -0.097819865 -0.12993911 0.1557151
-0.09512642 -0.13870856 0.25004038 -0.021619862 -0.25084445 0.009332507 -0.057336308 0.06893322
-0.008656957 -0.036646705 -0.11773465 -0.077919416 -0.14423124 0.024286246 -0.21043278 0.23220538
-0.010872136 -0.0790629 -0.27447012 0.15536313 -0.18297172 -0.09426294 -0.08547236 -0.17720175
0.017118324 -0.1729745 0.03204149 -0.07171711 -0.19962674 0.06491398 -0.031178558 0.060547218
0.06362636 0.2284541 0.09325381 -0.039169807 0.00026578445 -0.043908056 -0.09075687 -0.00025937587
-0.050143003 -0.088727646 -0.071148664 -0.0037658128 -0.22703685 -0.10538004 0.06948756 -0.36189106
-0.10577693 -0.26006812 -0.18948916 -0.17911044 0.06291447 -0.08179491 0.1491523 -0.0060679745
-0.09632123 0.13480093 -0.0041308156 0.039098423 -0.22939473 -0.08257822 -0.115909874 0.05861753
-0.21745038 -0.011771214 -0.010899771 0.035918653 -0.24601674 -0.079993375 0.2417113 -0.015395512
0.013857394 0.0770234 -0.0592094 0.06295511 -0.044573765 -0.09448297 -0.15463512 0.054425854
-0.14447257 -0.13776852 -0.22115138 0.062522545 0.0024489968 -0.026837014 -0.18587767 -0.09248346
-0.12449237 -0.04564952 -0.07753414 -0.004408616 -0.09615332 0.08261395 -0.13972022 0.2794502
0.09691621 0.073414184 0.046153564 -0.17095353 0.1508247 0.09489101 -0.17234202 0.10563559
-0.016647702 0.030708915 0.009668364 -0.036113314 0.16148774 -0.08762794 0.13117374 0.07040937
0.00029458065 -0.34105712 0.02777637 0.0791478 0.037243314 0.04800726 0.28873402 0.07954849
-0.08529897 0.03050411 0.021950716 0.027506206 -0.08338289 0.11157792 0.05966546 -0.15237774
-0.1525371 -0.06181565 -0.04424957 0.09244914 -2.817131e-05 -0.22710003 -0.045875505 -0.03683824
0.07614596 -0.14646038 0.11334042 -0.004653208 0.045708783 0.050271932 -0.18239474 -0.041866284
0.012374666 0.12893318 -0.12847166 -0.1463591 -0.073232934 -0.056634497 0.0224611 0.03647923
-0.09829613 -0.01336179 -0.07488153 -0.14481658 -0.1780348 -0.05806584 -0.13036686 0.08381792
-0.08248493 0.020678196 0.10611269 0.008746741 0.10700187 -0.04277386 -0.04764047 -0.15325807
-0.11148431 -0.13816482 0.01621904 -0.117356956 -0.18177983 -0.24254844 -0.0014335195 -0.24389964
0.13599406 -0.1542921 -0.2939108 -0.23950732 0.021763293 -0.087680176 0.0036984223 -0.051209826
-0.042731334 0.01969521 0.09634773 0.10672031 -0.15358129 -0.3090676 0.071035564 0.09383108
-0.083025515 -0.099561326 0.199674 -0.06646716 -0.030052627 -0.124089755 0.01919416 0.08963626
-0.09525026 0.065401234 0.027215287 0.04422836 -0.1293906 0.048369236 -0.1077907 0.17805406
-0.03413468 -0.18316416 -0.17809124 -0.08246903 -0.09277736 0.032188315 -0.08622611 0.034139697
-0.13489993 -0.18161865 -0.1587568 -0.012877964 -0.14454527 0.07772349 -0.26679263 0.05962388
-0.02728862 -0.14028303 0.038006388 -0.19661129 -0.11005983 0.057119925 -0.04468211 -0.10821951
00000000: 2134 0bbe 1944 98be f744 06be 78e9 b13d
00000010: 530b 76be bbde 81be 05d2 09be d6a6 c3be
00000020: b892 95bc 17cb ebbd 94ae febd 7e43 88be
00000030: 640d c43d 2fe6 d6bd cb50 613e ca85 14be
00000040: 702b 5bbe 612d 523e 74f4 f5bb 6d65 aebd
00000050: d1e4 23bd c855 c8bd c20e 05be c773 1f3e
00000060: a4d1 c2bd 9e09 0ebe 4b05 803e 231c b1bc
00000070: af6e 80be 5fe7 183c 7ad9 6abd dc2c 8d3d
00000080: e9d5 0dbc db1a 16bd dd1e f1bd 3794 9fbd
00000090: 5bb1 13be f3f3 c63c b17b 57be 3fc7 6d3e
000000a0: 0b21 32bc bbeb a1bd 5987 8cbe 8317 1f3e
000000b0: f05c 3bbe ee0c c1bd 220c afbd 6074 35be
000000c0: ba3b 8c3c 3a20 31be f03d 033d 6ce0 92bd
000000d0: f46a 4cbe 9ff1 843d 2d6a ffbc 5c00 783d
000000e0: 894e 823d dfef 693e dbfb be3d 8570 20bd
000000f0: fc58 8b39 efd8 33bd bdde b9bd d7fc 87b9
00000100: c062 4dbd d7b6 b5bd 64b6 91bd dbcb 76bb
00000110: 597c 68be 7ed1 d7bd 7e4f 8e3d c949 b9be
00000120: 93a1 d8bd a627 85be 7209 42be ba68 37be
00000130: 4dd9 803d 1784 a7bd 61bb 183e dcd5 c6bb
00000140: 1144 c5bd 4109 0a3e cb5b 87bb ab25 203d
00000150: 74e6 6abe c51e a9bd 2862 edbd ef18 703d
00000160: 50ab 5ebe 0ddc 40bc f494 32bc 701f 133d
00000170: d0eb 7bbe 91d3 a3bd 2b83 773e 753d 7cbc
00000180: 200a 633c 72be 9d3d 8e85 72bd 9cee 803d
00000190: fb92 36bd 4a80 c1bd ab58 1ebe a5ed 5e3d
000001a0: 9ef0 13be 3113 0dbe 8275 62be d20b 803d
000001b0: 597f 203b 4cd9 dbbc b756 3ebe f867 bdbd
000001c0: dbf5 febd fefa 3abd 38ca 9ebd 2776 90bb
000001d0: 08ec c4bd 8131 a93d d112 0fbe 1914 8f3e
000001e0: 027c c63d 2d5a 963d 850b 3d3d 710e 2fbe
000001f0: ca71 1a3e 3856 c23d 6d7a 30be 7957 d83d
00000200: c360 88bc 4391 fb3c 0f68 1e3c 8eeb 13bd
00000210: 0b5d 253e 4776 b3bd 6952 063e ca32 903d
00000220: f271 9a39 0a9f aebe 458b e33c 3e18 a23d
00000230: 728c 183d 43a3 443d f2d4 933e 52ea a23d
00000240: 3ab1 aebd c1e3 f93c fdd1 b33c b254 e13c
00000250: a6c4 aabd f782 e43d c563 743d e908 1cbe
00000260: af32 1cbe 6832 7dbd 0a3f 35bd fa55 bd3d
00000270: 6d51 ecb7 e98c 68be f4e7 3bbd b2e3 16bd
00000280: 6af2 9b3d b6f9 15be 061f e83d f079 98bb
00000290: 2239 3b3d f1e9 4d3d b0c5 3abe fb7b 2bbd
000002a0: 1cbf 4a3c 0f07 043e 138e 03be 29df 15be
000002b0: 26fb 95bd 93f9 67bd 5700 b83c 3f6b 153d
000002c0: 7b4f c9bd 69eb 5abc 7d5b 99bd cc4a 14be
000002d0: c14e 36be 72d6 6dbd e47e 05be bba8 ab3d
000002e0: dced a8bd 5265 a93c 9c51 d93d 7e4e 0f3c
000002f0: cc23 db3d a533 2fbd a722 43bd afef 1cbe
00000300: e351 e4bd 147b 0dbe cbdd 843c d858 f0bd
00000310: 7e24 3abe 9e5e 78be efe4 bbba d4c0 79be
00000320: 0742 0b3e c0fe 1dbe 7a7b 96be 6841 75be
00000330: ef48 b23c aa91 b3bd 3b61 723b 65c1 51bd
00000340: 0d07 2fbd d957 a13c f551 c53d 2e90 da3d
00000350: 6a44 1dbe 1c3e 9ebe 187b 913d 822a c03d
00000360: 4809 aabd cfe6 cbbd 5777 4c3e ef1f 88bd
00000370: ed30 f6bc c522 febd 123d 9d3c 3793 b73d
00000380: 9112 c3bd 15f1 853d 98f2 de3c cc28 353d
00000390: f87e 04be d21e 463d 5fc1 dcbd ce53 363e
000003a0: ced0 0bbd 638f 3bbe 8d5d 36be 86e5 a8bd
000003b0: 0e02 bebd e5d7 033d 5197 b0bd 11d6 0b3d
000003c0: 3523 0abe 3dfa 39be 2591 22be 19fe 52bc
000003d0: ad03 14be 7e2d 9f3d 0b99 88be 2b38 743d
000003e0: 628c dfbc 5ba6 0fbe 96ac 1b3d 7854 49be
000003f0: 0c67 e1bd 95f6 693d 9704 37bd 31a2 ddbd

rnn.bias_hh_l0 f4 [256]
-0.0053362027 -0.12849069 -0.026085265 -0.023276784 -0.31148422 -0.17865734 0.07970955 -0.44721952
-0.11040844 -0.20081063 -0.057974815 -0.30300307 0.017798254 0.10631936 0.094488025 -0.04819077
-0.37609702 0.2511738 0.03375657 -0.04494564 -0.052951496 -0.20333874 0.0012610138 0.114718884
-0.04629026 -0.26023683 0.057285152 0.15372102 -0.18544795 0.049537428 0.044976402 -0.004550049
0.018303823 0.13093267 -0.0824716 0.0044363574 -0.16070949 -0.0696999 -0.1859248 0.30880117
0.03989633 -0.05864526 -0.14822465 0.05485565 -0.00035956505 -0.06600439 -0.18199012 -0.037251685
0.009758218 0.003050859 -0.034628026 -0.069292255 -0.34547243 -0.105005614 -0.07589308 0.113199584
-0.011908968 0.396959 0.12412994 -0.141029 0.06891877 -0.04400034 -0.21221253 0.17645071
-0.08979343 -0.0745733 0.029564468 0.11264767 -0.045041904 -0.22140756 -0.11245523 -0.2052647
-0.08932416 -0.08607965 -0.085343994 -0.1745885 -0.01886337 0.04210035 -0.005926971 -0.027937343
-0.1838883 0.00584646 -0.10743361 -0.09207801 -0.044110496 -0.087764874 0.02600946 0.081109405
-0.16029134 -0.20129839 0.07719642 0.037946183 -0.20747314 0.040365215 0.2816286 -0.048617505
-0.19273664 -0.07289688 -0.013920328 0.02899283 0.052428868 0.101508655 -0.15581146 0.024350693
-0.037934504 -0.21864699 0.0005654162 -0.03960749 0.03091308 -0.20401835 -0.13311885 0.072072774
-0.061785873 -0.19567177 -0.007892115 0.014649813 -0.13731347 0.08668261 -0.074505314 0.30579868
-0.010327424 0.019224871 0.028473323 -0.13931288 0.23571265 0.053991757 -0.105813466 0.049177002
-0.004618783 0.12109286 0.022247545 0.008666876 -0.01307761 -0.104970954 -0.060938895 -0.069283575
-0.097993135 -0.27315122 0.029876156 -0.11639665 0.0752757 0.028161757 0.1169144 0.123555936
0.0024101397 -0.056332078 0.039028928 0.03992971 0.09705667 0.07236519 0.033101235 0.06417409
-0.055925615 0.032538008 -0.120824195 -0.05609267 0.03726916 -0.14247088 0.014984948 0.078060985
-0.03479313 -0.008260846 0.12555952 -0.0068118605 0.044866376 -0.0058469153 -0.038150866 -0.070631295
0.10046233 -0.0202326 -0.055911466 -0.21074113 0.07227047 -0.020045858 -0.025022889 0.011846638
-0.042764284 -0.068712376 -0.070749335 -0.015276381 -0.12851182 0.020611597 -0.18143746 0.17271611
-0.0012897591 -0.08651393 0.017323185 -0.054808598 -0.049285725 -0.06598807 0.05101941 -0.3251588
-0.17820486 -0.3423949 -0.08132448 -0.08183722 -0.10262407 -0.0585922 0.042652007 -0.23611894
-0.019633336 -0.14131433 -0.07897554 -0.1588302 0.18456295 0.041700605 0.19660991 -0.18717693
-0.22715512 0.15536998 -0.059541978 0.14254928 -0.007230148 -0.08057448 0.16047019 -0.041142896
-0.21514463 -0.22105898 0.07038164 0.085008025 -0.06913342 -0.038138505 -0.0073770448 -0.06373221
-0.04667899 -0.015074524 0.046709355 -0.083109535 -0.006319903 0.11729779 -0.22682236 0.2441407
0.11027786 0.008603005 -0.024122635 0.14639941 -0.016600838 -0.08377285 -0.06757455 0.035459213
-0.108528614 0.028580874 -0.09191659 0.081563294 -0.20998433 -0.07229075 -0.1602 0.15322043
0.09290904 -0.011922278 0.09217062 -0.24723989 0.066231854 0.16771692 0.050567895 0.10965763
00000000: 50db aebb 1093 03be c4b0 d5bc f4ae bebc
00000010: dc7a 9fbe f3f1 36be c33e a33d f5f9 e4be
00000020: d21d e2bd 4da1 4dbe 0077 6dbd 3823 9bbe
00000030: a5cd 913c f7bd d93d f082 c13d af63 45bd
00000040: ca8f c0be da99 803e 5444 0a3d eb18 38bd
00000050: abe3 58bd 0838 50be 9a48 a53a bcf1 ea3d
00000060: db9a 3dbd c33d 85be d6a3 6a3d 0b69 1d3e
00000070: 11e6 3dbe c2e7 4a3d 2d39 383d 9418 95bb
00000080: e6f1 953c 3713 063e dfe6 a8bd dd5e 913b
00000090: 0791 24be d2be 8ebd 1263 3ebe 301b 9e3e
000000a0: 566a 233d 0336 70bd 34c8 17be 51b0 603d
000000b0: 0184 bcb9 4f2d 87bd 9e5b 3abe 3995 18bd
000000c0: efe0 1f3c ecf0 473b 1ed6 0dbd 19e9 8dbd
000000d0: c3e1 b0be 2f0d d7bd d56d 9bbd 2fd5 e73d
000000e0: d51d 43bc 363e cb3e d737 fe3d e869 10be
000000f0: 4925 8d3d b339 34bd 3e4e 59be 7faf 343e
00000100: 9ee5 b7bd e3b9 98bd 2f31 f23c d2b3 e63d
00000110: dc7d 38bd aab8 62be ed4e e6bd e930 52be
00000120: 96ef b6bd 874a b0bd d5c8 aebd 54c7 32be
00000130: 5b87 9abc 6b71 2c3d 0937 c2bb dbdc e4bc
00000140: 374d 3cbe a993 bf3b 2706 dcbd 6593 bcbd
00000150: 35ad 34bd 12be b3bd cb11 d53c b01c a63d
00000160: 6a23 24be 2a21 4ebe 2819 9e3d 756d 1b3d
00000170: d773 54be ff55 253d a031 903e 2623 47bd
00000180: c15c 45be f64a 95bd 1612 64bc 5f82 ed3c
00000190: a7bf 563d c5e3 cf3d 0a8d 1fbe 1b7b c73c
000001a0: 3661 1bbd ffe4 5fbe 7038 143a 773b 22bd
000001b0: 6d3d fd3c 30ea 50be 4f50 08be e49a 933d
000001c0: 2f13 7dbd 2e5e 48be ee4d 01bc c505 703c
000001d0: e79b 0cbe a786 b13d 3e96 98bd a591 9c3e
000001e0: 5b34 29bc 7a7d 9d3c e340 e93c 09a8 0ebe
000001f0: a85e 713e 7626 5d3d bbb4 d8bd d36d 493d
00000200: 2959 97bb 89ff f73d 7c40 b63c 83ff 0d3c
00000210: 7943 56bc 03fb d6bd 109b 79bd 8ce4 8dbd
00000220: a0b0 c8bd 7ada 8bbe d7be f43c 5e61 eebd
00000230: 252a 9a3d 7cb3 e63c d170 ef3d e50a fd3d
00000240: 6ff3 1d3b 77bc 66bd ccdc 1f3d 568d 233d
00000250: a6c5 c63d 3334 943d 2995 073d b56d 833d
00000260: 4212 65bd 9346 053d ad72 f7bd 6dc1 65bd
00000270: 8ca7 183d e3e3 11be 6d83 753c 70de 9f3d
00000280: 3e83 0ebd 8058 07bc ad92 003e 0736 dfbb
00000290: cec5 373d 7b97 bfbb 1544 1cbd 24a7 90bd
000002a0: 32bf cd3d d6be a5bc 6c03 65bd 86cc 57be
000002b0: 8a02 943d 3637 a4bc cdfc ccbc 6718 423c
000002c0: 9a29 2fbd 13b9 8cbd 07e5 90bd c949 7abc
000002d0: 9a98 03be a7d9 a83c beca 39be 7edc 303e
000002e0: 220d a9ba 372e b1bd 5ae9 8d3c fb7e 60bd
000002f0: d4df 49bd c124 87bd bbf9 503d 377b a6be
00000300: 567b 36be 624e afbe 738d a6bd 469a a7bd
00000310: 922c d2bd 60fe 6fbd dfb3 2e3d 2ac9 71be
00000320: 17d6 a0bc b4b4 10be eebd a1bd 62a4 22be
00000330: 12fe 3c3e 41ce 2a3d 1c54 493e 4fab 3fbe
00000340: 5a9b 68be 4f19 1f3e 4ae2 73bd 70f8 113e
00000350: e1ea ecbb 3c04 a5bd 4c52 243e 7485 28bd
00000360: e04e 5cbe 495d 62be 4024 903d b018 ae3d
00000370: d395 8dbd 1f37 1cbd 23bb f1bb 0886 82bd
00000380: 7832 3fbd 23fb 76bc 4f52 3f3d 5535 aabd
00000390: 3017 cfbb d339 f03d 1f44 68be 0500 7a3e
000003a0: 5cd9 e13d 9ef3 0c3c d59c c5bc bae9 153e
000003b0: 7bfe 87bc 1a91 abbd 8764 8abd ae3d 113d
000003c0: 4044 debd 7022 ea3c c43e bcbd a80a a73d
000003d0: 2206 57be 2c0d 94bd 780b 24be d1e5 1c3e
000003e0: 1847 be3d a955 43bc f3c3 bc3d 742c 7dbe
000003f0: 91a4 873d fcbd 2b3e 4820 4f3d 2e94 e03d

rnn.weight_ih_l1 f4 [256, 64]
0.35564697 0.0040734834 0.0046287077 -0.024139851 -0.07111715 0.01988101 0.1338323 -0.014996696
-0.14923613 -0.06696559 0.08374237 0.109725066 -0.238408 -0.21605437 -0.059831664 -0.07791604
0.12173106 0.13929631 -0.003263116 -0.23264928 -0.12453019 0.037928343 0.017981239 -0.18054837
-0.12884118 -0.0051310793 0.1583555 -0.09732064 -0.041245162 0.16741098 0.26992193 0.006031697
-0.01269862 -0.052162874 -0.10799323 0.12216705 0.38579473 -0.13659714 0.23838158 0.22285052
-0.020484831 0.13832429 -0.039801855 0.014615953 0.100275636 0.2201523 0.0042401766 -0.038945768
-0.09614844 -0.030420551 0.14272262 0.108680844 -0.13010913 -0.10165594 0.14793414 -0.05463172
-0.14905632 -0.009903705 0.19118845 -0.186262 -0.11397189 0.17930247 0.10311354 0.0074128797
-0.2058514 -0.040224794 -0.07094217 0.23780431 0.37990853 0.05934666 0.026693553 0.36127228
-0.13443351 0.023804534 0.04648554 0.068916075 -0.09010372 0.090718925 0.11200812 0.03482506
0.081200115 0.081897035 -0.22563693 -0.09540744 -0.025760947 0.15162347 0.18673798 0.07984844
0.04461598 0.1785617 -0.3596313 0.14369883 0.2869453 0.19952857 0.2638158 0.0984882
-0.18548012 -0.12280274 -0.019694066 -0.1462109 -0.2930657 0.15063202 0.12438259 0.08457481
0.1608432 0.07260009 0.22017908 -0.17136672 0.13198768 0.21618477 -0.08044514 0.16365314
-0.15512265 0.09800948 -0.08343431 0.10315753 0.003434098 0.21149532 0.028225465 0.024643973
-0.118905656 -0.13119045 -0.17543066 0.265279 -0.12002698 -0.16075653 -0.22898781 0.03225894
-0.08804464 0.15575911 -0.023843708 -0.30592453 0.17787577 0.072719045 0.0068317694 -0.18253109
0.040276077 0.17031327 -0.019252226 -0.046018176 0.17217353 -0.11406282 0.039542787 0.0066867582
0.1226185 -0.041139577 -0.028847573 0.22487949 0.056355927 0.31167144 -0.039125208 0.1120484
0.14163172 0.04329976 -0.13281475 -0.10288982 -0.0033296628 -0.22778817 -0.25256783 -0.051734425
-0.03506321 0.05047889 -0.09983171 -0.21935067 -0.20863912 0.19179264 -0.2887746 -0.13128842
-0.18403147 -0.035105854 -0.0776478 0.043306757 -0.09212664 -0.19408973 0.19312595 -0.03207099
0.16159983 0.111863874 -0.047378723 -0.1610849 -0.04416435 -0.13204058 0.157529 0.041299842
0.0033731048 0.15250571 -0.07826321 -0.10349206 0.22906342 -0.037132144 0.08757907 -0.014824354
0.11649745 -0.14589523 0.14798619 -0.05094895 -0.056144543 0.032149684 0.11541614 0.020126833
-0.13685216 -0.029993817 -0.1485859 0.040283326 -0.061855074 0.05126 -0.17594163 0.07124242
0.080325544 0.050067496 -0.02989849 0.104824916 0.00050103327 0.06505895 -0.10263301 0.063145116
-0.10614039 -0.21382314 0.21797062 -0.21871352 0.029122874 0.040031146 -0.085756645 0.022426989
-0.047561675 0.043943524 0.1947435 0.00614438 -0.007177651 0.029380696 -0.014310697 -0.020628488
-0.04281133 0.051022697 0.055606335 -0.036873106 0.21068938 0.08738047 0.09326832 -0.0064675417
-0.1022278 0.15402375 0.024283316 -0.021270828 0.21147135 0.08209031 -0.1859322 -0.022197818
-0.19110078 -0.038984008 0.13183802 -0.03561576 -0.053322896 0.13316447 0.08463559 -0.1758307
00000000: 5c17 b63e db7a 853b 6aac 973b f0c0 c5bc
00000010: dea5 91bd 80dd a23c 560b 093e b4b4 75bc
00000020: 5bd1 18be 4125 89bd 1f81 ab3d 89b7 e03d
00000030: 3a21 74be 5b3d 5dbe 0c12 75bd 7292 9fbd
00000040: 224e f93d b1a3 0e3e 01da 55bb 9d3b 6ebe
00000050: af09 ffbd c05a 1b3d 644d 933c ace1 38be
00000060: f1ee 03be 9d22 a8bb f227 223e 0b50 c7bd
00000070: b0f0 28bd c96d 2b3e 3533 8a3e 8ba5 c53b
00000080: df0d 50bc bda8 55bd 8e2b ddbd b832 fa3d
00000090: e386 c53e 1fe0 0bbe 4d1a 743e ed32 643e
000000a0: cecf a7bc e2a4 0d3e 4507 23bd c077 6f3c
000000b0: 505d cd3d 9b6f 613e 2ef1 8a3b 9985 1fbd
000000c0: 79e9 c4bd 8534 f9bc e125 123e 1094 de3d
000000d0: 543b 05be fd30 d0bd 0c7c 173e 83c5 5fbd
000000e0: 38a2 18be 2643 22bc e8c6 433e 77bb 3ebe
000000f0: 186a e9bd 119b 373e 312d d33d bee7 f23b
00000100: b6ca 52be c1c2 24bd 214a 91bd f982 733e
00000110: 5f83 c23e 7c15 733d 70ac da3c aef8 b83e
00000120: f0a8 09be ba01 c33c 9f67 3e3d df23 8d3d
00000130: 4d88 b8bd d8ca b93d 8364 e53d b9a4 0e3d
00000140: 3f4c a63d a2b9 a73d 5e0d 67be fa64 c3bd
00000150: 9f08 d3bc 2f43 1b3e 3e38 3f3e 9487 a33d
00000160: 3fbf 363d e1d8 363e 9821 b8be c925 133e
00000170: 7fea 923e 3851 4c3e dd12 873e 2eb4 c93d
00000180: 80ee 3dbe 0180 fbbd 7355 a1bc 4fb8 15be
00000190: b50c 96be 483f 1a3e 4dbc fe3d 8f35 ad3d
000001a0: 14b4 243e 5baf 943d a076 613e c27a 2fbe
000001b0: c727 073e 8a5f 5d3e 6cc0 a4bd b094 273e
000001c0: 79d8 1ebe 32b9 c83d 9cdf aabd 4144 d33d
000001d0: 9b0e 613b 3b92 583e 1739 e73c 28e2 c93c
000001e0: cf84 f3bd ca56 06be 18a4 33be a6d2 873e
000001f0: b5d0 f5bd 5c9d 24be c87b 6abe f321 043d
00000200: c050 b4bd 517f 1f3e e153 c3bc 24a2 9cbe
00000210: 1125 363e b9ed 943d 09dd df3b 6ee9 3abe
00000220: 87f8 243d 9a66 2e3e d8b6 9dbc 8e7d 3cbd
00000230: 424e 303e c599 e9bd 9ef7 213d 981c db3b
00000240: 681f fb3d f981 28bd bf51 ecbc cf46 663e
00000250: 79d5 663d 6693 9f3e c141 20bd a279 e53d
00000260: e807 113e 175b 313d 9700 08be e6b7 d2bd
00000270: 7936 5abb 4d41 69be 9250 81be 7ae7 53bd
00000280: 719e 0fbd f4c2 4e3d 9174 ccbd 769d 60be
00000290: 7ea5 55be 4a65 443e 44da 93be 7970 06be
000002a0: bf72 3cbe 28cb 0fbd cf05 9fbd 6d62 313d
000002b0: e4ac bcbd 75bf 46be cfc2 453e df5c 03bd
000002c0: 6d7a 253e e318 e53d 3110 42bd 71f3 24be
000002d0: ade5 34bd a535 07be 484f 213e 062a 293d
000002e0: 4f0f 5d3b 752a 1c3e 7648 a0bd a5f3 d3bd
000002f0: 9a8f 6a3e e017 18bd a85c b33d d9e1 72bc
00000300: 3796 ee3d 8f65 15be b189 173e d9af 50bd
00000310: d2f7 65bd 63af 033d 4c5f ec3d 07e1 a43c
00000320: f922 0cbe 98b5 f5bc e726 18be 2100 253d
00000330: bf5b 7dbd 01f6 513d 0b2a 34be 8ce7 913d
00000340: b881 a43d 9313 4d3d aeed f4bc 72ae d63d
00000350: c657 033a a03d 853d 4131 d2bd 3a52 813d
00000360: 2260 d9bd 74f4 5abe b133 5f3e 70f6 5fbe
00000370: 1893 ee3c b3f7 233d 2ea1 afbd ceb8 b73c
00000380: 08d0 42bd 20fe 333d d76a 473e cc56 c93b
00000390: 8032 ebbb c9af f03c 6a77 6abc 13fd a8bc
000003a0: ef5a 2fbd 2dfd 503d 78c3 633d 4108 17bd
000003b0: f5be 573e 88f4 b23d 7603 bf3d aced d3bb
000003c0: cf5c d1bd 67b8 1d3e ceed c63c 2940 aebc
000003d0: f28b 583e f71e a83d 0365 3ebe 33d8 b5bc
000003e0: ecaf 43be b2ad 1fbd 8c00 073e d5e1 11bd
000003f0: 1c69 5abd 445c 083e 6d55 ad3d f70c 34be

rnn.weight_hh_l1 f4 [256, 64]
0.020783477 -0.07332015 0.19582187 0.13042058 0.17131191 0.15405944 0.15312767 -0.036747206
-0.0033656 0.013500587 -0.15118806 0.017787747 0.13233541 0.058342844 0.1507691 -0.2987113
0.26830983 0.12138559 -0.12195815 -0.15475485 0.04906995 -0.037098113 0.17510982 0.11663727
0.17085446 0.16831252 0.13002385 -0.05911606 -0.024561193 0.22224912 -0.23317808 0.09109316
0.15110324 -0.038057018 -0.019856622 0.021758828 0.07949099 0.0034011083 -0.052455217 -0.03419694
0.26753137 0.0041939276 0.17299497 0.1455028 -0.32974204 0.08580125 -0.051415578 0.23221774
0.2364167 0.058383193 0.0837245 -0.044167336 0.16295065 0.011438359 -0.008553692 -0.04635417
-0.04159591 0.0061324444 -0.13023718 0.10373616 -0.1194227 0.080159135 0.022215668 -0.22731674
-0.11645708 0.13797252 0.11857213 0.03202334 0.1250901 0.08793627 0.24231993 0.067047454
-0.07052378 0.0782878 -0.08418037 -0.024335692 0.06346744 -0.18320383 -0.09618636 -0.09550048
0.21863371 0.05364594 0.05102467 -0.14563078 0.044489518 0.08414764 -0.08893134 0.027221002
0.11302887 -0.122109145 0.03617274 0.15648441 -0.041445907 -0.49926123 -0.10777303 -0.037266564
0.21331006 0.17639408 -0.2181266 0.15774997 0.28629404 -0.19565344 0.024936661 -0.13752417
0.12719999 -0.062086694 0.12176856 0.09987227 -0.23118962 0.17320222 0.11649363 -0.14186956
0.17207317 0.04966751 -0.0029351169 0.10305916 0.064973585 0.030344889 0.03240869 -0.11566487
-0.12992267 -0.24055403 0.33964354 0.2383596 -0.21556431 -0.069257736 0.014506422 -0.12632105
-0.1701621 0.031121392 -0.27179405 -0.090866804 -0.16076097 -0.0068065436 -0.06570954 0.060560193
-0.0016000987 -0.054303207 0.13723524 -0.07662797 -0.06309055 -0.041220717 -0.09284332 -0.0917098
-0.20038235 0.080004305 -0.12369741 -0.0103207845 -0.31965888 0.02997228 -0.29159647 -0.074620746
-0.07799033 -0.18406384 -0.030307777 0.07601824 0.0001804596 -0.15117534 0.26047772 -0.15157256
0.1158463 0.12852244 -0.10062782 0.17900161 -0.07494257 -0.039735533 0.22170289 0.00254463
-0.2852779 0.1971929 -0.36964986 -0.1316631 0.16680045 0.17446958 -0.108382694 -0.15616651
-0.008617355 0.022545232 -0.17976476 0.028704517 -0.20345934 -0.0362904 0.11536662 -0.018037131
0.11307825 -0.17117587 0.26875296 0.061605398 0.18573888 -0.010438791 0.013076799 0.07727584
0.050019443 0.046173304 0.023914672 0.1060167 0.06189001 -0.08775056 0.09960765 0.07597099
0.106743455 0.05226307 -0.085103616 -0.0441581 -0.11069998 -0.12019706 -0.02981793 -0.08968839
0.10905492 0.15263306 0.14738026 -0.03174684 0.07076604 -0.009540878 0.11530246 0.062329993
0.17605324 0.06384075 0.007130788 0.036326353 0.06912937 0.0745484 0.0040169857 0.09754384
-0.070180535 0.100132056 0.0859276 -0.09619072 0.084666096 0.058322206 -0.07210159 -0.048299145
0.100203715 -0.10110649 0.24256842 0.12584254 0.022673758 0.051220857 0.07535067 0.09824788
0.1056479 -0.011698242 -0.25653234 0.08178797 0.078760825 0.12197563 -0.096801296 -0.09918677
-0.034955602 -0.0473136 -0.10056158 -0.052710872 -0.17036271 0.047856513 0.058331117 -0.1673855
00000000: 1c42 aa3c e028 96bd 8785 483e f98c 053e
00000010: 646c 2f3e c2c1 1d3e 80cd 1c3e 3d84 16bd
00000020: 6691 5cbb 9131 5d3c 0bd1 1abe 9cb7 913c
00000030: ef82 073e e8f8 6e3d 3763 1a3e b0f0 98be
00000040: e85f 893e 0299 f83d 32c5 f9bd 0e78 1ebe
00000050: 92fd 483d 31f4 17bd fd4f 333e 85df ee3d
00000060: 79f4 2e3e 1e5a 2c3e f924 053e af23 72bd
00000070: 8e34 c9bc 4695 633e 3cc6 6ebe 0d8f ba3d
00000080: cfba 1a3e ade1 1bbd 5baa a2bc 923f b23c
00000090: 2ccc a23d 21e5 5e3b 48db 56bd 1712 0cbd
000000a0: dff9 883e 376d 893b 9825 313e b0fe 143e
000000b0: f3d3 a8be 91b8 af3d 2499 52bd 7dca 6d3e
000000c0: 3817 723e 3723 6f3d c077 ab3d cfe8 34bd
000000d0: 89dc 263e f467 3b3c c924 0cbc dfdd 3dbd
000000e0: 7960 2abd acf2 c83b e55c 05be a073 d43d
000000f0: e393 f4bd 792a a43d a2fd b53c b8c5 68be
00000100: 0d81 eebd ab48 0d3e f2d5 f23d e82a 033d
00000110: 9f17 003e ee17 b43d b722 783e 2d50 893d
00000120: c66e 90bd 5b55 a03d c266 acbd a55b c7bc
00000130: 38fb 813d c999 3bbe 5bfd c4bd c195 c3bd
00000140: 84e1 5f3e d8bb 5b3d 3fff 503d 3c20 15be
00000150: a43a 363d 9955 ac3d a221 b6bd 94fe de3c
00000160: ae7b e73d 5c14 fabd de29 143d 733d 203e
00000170: 2fc3 29bd 2b9f ffbe 1bb8 dcbd d3a4 18bd
00000180: f46d 5a3e a6a0 343e 945c 5fbe 3589 213e
00000190: 2295 923e 6059 48be f847 cc3c 23d3 0cbe
000001a0: b740 023e 9e4e 7ebd cb61 f93d d589 cc3d
000001b0: f9bc 6cbe ec5b 313e 3694 ee3d 4146 11be
000001c0: f333 303e 2970 4b3d 175b 40bb ae10 d33d
000001d0: df10 853d d895 f83c f9be 043d b4e1 ecbd
000001e0: 730a 05be cc53 76be c2e5 ad3e 8a14 743e
000001f0: e4bc 5cbe 00d7 8dbd 58ac 6d3c 4e5a 01be
00000200: f93e 2ebe 4af2 fe3c 9728 8bbe 6018 babd
00000210: 869e 24be 6d09 dfbb b992 86bd f70d 783d
00000220: 67ba d1ba 0a6d 5ebd 6587 0c3e 20ef 9cbd
00000230: 9e35 81bd 0ed7 28bd a324 bebd 59d2 bbbd
00000240: 0831 4dbe 4cd9 a33d 1155 fdbd 8218 29bc
00000250: 54aa a3be 6d88 f53c 224c 95be c3d2 98bd
00000260: 65b9 9fbd 3b7b 3cbe 0448 f8bc 73af 9b3d
00000270: c139 3d39 b5cd 1abe 565d 853e d635 1bbe
00000280: d340 ed3d 639b 033e f515 cebd 334c 373e
00000290: 7d7b 99bd bac1 22bd 1506 633e cfc3 263b
000002a0: f20f 92be f0ec 493e bf42 bdbe b1d2 06be
000002b0: bdcd 2a3e 27a8 323e bff7 ddbd 1dea 1fbe
000002c0: ce2f 0dbc c7b0 b83c 4114 38be bc25 eb3c
000002d0: a557 50be 3ea5 14bd 5645 ec3d 9bc2 93bc
000002e0: 9295 e73d ba48 2fbe fd99 893e f155 7c3d
000002f0: 5532 3e3e 7607 2bbc 1240 563c cc42 9e3d
00000300: 30e1 4c3d 3820 3d3d b4e8 c33c 491f d93d
00000310: 6180 7d3d 91b6 b3bd 18ff cb3d ae96 9b3d
00000320: 509c da3d cd11 563d ce4a aebd 20df 34bd
00000330: acb6 e2bd e029 f6bd bb44 f4bc 8cae b7bd
00000340: 3058 df3d d74b 1c3e daea 163e f908 02bd
00000350: c9ed 903d 5851 1cbc b223 ec3d bc4d 7f3d
00000360: 4d47 343e f0be 823d 63a9 e93b f1ca 143d
00000370: b393 8d3d d5ac 983d eba0 833b 11c5 c73d
00000380: d0ba 8fbd 0912 cd3d cffa af3d a4ff c4bd
00000390: 6b65 ad3d 44e3 6e3d 00aa 93bd 53d5 45bd
000003a0: 9b37 cd3d eb10 cfbd db63 783e dedc 003e
000003b0: 51be b93c f6cc 513d 7451 9a3d 2f36 c93d
000003c0: ed5d d83d fca9 3fbc 3558 83be 7480 a73d
000003d0: 5b4d a13d 5cce f93d c23f c6bd 6f22 cbbd
000003e0: 9b2d 0fbd e8cb 41bd 3bf3 cdbd 5be7 57bd
000003f0: 9073 2ebe 3105 443d 9cec 6e3d 1b67 2bbe

rnn.bias_ih_l1 f4 [256]
-0.08237313 -0.17779379 -0.19614959 0.28483853 0.020121697 0.058558196 -0.04007172 -0.27544627
0.11377979 0.08521575 -0.24523991 0.02069121 -0.017148918 0.044020206 -0.059517637 -0.10766262
-0.1679322 -0.12625057 0.13746871 0.12383988 -0.15607521 0.020386819 0.0492804 0.052390248
-0.12961632 -0.1020417 -0.06419405 0.004780497 -0.13276072 -0.27936548 -0.14531991 0.024313437
0.06481066 0.18500516 0.0672547 -0.0704617 -0.15767787 -0.066252105 0.04366993 -0.007940125
-0.07202323 -0.20830138 -0.07128587 -0.09148392 -0.15736942 -0.26457354 -0.051177178 -0.021916568
-0.09017235 0.04743675 -0.123649396 0.033830736 0.0742548 0.19093615 0.16055581 0.18524578
-0.0035580907 -0.05781051 -0.19194093 0.019415515 0.10348298 0.0014353306 0.10046779 0.053789936
-0.0005855555 -0.2300906 -0.12866549 0.05528919 -0.09733257 0.13028078 0.036587536 -0.086583704
-0.029869337 0.061334655 -0.35338268 0.0007603045 -0.14023317 0.08476773 -0.064677894 -0.10759498
-0.13799512 -0.121995956 0.08101897 0.12817374 -0.09134952 0.01295923 -0.076922394 -0.018640397
0.000320379 -0.036245883 -0.2681015 -0.0006544375 -0.091146804 -0.25885135 -0.024605079 0.030953329
0.09055232 0.05724579 0.024525227 -0.09794818 0.011950349 -0.12875104 -0.0077949064 -0.045234296
-0.16778806 -0.1671378 -0.11827152 0.0054051396 -0.15526757 -0.03426752 0.12893583 -0.19943468
-0.0015490227 -0.13205762 -0.061353173 -0.02814584 -0.1100937 0.0406427 0.09882031 -0.042721003
-0.055474725 0.02463446 -0.07638205 -0.060076207 0.16370755 0.11422478 0.0772399 -0.116767265
0.110501535 0.013164005 -0.024564903 -0.06957865 0.030268546 0.0030107254 -0.073196195 -0.17012276
0.0031945829 -0.114966705 -0.08228566 0.018079048 0.18707693 0.1420763 0.123254314 0.07414778
-0.077358596 -0.12465131 -0.047675602 0.07053535 -0.0036744978 -0.12113555 0.18793666 0.008233086
0.27563703 -0.13072553 0.15910906 -0.09396643 0.007826061 -0.033203866 -0.0230082 -0.08104466
0.12810868 -0.03299883 0.036519308 0.0911261 0.2905351 0.029590556 -0.060573578 -0.16673788
0.14480829 0.07693205 0.046769444 -0.09871678 -0.13155688 -0.16393597 -0.013101491 0.22819757
0.03942352 -0.17442262 -0.017888976 -0.082158014 -0.18094556 -0.11975798 -0.060868528 0.07541037
0.075111 -0.359444 -0.037583333 -0.015151235 -0.14066532 -0.13933447 0.15657464 -0.07314695
0.09192924 -0.16026361 -0.14459653 0.15982461 0.04177567 -0.0105271265 -0.1287179 -0.24343656
0.091991715 0.093271 -0.3496603 0.006660862 -0.07495474 -0.044915102 -0.12317897 -0.22415005
-0.30713207 -0.13451585 0.035159025 0.06994804 -0.07985609 -0.039477363 0.019121092 0.098196276
-0.049781714 -0.14662199 -0.27016982 -0.16442491 -0.03263441 -0.24526633 -0.16018994 -0.07936242
0.054116476 0.053821553 0.017709611 -0.24993172 0.039110135 -0.042639513 -0.20209283 0.0041106706
-0.10232712 -0.20830216 -0.0882767 0.10816861 -0.02539755 -0.103987135 -0.010059446 -0.20426643
0.021512471 0.050992575 -0.044649668 0.013061236 -0.026927536 0.1378942 0.160959 0.08877127
0.14932568 0.0063171657 -0.25901642 -0.09036609 -0.050493546 0.23049824 0.054941848 -0.04941322
00000000: 3eb3 a8bd 930f 36be 70db 48be 5bd6 913e
00000010: 42d6 a43c b8da 6f3d 3e22 24bd 4b07 8dbe
00000020: 6105 e93d 9885 ae3d 2c20 7bbe 9d80 a93c
00000030: e37b 8cbc 884e 343d c4c8 73bd 387e dcbd
00000040: 6bf6 2bbe d447 01be 99c4 0c3e c39f fd3d
00000050: 2ed2 1fbe 4202 a73c 3fda 493d 2897 563d
00000060: 24ba 04be 3dfb d0bd 2c78 83bd b7a5 9c3b
00000070: 6df2 07be fe08 8fbe bece 14be f92c c73c
00000080: 74bb 843d fe71 3d3e d5bc 893d 394e 90bd
00000090: 4f76 21be 2faf 87bd 3edf 323d 4c17 02bc
000000a0: ea80 93bd f54c 55be 54fe 91bd ec5b bbbd
000000b0: 7325 21be 2f76 87be 299f 51bd 608a b3bc
000000c0: 48ac b8bd 0a4d 423d e53b fdbd 1992 0a3d
000000d0: e712 983d c484 433e be68 243e 12b1 3d3e
000000e0: db2e 69bb b7ca 6cbd 2a8c 44be 490d 9f3c
000000f0: e2ee d33d b421 bc3a 0fc2 cd3d d652 5c3d
00000100: f77f 19ba df9c 6bbe e3c0 03be eb76 623d
00000110: 4c56 c7bd 5368 053e d0dc 153d cc52 b1bd
00000120: 8ab0 f4bc 0c3a 7b3d 93ee b4be 2c4f 473a
00000130: 4999 0fbe b49a ad3d d875 84bd c25a dcbd
00000140: 984e 0dbe 04d9 f9bd 46ed a53d fa3f 033e
00000150: 7515 bbbd f352 543c 7d89 9dbd bfb3 98bc
00000160: 8bf8 a739 9076 14bd 9a44 89be 8f8e 2bba
00000170: 2dab babd 2a88 84be 9790 c9bc d691 fd3c
00000180: 7f73 b93d 907a 6a3d 21e9 c83c 0e99 c8bd
00000190: 66cb 433c 50d7 03be 6a6c ffbb 9947 39bd
000001a0: a2d0 2bbe 2c26 2bbe 5738 f2bd 991d b13b
000001b0: 76fe 1ebe 195c 0cbd c107 043e 9b38 4cbe
000001c0: 9408 cbba 1d3a 07be 774d 7bbd 1b92 e6bc
000001d0: ce78 e1bd f678 263d 4d62 ca3d 38fc 2ebd
000001e0: 7739 63bd 35ce c93c 316e 9cbd 7812 76bd
000001f0: f4a2 273e aeee e93d f42f 9e3d ad23 efbd
00000200: a14e e23d d7ad 573c 563c c9bc 407f 8ebd
00000210: bef5 f73c 974f 453b e3e7 95bd a934 2ebe
00000220: 355c 513b aa73 ebbd 6285 a8bd 831a 943c
00000230: 1891 3f3e 737c 113e c26c fc3d cbda 973d
00000240: 2f6e 9ebd 3049 ffbd 7e47 43bd d674 903d
00000250: d8cf 70bb ea15 f8bd 7872 403e 11e4 063c
00000260: 4c20 8d3e eadc 05be 7ced 223e 7971 c0bd
00000270: e138 003c c700 08bd b17b bcbc befa a5bd
00000280: ec2e 033e c829 07bd 4595 153d 52a0 ba3d
00000290: 04c1 943e e567 f23c 001c 78bd 56bd 2abe
000002a0: a048 143e 8d8e 9d3d 5191 3f3d 062c cabd
000002b0: d9b6 06be d5de 27be a3a7 56bc a0ac 693e
000002c0: 8f7a 213d d89b 32be e78b 92bc 7642 a8bd
000002d0: cb49 39be ac43 f5bd 4751 79bd c170 9a3d
000002e0: ccd3 993d 0b09 b8be fbf0 19bd e33c 78bc
000002f0: 920a 10be b2ad 0ebe 1a55 203e 11ce 95bd
00000300: 6645 bc3d 251c 24be 1d11 14be 10a9 233e
00000310: f71c 2b3d f879 2cbc a0ce 03be 6f47 79be
00000320: 2766 bc3d de04 bf3d ad06 b3be 5c43 da3b
00000330: df81 99bd e6f8 37bd 4145 fcbd 9787 65be
00000340: 6a40 9dbe 86be 09be e902 103d eb40 8f3d
00000350: 978b a3bd 04b3 21bd d6a3 9c3c 211b c93d
00000360: e9e7 4bbd 1324 16be b353 8abe 015f 28be
00000370: a9ab 05bd 1927 7bbe d508 24be c488 a2bd
00000380: 3da9 5d3d fd73 5c3d bf13 913c 1aee 7fbe
00000390: f331 203d c5a6 2ebd 6cf1 4ebe ceb2 863b
000003a0: e290 d1bd 294d 55be 6aca b4bd 8187 dd3d
000003b0: 860e d0bc 35f7 d4bd 60d0 24bc 382b 51be
000003c0: ec3a b03c 97dd 503d 92e2 36bd cbfe 553c
000003d0: 2397 dcbc 2334 0d3e 70d2 243e b6cd b53d
000003e0: d5e8 183e 3a00 cf3b cd9d 84be db11 b9bd
000003f0: 52d2 4ebd bb07 6c3e b40a 613d 8465 4abd

rnn.bias_hh_l1 f4 [256]
0.03490657 -0.36429483 -0.22325811 0.30878305 0.0018605833 -0.019774526 0.08474218 -0.2110844
0.06444559 -0.047031235 -0.3634054 0.06404692 -0.10161723 0.10201027 -0.09429459 -0.08440147
-0.14960198 -0.09023805 -0.024105774 0.0396677 0.0041669216 0.1426759 -0.007532921 0.16225852
-0.09678792 -0.028065396 -0.1763954 -0.08109351 -0.0009143804 -0.17055036 -0.21983492 -0.08489076
-0.029420245 0.17253381 0.21023875 -0.13354446 0.038368516 -0.20323828 -0.15149269 0.0027600909
-0.15772116 -0.19176319 -0.11087778 0.019352626 -0.09196546 -0.19321519 -0.003527703 -0.19586134
-0.07260731 0.03675516 -0.07200637 0.08808636 -0.010587569 0.0325252 0.04282605 0.15434591
-0.018348113 0.04080446 -0.21807243 -0.13667248 0.00042597178 0.036186524 0.07213686 0.0031538294
-0.07998381 -0.33294955 -0.032898095 -0.0054192324 -0.05596435 -0.049992546 0.03777792 -0.23057443
0.048638072 -0.015121704 -0.24287273 0.08310863 -0.12644903 -0.048627626 0.011681722 -0.25962773
-0.23670503 -0.06909979 0.0050209323 0.0067389915 0.08195739 0.1346607 -0.036315534 -0.05074805
-0.054672744 -0.14018738 -0.20702353 0.01653799 0.039478794 -0.2704579 -0.022767173 0.014125363
0.043970678 0.072958656 0.03710207 -0.14751941 0.009007073 -0.120347075 -0.0341554 0.038493916
-0.15700753 -0.06716931 -0.15407874 -0.05604333 -0.20869389 -0.07465063 0.040942524 -0.11062657
-0.03254863 -0.009141067 0.01592537 -0.08573622 -0.018796097 0.08740902 0.092776045 -0.013623377
0.11159005 -0.09104755 -0.25749928 0.04188051 0.11256409 0.15077943 0.07090494 -0.14566658
0.109713696 -0.0013067551 0.029610991 0.06427697 -0.02832385 0.013349249 -0.24930757 -0.11032023
-0.05711773 -0.2361768 0.09128283 -0.02269366 0.10738806 0.118784025 0.16465105 0.13968931
-0.061157104 -0.017166162 0.0036664463 -0.06512513 -0.00607433 0.007842788 0.16848457 -0.068876825
0.13659917 -0.07673261 -0.063518785 -0.19452603 0.073586576 -0.019708335 -0.17817518 -0.065578096
-0.10589066 0.011556509 0.17989412 0.0079751 0.13796015 0.08677294 0.102023736 -0.14175624
0.1941067 -0.05667791 -0.056535766 0.096670695 -0.11730716 -0.09260306 0.022910165 0.1373403
-0.06367074 -0.16854006 0.12069104 -0.07343619 0.024082903 0.014542788 -0.03943826 -0.04111415
-0.027844992 -0.24650599 0.051760245 -0.0167169 -0.06496667 -0.012303071 0.20916787 -0.07115692
0.12587199 -0.21068846 -0.106670015 0.11447693 0.0101168 -0.10347914 0.016716179 -0.09282789
-0.0037562181 -0.09319197 -0.25643882 -0.01957733 -0.08057973 0.09231952 -0.14346424 -0.2059458
-0.27254918 -0.14706519 -0.028612599 -0.1265961 0.00078657106 0.12682025 0.061090823 0.05185683
-0.009633523 -0.025792789 -0.07867292 -0.028837116 -0.086762644 -0.14137094 -0.16228786 -0.17241776
0.05595601 -0.023426777 -0.068077795 -0.15602964 -0.08793658 -0.0067862007 -0.0300402 -0.09980489
-0.12880825 -0.2505073 -0.11427164 0.18335493 -0.105101965 -0.30145872 0.0610461 -0.09843265
0.03886729 0.004054978 -0.10438076 0.11413624 -0.053122886 0.14475884 0.015252685 0.018739734
0.006110808 0.044611447 -0.03731474 -0.047211092 -0.0520471 0.23983736 0.07813269 -0.015373259
00000000: 31fa 0e3d da84 babe c69d 64be d018 9e3e
00000010: d1de f33a 30fe a1bc 4f8d ad3d 8226 58be
00000020: 0dfc 833d d3a3 40bd 4610 babe 082b 833d
00000030: b21c d0bd c3ea d03d 861d c1bd aeda acbd
00000040: 4331 19be bace b8bd 7979 c5bc 997a 223d
00000050: ac8a 883b a219 123e b9d6 f6bb 1927 263e
00000060: bf38 c6bd 67e9 e5bc ffa0 34be 5b14 a6bd
00000070: 08b3 6fba c1a4 2ebe 681c 61be 35db adbd
00000080: ba02 f1bc b4ac 303e d448 573e e1bf 08be
00000090: 4e28 1d3d b21d 50be e620 1bbe a4e2 343b
000000a0: a881 21be 925d 44be e413 e3bd 6689 9e3c
000000b0: 6358 bcbd 34da 45be 0931 67bb e08f 48be
000000c0: 24b3 94bd 948c 163d 1378 93bd 9f66 b43d
000000d0: 7c77 2dbc 2539 053d 5e6a 2f3d db0c 1e3e
000000e0: c84e 96bc 9422 273d 614e 5fbe dff3 0bbe
000000f0: f754 df39 5238 143d 7dbc 933d 7ab0 4e3b
00000100: 8dce a3bd 5d78 aabe 27c0 06bd d193 b1bb
00000110: e03a 65bd fcc4 4cbd 05bd 1a3d b41b 6cbe
00000120: b738 473d 06c1 77bc a1b3 78be db34 aa3d
00000130: db7b 01be c32d 47bd b164 3f3c eded 84be
00000140: ce62 72be 3184 8dbd a286 a43b c2d2 dc3b
00000150: 47d9 a73d 7fe4 093e 99bf 14bd 30dd 4fbd
00000160: 87f0 5fbd 488d 0fbe fafd 53be ae7a 873c
00000170: 84b4 213d 7579 8abe 3982 babc 116e 673c
00000180: 991a 343d 596b 953d 57f8 173d 540f 17be
00000190: 6792 133c 8778 f6bd 88e6 0bbd ccab 1d3d
000001a0: 95c6 20be 1090 89bd d1c6 1dbe b18d 65bd
000001b0: dab3 55be 6ee2 98bd 59b3 273d 2f90 e2bd
000001c0: b651 05bd 6ac4 15bc ec75 823c 7996 afbd
000001d0: 46fa 99bc 8003 b33d 5e01 be3d 9634 5fbc
000001e0: 5389 e43d 2377 babd f2d6 83be e68a 2b3d
000001f0: 0088 e63d ec65 1a3e 9c36 913d 9f29 15be
00000200: 93b1 e03d 6d47 abba c092 f23c a5a3 833d
00000210: 6b07 e8bc cfb6 5a3c 7c4a 7fbe 93ef e1bd
00000220: 48f4 69bd 55d8 71be 7ef2 ba3d 0ee8 b9bc
00000230: 45ee db3d 0a45 f33d 499a 283e b70a 0f3e
00000240: df7f 7abd 0da0 8cbc c348 703b 5360 85bd
00000250: 2c0b c7bb 097f 003c 3887 2c3e 4b0f 8dbd
00000260: a7e0 0b3e fd25 9dbd 2316 82bd d531 47be
00000270: 8fb4 963d 6073 a1bc 8e73 36be cf4d 86bd
00000280: 34dd d8bd 8357 3d3c 2a36 383e fea9 023c
00000290: 6d45 0d3e 03b6 b13d d2f1 d03d 8c28 11be
000002a0: e8c3 463e 1927 68bd 0c92 67bd 49fb c53d
000002b0: bc3e f0bd aca6 bdbd 19ae bb3c f0a2 0c3e
000002c0: ce65 82bd c495 2cbe dd2c f73d b765 96bd
000002d0: 8249 c53c e044 6e3c 038a 21bd 5067 28bd
000002e0: 2e1b e4bc 116c 7cbe 8d02 543d e1f1 88bc
000002f0: 3f0d 85bd d292 49bc 1a30 563e b8ba 91bd
00000300: 96e4 003e b7be 57be cf75 dabd e172 ea3d
00000310: efc0 253c dfec d3bd 5ef0 883c 8c1c bebd
00000320: e22a 76bb 6edb bebd f34b 83be a360 a0bc
00000330: fc06 a5bd 0412 bd3d 4ae8 12be 75e3 52be
00000340: 918b 8bbe 4298 16be f864 eabc 68a2 01be
00000350: e431 4e3a 2bdd 013e 5f3a 7a3d d467 543d
00000360: edd5 1dbc 664b d3bc 451f a1bd d13b ecbc
00000370: 9db0 b1bd 8bc3 10be ca2e 26be 488e 30be
00000380: 2132 653d 83e9 bfbc 5f6c 8bbd 3cc6 1fbe
00000390: 1818 b4bd c75e debb de16 f6bc 8266 ccbd
000003a0: 4fe6 03be 7e42 80be 4007 eabd 65c1 3b3e
000003b0: b33f d7bd cc58 9abe 7a0b 7a3d 0f97 c9bd
000003c0: 4f33 1f3d 9fdf 843b 94c5 d5bd 43c0 e93d
000003d0: 6297 59bd a93b 143e 66e6 793c 1284 993c
000003e0: 2c3d c83b 7eba 363d 57d7 18bd 6b60 41bd
000003f0: 572f 55bd ed97 753e 0804 a03d 1fe0 7bbc
