notebooks/best_model_total_cond.pth (torch, 741993 bytes, 25 tensors)

rnn.weight_ih_l0 f4 [256, 5]
00000000: 9a0d 8abe 6dc5 973d a95d 46bb 0e79 303e
00000010: 3d5c 033e e794 51be 5e07 b4bd db8b 41be
00000020: 3f29 833b 143a 8a3d aa1e 9abc b8e0 53bd
00000030: 6784 393d 87a1 89be 7fd6 75be c625 53be
00000040: e0ce dd3d d700 28be 6d40 8f3d 99e4 633e
00000050: 1f90 ec3d 7c24 3abd c6f5 8d3d 5fbd a6bd
00000060: bdba 75be 6bd5 7bbd 89d5 0dbd cdf0 7a3e
00000070: 71bb 8a3d b297 48be d119 77be c71e e93d
00000080: 6a00 ae3d 3b27 40bd 74d5 51bc e258 8ebd
00000090: 730c 8dbe c20b e7bd 4fe3 ab3e 46d6 403e
000000a0: 22f3 7dbd 2bc2 ef3d 8b7e f4bc 1429 97bd
000000b0: 091a 033c a506 10be 035a 19be 2458 fcbd
000000c0: e985 a03e ea83 203e 26cd abbc 56c4 56be
000000d0: dd2f 82be ab46 e1bc 722d 003d dc48 35be
000000e0: 63dc 733e 26d7 0bbe 7c78 3dbe cd4c bbbc
000000f0: f1a9 f0bb fd4f 973d 61cb 0bbd 6112 b73d
00000100: 0e71 803c d0c0 67b9 0bd8 2ebe a907 7bbe
00000110: 9059 89bd af22 8c3d 3196 97be 9d10 6fbd
00000120: 03d6 5f3e 462a 8abd b21d 93bd 19ae 58be
00000130: b4ae 97be 7594 c5be 2f25 1a3e c4cd 0bbe
00000140: 81e7 26be 9d45 34bd 83e7 27be 9c59 25be
00000150: f474 523d d59f 3d3e b58b 79be 517a a2be
00000160: d853 3abe 1263 ab3d 2387 8bbe 6559 6abd
00000170: 6770 90bb 9a90 823e 4989 21be 9e02 84be
00000180: 0121 643d f3fc 91bd 25d1 ae3d 1fba ac3d
00000190: 1058 61bd ea5a cfbc 6e67 aebd 6fae d83c
000001a0: dbd8 113e 211a 9dbd 5357 983d 318b babc
000001b0: af76 f9bd dfcb 59be f59e 68be 9a90 2c3d
000001c0: 6ab9 013e a16b aabd 98fd 573d 3ccf 673d
000001d0: a6e2 e83d 006c 843d 5773 c1bc fc12 14bd
000001e0: f45a 2f3e 27dd f63d 7d21 24bd dd1f 9c3e
000001f0: f832 ef3d ba42 acbd f971 aebd 3535 9b3b
00000200: dab8 c6bd 6d07 893c 7bdb b4be d8a4 813c
00000210: 2ba4 06be e18c 4bbe 7a4f 8f3d 0bef 89be
00000220: aaa8 d4bd 7082 4bbd af1c 6c3d 4cd3 1f3e
00000230: 3fae 33bd f0c4 ffbc e5fe 45bd 762d 59bd
00000240: 1ced 773e 412b 603c cebe edbd 8dc6 bebd
00000250: b047 8b3e 5a55 043c 82d5 69bd 1979 b03c
00000260: 8162 933e d095 fc3b e51e babd a504 25bd
00000270: 2b98 29be f231 8a3d ccd5 0f3e 10c1 08be
00000280: 6701 3fbe 86e1 543d 3418 da3b a305 503d
00000290: 3986 4ebd 20f5 04be a03e 04be 8792 35bd
000002a0: fc72 4a3e 43fa e0bd a349 fe3b c385 443e
000002b0: 48e4 d0bd 23c9 413b 6ec0 843d db06 f9bd
000002c0: 0ec5 223e 971b 8a3d 77a1 333e 512c 323b
000002d0: c6a8 56be c156 a7be 6cad c2bd 8b2d 9a3c
000002e0: 8440 ea3d 3b8e 313d 8074 513e 8951 2e3e
000002f0: 911a 893d bd16 dc3d 5b06 803d 070c 873d
00000300: ceae d43d e350 953d e966 233d 14b7 373d
00000310: 6a93 093a 5197 0ebe fa08 c53d 0eec c63d
00000320: 12b8 083d f332 13be bc27 0fbe 0407 8bbe
00000330: 69ec ffbc 2f1d 0abb 2cb5 18bd 7bf8 e8bd
00000340: 16d8 dcbd ab36 833c d95a e4bd 0c98 d03d
00000350: a05d c4bd 7bd7 36be 0e4e 59be 423e 7ebe
00000360: 5c8f 2a3e f522 253d a329 d73d 5ed9 273e
00000370: 4128 a3be f609 ebbd cea1 423e 7219 2cbe
00000380: d431 9a3d b554 d8bd bae6 3a3d 68a0 a5be
00000390: 4f54 463c 12d3 a53e 9e15 7dbe 930b cc3d
000003a0: cbd8 86be 609f f13d 0435 9f3e 57c7 0cbe
000003b0: b203 963c 6df8 eebd f1bf 99bd 3616 263d
000003c0: d128 3fbe 12cd 3b3e f868 a13d acff 9f3d
000003d0: 4719 833e 87cb c4bb 738a 07be 5d7e 78bd
000003e0: 2f56 0f3e 9786 8b3c ad76 b8bd 1a4d aebd
000003f0: f2d8 1a3e a9c1 7a3d f8fa 0e3e b7c6 59be
-0.26963502 0.07410703 -0.0030268228 0.17233679 0.12828155 -0.20466958 -0.08790468 -0.18901007
0.0040027197 0.06749359 -0.01881345 -0.05172798 0.045292284 -0.26881048 -0.24007605 -0.20619878
0.10830474 -0.1640657 0.0699471 0.22255172 0.115509264 -0.04544495 0.06931643 -0.081415884
-0.23997016 -0.061482828 -0.03462747 0.2450592 0.06774033 -0.19589117 -0.24130942 0.113828234
0.08496173 -0.046912413 -0.012807239 -0.06950547 -0.2754856 -0.112815395 0.3357186 0.18831739
-0.061999448 0.117069565 -0.029845497 -0.07380882 0.008001813 -0.14065035 -0.14975743 -0.12321499
0.31352165 0.15675321 -0.020971846 -0.20973334 -0.25427142 -0.027499517 0.03129334 -0.17703575
0.2381454 -0.13656291 -0.18502992 -0.02286377 -0.0073444773 0.073883034 -0.034129504 0.089390524
0.015678909 -0.00022101705 -0.17074601 -0.24514641 -0.06706536 0.06842553 -0.29606774 -0.058365453
0.21858983 -0.06746344 -0.07183398 -0.21160163 -0.29625475 -0.38589826 0.15053247 -0.13652712
-0.16299249 -0.0440117 -0.16396908 -0.16147465 0.051381066 0.18518002 -0.243697 -0.31733945
-0.18196046 0.083685055 -0.2725154 -0.05721416 -0.0044079307 0.25500947 -0.15775026 -0.25783247
0.055695537 -0.07128324 0.08535985 0.08433937 -0.055015624 -0.025311906 -0.085158214 0.026450364
0.1424288 -0.07670999 0.07438531 -0.02277145 -0.1218084 -0.21269177 -0.22716887 0.04213009
0.12668386 -0.0832131 0.05273208 0.05659412 0.11371355 0.06465912 -0.023614569 -0.036150917
0.1712454 0.120539 -0.040071 0.3049306 0.116796434 -0.084111646 -0.08517832 0.0047365674
-0.097032264 0.016727174 -0.353237 0.015825674 -0.13148563 -0.1987796 0.06997581 -0.26940188
-0.103837326 -0.04968494 0.057644542 0.15607947 -0.043867346 -0.031221837 -0.04833879 -0.05302187
0.24211544 0.013682188 -0.11608659 -0.09315214 0.2720313 0.00807699 -0.057088383 0.021542119
0.2878609 0.0077082887 -0.09087924 -0.040287632 -0.16561954 0.067478076 0.14046401 -0.13354897
-0.18652879 0.05197289 0.0066557173 0.050786626 -0.050420973 -0.12984133 -0.12914515 -0.044329192
0.19770426 -0.10985234 0.007760243 0.19191651 -0.10199791 0.002956935 0.064820156 -0.12159511
0.15895483 0.067435436 0.17542063 0.002718706 -0.2096282 -0.32683375 -0.09505734 0.018820545
0.11438087 0.043348532 0.20454597 0.1702329 0.0669452 0.107465245 0.06251212 0.06594091
0.10384904 0.072908185 0.039893065 0.04485233 0.00052481017 -0.1392491 0.09620853 0.097129926
0.033378668 -0.14374904 -0.13980001 -0.2715379 -0.031240659 -0.0021074524 -0.037282154 -0.11375519
-0.107834026 0.016017279 -0.1115014 0.10185251 -0.0958817 -0.17855637 -0.21221182 -0.24828437
0.1665625 0.04031654 0.105059884 0.16391513 -0.3186665 -0.11476509 0.19007036 -0.16806582
0.07529035 -0.105630316 0.045630194 -0.32348943 0.012105062 0.32387596 -0.24715278 0.09963145
-0.26337275 0.117979765 0.31095135 -0.13747917 0.018312309 -0.11668477 -0.07507313 0.040548526
-0.18667914 0.18339947 0.07881349 0.078124374 0.25605223 -0.0060057077 -0.13236408 -0.060667384
0.1399772 0.01703195 -0.090070106 -0.085108 0.1512182 0.061219845 0.13962924 -0.2126721

rnn.weight_hh_l0 f4 [256, 64]
00000000: 4341 d13d 4c7d b83d 97fe b43c 9e39 f53d
00000010: 9f1b 313e d624 373e cca1 7f3d 8545 183b
00000020: 8197 e83d 73b8 543d 919d c5bd ae75 27bd
00000030: 7a6a 79bc e6f6 3bbe 17a7 063d 0933 f6bc
00000040: 023d 1d3e 1e6d 1bbe 34ed 8abd 7a9c 02bd
00000050: f6e7 efbd a3df 143d 4e03 0cbd e505 ebbd
00000060: 76c6 bdbc d6f5 03be 7177 4cbe 95bc 06bc
00000070: 2fcf 88bd 9077 073d 981a 21bd 8a5f 973d
00000080: 86d0 c8bd 61a0 15be a06c 0bbd e9c2 ca3d
00000090: bafb 60bd 61a3 b43c 543c d7bd 0c5e f3bd
000000a0: ad3f adbd 4e21 3c3c 6e37 233d 3739 1cbe
000000b0: 89df bfbc 86cc c1bc 7894 22be a251 adbd
000000c0: 418c 01be dc98 5abd 11d0 043d ad3b b4bb
000000d0: 2b62 85be a051 d2bc 0be1 39bd 4453 24be
000000e0: 712a 3f3d 4953 be3d 8678 3b3d 4097 5b3e
000000f0: c1ac 40be 93c8 d5bd e9a7 89bd 4611 22be
00000100: 8689 38bd fa2c d1bd ce9b eb3d e078 16be
00000110: 6a6b e6bd 781b 253e c92a d3bd 7c72 833b
00000120: 73c4 b73c aa98 0f3e b272 bbbd 37c9 483e
00000130: 16e7 023e e1f6 ce3d 88a4 34be a88a ae3b
00000140: 6625 60bb 68e7 4a3c e977 043e 9c4b a0bd
00000150: fd6a 983d 2401 a83c bd5d c53d c5a4 02be
00000160: bbf1 193d b4de e4bd f196 193d ea6e 113d
00000170: 62de 243e 7808 043d 7fde c63c 8f34 a5bc
00000180: 9176 113b ee37 07be b8fc bb3d 6b30 9ebd
00000190: b1f7 333d a72f 0ebe 765f 463d bb98 133e
000001a0: e42c b53d ed6a 953d 7559 b83d 786d c83d
000001b0: fde7 f0bd f976 603d c437 33bd 9502 27bd
000001c0: 845c 2d3c e0a0 13bd 0d66 3b3c 01c1 af3d
000001d0: f322 87bd 763e 353e 3022 9dbd 57c7 93bd
000001e0: 4281 a8bd 496b 46bd b3d0 51be db90 07bb
000001f0: 6b5a 923b c59b c2bd e309 d7bb 45ec babd
00000200: cf10 3bbe ee04 99bc a952 90bc 239e acbd
00000210: ee02 8bbe cb53 443d efe9 84bd 192e af3c
00000220: 2efe 073e cc99 7f3b 8559 8dbd 6164 623c
00000230: 4a05 0abd 45d3 1b3e 448e 62be 7ca0 b5bd
00000240: 9b7d 703e a5fb 083e 1254 0b3e 2379 c03c
00000250: f94f c8bd c05d e73d 080b 1d3d 2a29 853d
00000260: e4e6 25be 66d1 f9bd 71bd 963d 8ce7 f33d
00000270: a5c9 313d 2871 223d 9327 263d b6e7 44bd
00000280: b7ba 803e 4357 c33c 1eab 12be 5ad1 78bd
00000290: 4c14 6dba e5bb fe3c f3f4 313e dd34 30bd
000002a0: 4cca 64bd 3297 7f3c 6f6d 823d 8d4e 843d
000002b0: f926 09be f788 b9bd 52c3 98bd b788 263e
000002c0: 17f2 0e3e 4a96 84bd 4c92 76be 308c 52bc
000002d0: 2a8a 183e 54cc 153e a596 783d 8155 fdbd
000002e0: 3fb0 523d 3282 72bd 5b8d 8e3c 5e5c a0bd
000002f0: a10e 1b3e 0eff 723d 29bd 7f3c 49e5 9b3d
00000300: 2ef4 113e 3ce5 cfbd 9576 943e df9c 73bc
00000310: 7928 b83c 687c a73d 50e8 c33c 87a2 63bd
00000320: ffc5 ff3d d03d a93d 6dbb 593c c1f1 553e
00000330: abd6 503d 0e1b e7bd 0223 1abb 4528 3c3e
00000340: c301 333c 13b8 963e 473a e73c 5ebd 01be
00000350: 50ac 773e 375b 2f3e 5147 343e 051d a8bd
00000360: 1c7e 373e adee dcbd 3713 463d ffd8 2fbe
00000370: b6e7 c8bd 0701 123d bd09 3cbd 366a 7cbd
00000380: 35f2 6dbd 9659 e6bd ff58 aabb 9fc8 03be
00000390: 29f5 b73c 6aec dfbc 8434 d5bd 8252 3b3d
000003a0: a7eb 3ebd d877 c43c 27df 513d addb 17be
000003b0: 02b2 2dbd 6a8c d33d 701c c3bd 0a41 cdbd
000003c0: 5514 283d 7380 a53d b272 dd3c 9656 63be
000003d0: 79ac 093d 2ac8 1f3e 8d62 e33d e1d5 79be
000003e0: e2be febd 1d90 923d 92a2 c1bd 32af 1e3d
000003f0: 76b4 353d 8213 93bd 5e5a 133d 5d6c 3ebe
0.10217526 0.090082735 0.022094054 0.1197388 0.17295693 0.17885146 0.06241016 0.0023234796
0.11357022 0.051933717 -0.09649194 -0.040883712 -0.01522314 -0.18355903 0.032874193 -0.030053632
0.15355304 -0.15178344 -0.06783524 -0.03188751 -0.11714165 0.03634609 -0.03418284 -0.11475734
-0.023165923 -0.12886748 -0.19967438 -0.008223672 -0.06680142 0.033073008 -0.039332002 0.073912695
-0.09805398 -0.14611961 -0.03403914 0.099004574 -0.054927565 0.022050561 -0.105095536 -0.118831724
-0.08459411 0.01148255 0.039847784 -0.152562 -0.02342202 -0.023657095 -0.15876949 -0.08462836
-0.12651159 -0.053368434 0.03242499 -0.005500278 -0.2605146 -0.025673687 -0.045380633 -0.16047388
0.046671335 0.09293229 0.045769237 0.21444416 -0.188159 -0.10438647 -0.067214794 -0.15826902
-0.045053028 -0.10213657 0.11504327 -0.14694548 -0.11250956 0.1612376 -0.10310895 0.0040114503
0.022432541 0.1402308 -0.09152736 0.19608007 0.12783465 0.10105682 -0.17640889 0.0053265877
-0.0034201979 0.012384273 0.12936367 -0.07826921 0.074422814 0.020508356 0.0963702 -0.12758167
0.037584048 -0.1117529 0.037497465 0.035506167 0.16100457 0.03223464 0.024276016 -0.020166663
0.0022195915 -0.13204929 0.09179062 -0.07724079 0.04393739 -0.13885365 0.048430882 0.14413731
0.08846453 0.07295785 0.090014376 0.097865045 -0.11762998 0.05480096 -0.043754354 -0.040773947
0.0105811395 -0.036042094 0.011437905 0.085817344 -0.06598463 0.17699608 -0.076725364 -0.072157554
-0.08227779 -0.04844216 -0.20489769 -0.0020685706 0.004466345 -0.09502367 -0.006562458 -0.09127096
-0.1826813 -0.018679108 -0.01761754 -0.084286 -0.27150673 0.047931474 -0.06489932 0.021384286
0.13280556 0.0039001582 -0.0690184 0.0138178775 -0.03369645 0.15217312 -0.22124583 -0.088685006
0.23485415 0.13377245 0.13606289 0.023495262 -0.097808786 0.11297178 0.0383406 0.06501992
-0.16201359 -0.12198143 0.07360352 0.119093984 0.043405194 0.039658695 0.040565085 -0.04807254
0.25142452 0.02384532 -0.14323089 -0.06074653 -0.0009043857 0.031095454 0.17378597 -0.043019164
-0.055856988 0.015600013 0.06368529 0.06460295 -0.13393773 -0.09059327 -0.074591294 0.1626309
0.13959537 -0.06473978 -0.24079245 -0.012850806 0.14896455 0.14628726 0.06069054 -0.12369824
0.051437613 -0.059206195 0.017401388 -0.07830118 0.15142299 0.05932527 0.015609064 0.07612092
0.14253303 -0.10151145 0.2899672 -0.014868944 0.022480236 0.081780255 0.023914486 -0.05557492
0.12488937 0.08263743 0.013289315 0.20893003 0.050985973 -0.11284457 -0.0023519401 0.18374737
0.010925713 0.29437312 0.028226031 -0.12669894 0.24186826 0.1712464 0.1760533 -0.0820866
0.179192 -0.10787711 0.04835817 -0.17172621 -0.0980982 0.03564551 -0.045907725 -0.06162473
-0.058092315 -0.11247556 -0.0051985974 -0.128695 0.022455769 -0.02733441 -0.10410407 0.045732982
-0.046611454 0.023982927 0.051238205 -0.14829893 -0.04240609 0.10329516 -0.095269084 -0.10022171
0.041035015 0.0808114 0.02703223 -0.22200999 0.03361175 0.156037 0.111027814 -0.24397995
-0.12438752 0.07156394 -0.09454836 0.038741298 0.044361554 -0.07181455 0.035974853 -0.18596025

rnn.bias_ih_l0 f4 [256]
00000000: 959f 023d af84 c0bc 2921 1cbe 03d3 b93c
00000010: 55f8 dcbd c95f 80bd fb1e 5fbe 6870 f5ba
00000020: ddc2 ffbd 8140 05be f502 b7bc 515f 01bd
00000030: 0e4b 36be f9a5 89bd a2dd 8e3d fc8e bd3d
00000040: 6a09 60be 23d1 f7bd 22e0 e3bd 9a3d 17be
00000050: f9ae 663d adde d9bd 7a48 acbd 9938 17b8
00000060: fd39 343d 5b84 efbd 025b 453d bf11 c0bd
00000070: 3e46 6bbe e421 303d 2f20 d0bd 5def 3dbe
00000080: 128f 4cbe f9eb cebd af28 0abe 076c 21be
00000090: 9527 d4bd a4b1 aabd ff9b 07be edb5 8abd
000000a0: 5424 093e 91af be3c 8dda 0cbd 2c79 d13b
000000b0: 134a 19be 99c8 1f3c 75b0 0ebd 2de7 d73c
000000c0: 12c9 0abe 5acd 363d 8eb0 123d f915 edbd
000000d0: 2d8d 993d bf55 3abe 22ae 253d 4bf2 a4bb
000000e0: 5ad1 0abe 4d45 85be c8a5 26bc a3cc 8ebd
000000f0: af69 9dbc 2233 b2bd 6b48 463d 5c40 4a3c
00000100: 7956 b23d 3d96 5a3d 13a8 a43b 6e07 96bc
00000110: 9405 ebbc 273b f6bc 6f2e 3fbe ff2f cb3d
00000120: ba9a c03d 3138 e73c 7d3a 2b3d 0a5a 923d
00000130: 36aa 60be 17de 2ebd 8470 c13d f966 cfbd
00000140: ceca 41be ab1a b3bd 7372 be3c cbb9 8ebd
00000150: d94d debd 556f 3e3d 8e97 9a3c 68b3 ecbc
00000160: 660d 2d3d 11db 1ebd 5bf3 adbd d0fc d13c
00000170: a19e 2bbe c03f 6cbd ab5d 693d cdaf ee3c
00000180: 8e89 20be df62 65bc 89ce 0ebe c71c fcbd
00000190: 6c2b 23be 8dce 7b3d b70b 45bd 0f2e 13bd
000001a0: 74d4 8fbd 9abf 1cbc faf2 bc3b 85c8 debd
000001b0: 3d99 ab3d 1df5 c33d 0670 1a3d 5b9d 003d
000001c0: c3af 34be b528 2dbd c26f 0ebb 32e3 f73d
000001d0: 1cef 433d 5c98 e4bc 2396 8d3c 30c3 dcbd
000001e0: 0166 573c 0a8a 46be e8c3 953d 8831 39bd
000001f0: a8dc 79bd 515a 00bd 511e 06be 458a 0fbe
00000200: cdfa c33d eb59 f53d b672 7fbd aee1 273e
00000210: 486c cabc 3fcb 32bc f35f 0dbe 282a 0fbd
00000220: 5ad8 1b3d a7b4 0f3d abb1 b8bd e849 10be
00000230: 021c 893c c6ec 203d 5d96 6f3b e360 dc3c
00000240: f139 c53c 2e70 2abe 4ebb efbd a4be f73b
00000250: 349e 55ba c937 9437 a22d 07be a869 ffbd
00000260: 3d2c 84bd 9c6d 26bc 1963 dd39 3fd3 ce3d
00000270: b67a f9bc d44c 093d 3f91 243b 3d5f 34bc
00000280: 0310 9c3b 66d8 65bd 6998 ff3d 20a5 a6bd
00000290: 0e53 563c 1646 b53d 6bca a7bd 80e2 1fbd
000002a0: 6f59 fbbc 8b4b 723d 99a7 413e 4958 763b
000002b0: 3175 133e 1dd9 483c 7509 6b3d e41d 89bd
000002c0: 5717 21bd 7d00 533d acc3 7e3d a426 fdbd
000002d0: c2a0 d73b 8e45 063d bf4b 003d c1d0 7e3d
000002e0: 4804 1a3e 3925 5ebc 47d6 ec3b a0ae eabd
000002f0: 7be5 febd c35b 03bd 8542 4b3e ffe9 56bd
00000300: 06be 93bd 1cbf 5e3d 84c7 cc3c 557b b93d
00000310: 246d 4cbe a185 bf3b 617b 43be 7d85 133e
00000320: 11c1 e9bd 9f73 a93d d865 c8bd 3422 f43c
00000330: 7ddd 77bc 2858 fabc c7c0 e73b 5040 8c3d
00000340: 192a 17be 4037 293d 996a c6bd 45eb 53be
00000350: 65f6 1dbe 416f 3abd 3a7a 11be 5e4f 26bd
00000360: ae6c 8e3d 5993 38be 230d 073d 1aaf ecbd
00000370: da7a 02be 6e4e afbd a510 443d 6651 85bd
00000380: 96b2 43be 45f1 12be fb36 25be c48e 04be
00000390: 1601 26bd 971f d9bd 57b4 65bc 1248 1bbe
000003a0: 9e33 cebd 03ff ffbc fa89 46be 02ee e2ba
000003b0: d6cc 0abe 3a3f 8a3d 1003 d13c 5980 423d
000003c0: 4954 85bc dfc5 703d 90c3 0fbe c700 b5bc
000003d0: 78db 993d 742c c7bd 4123 3ebc f0db aebd
000003e0: 51a9 b93d 6bb2 d4bd 3899 843d 8ec2 e9bd
000003f0: e9f6 09be 6a93 de3d 0df7 a13d 0fac 7b3c
0.03189047 -0.023500768 -0.15247025 0.022683626 -0.10789553 -0.062682696 -0.21789162 -0.0018725516
-0.12488339 -0.13012888 -0.022340277 -0.03158504 -0.17802069 -0.0672111 0.06975867 0.09255788
-0.21878591 -0.121004365 -0.11126734 -0.14769593 0.05631921 -0.10638175 -0.08412261 -3.6053916e-05
0.044000614 -0.11695167 0.048182495 -0.09378385 -0.22976014 0.04300107 -0.101623885 -0.18548341
-0.19976452 -0.10103602 -0.13492082 -0.15763865 -0.10359112 -0.083346635 -0.13243102 -0.06772981
0.13392764 0.023277076 -0.034388114 0.0063926186 -0.14969663 0.009752416 -0.03483625 0.02635535
-0.13553265 0.044629432 0.035812907 -0.115764566 0.0749763 -0.18196772 0.04044927 -0.0050337664
-0.13556424 -0.26029435 -0.010171361 -0.06972625 -0.019215433 -0.08701159 0.048408907 0.012344446
0.087078996 0.053365935 0.005024919 -0.01831409 -0.028689183 -0.030057503 -0.18670057 0.09921264
0.09404512 0.028225036 0.041803826 0.0714608 -0.2193993 -0.04269227 0.09445289 -0.10127062
-0.1892502 -0.08745321 0.023247933 -0.06969031 -0.10854692 0.046492893 0.018871095 -0.028894141
0.042249106 -0.038783137 -0.08493682 0.025633246 -0.16759731 -0.057677984 0.056974094 0.029136563
-0.15677473 -0.0140006235 -0.13945974 -0.12310176 -0.15934533 0.06147628 -0.048106875 -0.035932597
-0.07022944 -0.009567166 0.0057662698 -0.1087809 0.08378837 0.09568236 0.03770449 0.031400066
-0.17645173 -0.04227515 -0.0021734093 0.12103881 0.047835454 -0.027904682 0.017283505 -0.107794166
0.013146878 -0.19388595 0.07312757 -0.045213252 -0.06100145 -0.031336132 -0.13097502 -0.1401759
0.09569321 0.11980041 -0.062365256 0.16394684 -0.024709836 -0.010912715 -0.13806133 -0.034952313
0.038048126 0.035084393 -0.090182625 -0.14090693 0.016736988 0.039288305 0.003655813 0.026901668
0.02407548 -0.16644356 -0.117056474 0.007560568 -0.0008148879 1.7668952e-05 -0.13201001 -0.12471324
-0.0645375 -0.010157969 0.00042226238 0.10098886 -0.030454021 0.033520535 0.0025110987 -0.011009035
0.004762651 -0.056114577 0.12480242 -0.08136964 0.013081325 0.088512585 -0.08192905 -0.039034367
-0.030682294 0.059154075 0.1891159 0.0037589243 0.14400174 0.012258795 0.057382066 -0.06695154
-0.0393289 0.051514138 0.062198326 -0.12360886 0.006580443 0.032781176 0.031322237 0.062210802
0.15040696 -0.013558679 0.0072276923 -0.11459088 -0.12446114 -0.032069933 0.19849594 -0.05246925
-0.072139785 0.054381475 0.02499748 0.09056727 -0.19963509 0.005844787 -0.19090034 0.1440639
-0.114137776 0.08274006 -0.0978505 0.029801466 -0.0151284905 -0.030559614 0.0070725414 0.06848204
-0.14762153 0.041312456 -0.09688301 -0.20695217 -0.15426023 -0.045516256 -0.14206782 -0.040603034
0.06954323 -0.18024959 0.032971513 -0.115568355 -0.12742177 -0.08559881 0.047867436 -0.06509666
-0.19111094 -0.1434985 -0.16134255 -0.12945086 -0.04052838 -0.106017284 -0.014020047 -0.15164211
-0.10068439 -0.031249529 -0.19388571 -0.0017313363 -0.13554701 0.06750341 0.025514156 0.047485683
-0.016275542 0.058782455 -0.14039445 -0.022095097 0.075125635 -0.09725276 -0.011605085 -0.085380435
0.09065498 -0.10385593 0.06474537 -0.114140615 -0.13473095 0.10867961 0.07908449 0.015360846

rnn.bias_hh_l0 f4 [256]
00000000: 9e9a 0fbe d3d2 11bd 7e3c 3c3d 7e01 dabd
00000010: 0a6a 38bd 7dca ecbd 55a8 6bbd 8037 87bd
00000020: 88a2 e2bd 6ac7 1fbd 7d92 05be 15bb 37be
00000030: e271 1ebe 3ed9 23be 8bf1 443d 72c9 8ebc
00000040: 6057 5abe ba45 313d ba5f 20bc 79c0 44be
00000050: 99fc 823d 40a9 b0bd 7cf7 f63c b94a a8bd
00000060: 6e63 f23c dbdb 32be b9f3 3ebd 58e7 c13c
00000070: 7dd8 83be 8943 13bc 1e94 06bd 22f5 0bbe
00000080: bb24 32be b982 263d a7bb 10bd 5228 5cbe
00000090: 7f34 57be bb6d d5bd 1896 093d 04da 543d
000000a0: 54f1 803d 9ce8 acbd 7ebe 83bd d7f4 9e3c
000000b0: 37d5 0bbd d56a 0ebd e24b 27bd 7606 443d
000000c0: 144b 00be 21a6 1d3d 81e6 0a3d bf9b d8bd
000000d0: a2cf 94bc 95c6 323d f769 18be fe49 c7bd
000000e0: f640 293d 6c1b 72bd 8ef4 aa3d 06ed 46be
000000f0: bbc6 42bd a1db 88bc 57a0 3fbd 74e1 8a3d
00000100: 2072 b5bd fa08 0cbe 38ee 92bd d668 6a3d
00000110: 8b7b 08bd 4fba ff3d 2010 0bbd 24af ae3c
00000120: db52 dfbc ca03 0cbe d751 1ebe 1d48 95bb
00000130: f71d 883c 7c41 d5bb 3829 49bd 7ca0 c9bd
00000140: 507e 16be fb37 1d3e db16 d5bd ed11 5fbe
00000150: 81b3 5a3d dfb2 c5bc 84cf 00be a150 c6bd
00000160: 05b2 213d c53f afbc e3df 9b3c a1ae 3dbe
00000170: 5a83 9fbe 1789 e5bd ec77 f0ba 500c 9d3c
00000180: fd5c 3dbe 04d0 d83c 358a 073c 7188 9abd
00000190: 30d1 24be 5046 a8bc f6f8 82bb f227 86bd
000001a0: 1103 c33d 7aab 61bd fd75 dbbd 397b 63bd
000001b0: d203 6c3d cfbb b33c 165a 31bd acdb 07be
000001c0: c49a f2bd 3990 33bd c822 c93c 3858 94bc
000001d0: 13c9 2cbe d7c5 9d3c 982d d3bd cea6 033d
000001e0: 4871 25be e416 20be bba2 be3b 34dc a1bd
000001f0: 8c46 38bd 2fbd f3bd 3ca6 873d 086a 02be
00000200: b156 d43d e36a 4fbb faf1 84bd d58a e4bc
00000210: bc31 513d ba56 15be 6ce1 cf3b 598b 45bd
00000220: fd4b 34be 7a65 d5bc f64a 213d 33d0 b53d
00000230: bf75 aa3d 9643 f5bc 797c e23d 9c55 37bd
00000240: 409e 18bd bfd1 ba3b e616 aabc 8310 3dbd
00000250: ac66 37bd 12d5 0bbe 94ca 2dbd 0cab 11bd
00000260: 42ff 00bd 618b 0f3e b243 a03b 75b0 08bc
00000270: 6597 893d dbf3 32bb ecd9 b0bd 7af4 69bd
00000280: f5a0 d4bd d0ab 0a3d fe64 fe3b 0594 04bd
00000290: 08e2 13bc 2b45 00be 9805 7f3c b986 cfba
000002a0: 970b c4bc f650 b93c 8d31 963c 102a febd
000002b0: d153 c5bb 2e35 9f3d 4da0 19be c259 fcbd
000002c0: 3feb 50bd 2ee1 f2bc 7967 0d3d fe42 bd3c
000002d0: f56a eebd ea5d 0fbe db35 fc3d f242 253c
000002e0: 26ea d93a 763b 85bd 8b47 e93d 9f1d 063d
000002f0: c64e 423d e704 3a3d 10e2 9abb 9358 17bd
00000300: a5b9 8b3b bae9 29bd f353 b7bd 2ad0 ecbd
00000310: b99f b2bd 8f48 d53d 1268 7fbe 9d0d c7bd
00000320: c420 eebc 9f33 60bc ca17 ffbd c273 17bd
00000330: bc0d 35be 6c4d e4ba 687a a6bd ec4c b53d
00000340: 4de9 bbbd b463 9b3c 2525 39bd 6e58 babd
00000350: 6a7c eabd 1d19 473d 198c 06bd e29f 103d
00000360: 129e 46bd 24de e8bd 0d6e 2c3d 2cda dfbd
00000370: e545 3bbe 00f4 153b 2b84 873c c233 c7bd
00000380: a943 90bd 58d6 04be 3e61 223d d713 0dbe
00000390: 2a7d 24ba 6b2c b63d f2b0 8ebd ca5f dcbd
000003a0: 6503 41bd 1ecd 02bd 3d8c febd c5ef abbd
000003b0: 741e 31bc 33c7 51bb b0da f5bb 14b4 283d
000003c0: 20b6 88bc 0726 f5bd d1c8 ebbc 44ea 00be
000003d0: bf76 08bd 1ca9 8c3d d132 06be 20d8 7cbb
000003e0: 743a 6fbd 4b39 51be 814e ab3c 70cf 35be
000003f0: 8103 c73d 3399 ecbd 5dc7 a03c 8c93 3b3e
-0.14023826 -0.03560145 0.045956127 -0.10644816 -0.045023 -0.11562059 -0.05753358 -0.06602383
-0.110661566 -0.039008535 -0.13044162 -0.1794246 -0.1547313 -0.1600084 0.048081916 -0.017430041
-0.21322393 0.043279387 -0.009788448 -0.19214047 0.063958354 -0.08626032 0.030147307 -0.08217377
0.029588427 -0.1746668 -0.04661915 0.023669884 -0.25751105 -0.00898827 -0.0328561 -0.1366773
-0.17396824 0.04065201 -0.03533521 -0.21499756 -0.2101612 -0.1042132 0.033590406 0.05196573
0.0629603 -0.08442804 -0.06432818 0.019403858 -0.034138884 -0.03476985 -0.040843852 0.047857724
-0.1252864 0.03848851 0.033911232 -0.10576581 -0.018165413 0.043646414 -0.14884172 -0.0973091
0.041321717 -0.059108183 0.08347426 -0.19426355 -0.047552805 -0.01670629 -0.04678377 0.06781283
-0.08859658 -0.136753 -0.07174343 0.057228886 -0.033320945 0.124867074 -0.033950925 0.021323748
-0.027261188 -0.1367332 -0.15460907 -0.0045557157 0.01661585 -0.0065080505 -0.049111575 -0.09845063
-0.14696622 0.15353386 -0.1040475 -0.21784182 0.053393845 -0.024133144 -0.12579161 -0.096833475
0.039476413 -0.021392712 0.019027656 -0.18523647 -0.311549 -0.112077884 -0.0018346286 0.01917091
-0.18492503 0.026466377 0.008272697 -0.075455554 -0.16095424 -0.02054134 -0.0039969636 -0.06550588
0.09522069 -0.055095173 -0.10715864 -0.055537436 0.05762083 0.02194014 -0.043298803 -0.13267392
-0.118459255 -0.043838713 0.024552718 -0.018108472 -0.16873579 0.019259376 -0.10311431 0.0321415
-0.16156495 -0.15633732 0.005817739 -0.079033285 -0.044989154 -0.11901318 0.066235036 -0.1273576
0.103680976 -0.0031649403 -0.06491466 -0.027898232 0.05107282 -0.14583865 0.006344011 -0.048228595
-0.17607112 -0.026049364 0.03937813 0.088776015 0.083232395 -0.029939454 0.110588975 -0.044759378
-0.037260294 0.005701273 -0.020762872 -0.046158325 -0.04477565 -0.13655499 -0.04242952 -0.035563514
-0.031493433 0.14018013 0.0048908824 -0.008342852 0.06718329 -0.0027305994 -0.08635315 -0.057117917
-0.103822626 0.03385526 0.007763504 -0.032367725 -0.009026058 -0.12526385 0.0155652985 -0.0015832997
-0.023931308 0.022621613 0.018334175 -0.124103665 -0.0060219546 0.07773815 -0.15002556 -0.123218074
-0.0510056 -0.02964839 0.034522507 0.023103233 -0.11641494 -0.14000669 0.123149596 0.010086762
0.0016625568 -0.06505482 0.11390599 0.032743093 0.047438405 0.04541483 -0.004726656 -0.036949705
0.004264074 -0.041482665 -0.08951559 -0.11563142 -0.08721871 0.1041423 -0.24942043 -0.097193934
-0.029068358 -0.013684182 -0.12455709 -0.03697563 -0.1768102 -0.0017418093 -0.08128816 0.08852562
-0.09175358 0.01896844 -0.04520144 -0.09098898 -0.11449511 0.048607934 -0.03284845 0.035308726
-0.04849059 -0.11370495 0.04209714 -0.10930285 -0.18288381 0.002288103 0.016542515 -0.09726669
-0.07044155 -0.1297239 0.03964352 -0.137771 -0.00062747544 0.08895191 -0.069673434 -0.10760458
-0.047122378 -0.031933896 -0.12429092 -0.08395342 -0.010810483 -0.00320096 -0.007502876 0.04118736
-0.016688406 -0.11970144 -0.02878228 -0.12589365 -0.03331637 0.068681926 -0.13105322 -0.003858097
-0.058405355 -0.20432012 0.020911457 -0.17754912 0.09717465 -0.11552658 0.019626314 0.18318003

rnn.weight_ih_l1 f4 [256, 64]
00000000: c742 c2bd 22b3 12bd cd1d 1dbe cd99 c03b
00000010: f865 0a3e 40a7 bcbd a3ae f93d 0153 753d
00000020: 651b 4ebc 71ff 48bc c6fc b83d 0f49 a1bd
00000030: 7edc 993b ba03 fdbd 644c 313e e4b9 0fbd
00000040: 0397 b4bc 750d e53d 40b4 e43d f0f1 51be
00000050: 82ed eabc 56fd d53d 51ed 943d ad09 e93c
00000060: 710c 13be 9a66 8b3c 392f fdbd 463a 1abc
00000070: bbc1 873d d138 fa3d 1d99 4ebe adef 363e
00000080: e0df 5b3c e7d5 c63c be6e 17be e144 ba3d
00000090: 45bb 133d 4ccd 62bd 9834 25bd 1c1f f4bc
000000a0: 880a 613e 7cc9 fcbd d59a dbbd 27c8 fdbc
000000b0: b193 4abc 5014 d43d bc05 01be b576 6f3d
000000c0: 02c4 dabd d941 4bbc c1e6 8b3d 8a84 53bd
000000d0: 37b3 09be 1450 003e 3d63 79bc 1de6 f53d
000000e0: e2a2 b4bd 8e90 ecbd 3248 8a3d 5f45 3e3d
000000f0: 51fc 32bd 3eb8 bebd 6152 f23c 599b debb
00000100: 1a73 d7bd b1db 94bc f9ce d6bc cc9f 1fbd
00000110: 3100 813d d4c9 8ebd e35b 21bd 32d4 a83d
00000120: 5a12 ed3d 08f3 2a3d ed4c b73d 6729 393e
00000130: 7282 143e 4efc 0cbe 156d e3bd 7020 10be
00000140: 9727 3f3e 25db 3a3e 164f 0dbe 58f4 32bd
00000150: b957 ed3d b3c8 633d 9688 033e 6484 003e
00000160: e261 4d3e e008 88be 56ac 223d 48bb 0b3e
00000170: dbbe 583c 47b1 b93d ef6c 7f3d 9bdc c43d
00000180: 16e2 453b 3e0b 85bd adcc 5dbe cf57 df3b
00000190: 874a 243d ee7d f63d f5d9 943c 5818 4fbd
000001a0: 3aa1 45bc bfe1 22be c3bc 1fbe a386 b63d
000001b0: 0a5c efbc 373c b6bd c00a 63bc 1f32 373e
000001c0: 27a7 093e 4139 e9bd eec5 6ebc fd57 ccbd
000001d0: 1244 643d 3b3c b43d ca54 9bbc 52fb bcbd
000001e0: ca19 2bbe 6cb9 453d de20 133d bd59 24bd
000001f0: 749b c33d dd07 0abe 939c f9bd 7e66 5c3d
00000200: dabe 42be bec5 8abc 8cfc f53d a70f ed3d
00000210: 3be7 413d c5ba aa3d cba5 10bd df14 0dbe
00000220: 0364 7dbc e5a1 1e3e e054 133c c046 b93d
00000230: 2ca2 52bc ca5b 64be ee06 c4bd a237 d1bd
00000240: b3fe 4d3e 0ddd 403e 4055 8cbd 5035 3ebe
00000250: ba41 0fbd 2043 8a3d a272 2c3e ef37 1d3e
00000260: 252a 3e3d 92b9 81be b673 22be 514d a5bd
00000270: 769e 483e 30d6 d73c 2521 6cbd 37db a33d
00000280: c103 3c3c f72f 76be 3d05 e3bd 2ff1 afbc
00000290: 34f0 0dbd 8a0e 383e ca83 033e 2bc4 4f3e
000002a0: 56a9 8b3d 28a9 38be 0e28 1abe 2461 4ebd
000002b0: 6c35 0cbc b9c9 d63d 9ca5 3dbd dfde 863d
000002c0: 7ab8 f63b 4526 3b3d b8fd 113e 7303 cb3d
000002d0: a2c9 e3bd a94c 0e3e 79bc 843d aa3a 033e
000002e0: 0aa1 bebc 07a8 683d 10ac 6abd 3bce 223e
000002f0: b608 37be 9bfe 8fbe 0dc4 0fbe 468f 033e
00000300: b501 57be 8c26 713d 2381 9e3d f1b1 86bc
00000310: 7700 43bd 9ed4 0abe 989b d0bc ce96 c3bd
00000320: 126d c03d 77d2 aa3d 45a3 003e f502 c13d
00000330: b8da b0bd 77b1 6a3d 1e83 0ebd 48f2 923c
00000340: 19c0 0d3c 44c7 02bd 324e e93c 918d a93c
00000350: e466 c43d 48ea 14bd 15bb 663d 7fce c3bd
00000360: 208c c8bd e788 23be 997d b7bd aefa 0fbe
00000370: 3e02 163d cfa8 fa3d b68c b33b 66f5 173e
00000380: c608 303d e4bf cdbd c27e ea3b 85a0 d03d
00000390: d9dc aebc 259c d63b b580 e03d 3745 263e
000003a0: 24eb 4e3e 69a4 42be 318c c3bd bb31 523e
000003b0: 13dd 7dbd ac77 be3d 962b 013e 8c4d e93d
000003c0: 2e12 7d3e 4d93 a6bb b82e 633d 1ecc 8d3d
000003d0: 5708 8c3d 87d2 2cbd c7cd ef3d 7253 323e
000003e0: aafc 4e3c 6ae9 2dbe bf52 253d e91f 263e
000003f0: 3aff 49bd ca66 d2bd 2d0e 66bd 1587 c23d
-0.09485393 -0.035815366 -0.153434 0.0058777095 0.1351546 -0.09211588 0.121915124 0.05989361
-0.012579774 -0.012267933 0.09032588 -0.07875263 0.004695474 -0.123542264 0.17314297 -0.03508939
-0.022044664 0.11184207 0.111671925 -0.20502448 -0.028677706 0.104487106 0.07271827 0.028446997
-0.14360215 0.017016698 -0.12362523 -0.0094133075 0.06628748 0.12217868 -0.20175596 0.17864867
0.013420075 0.024271918 -0.14788339 0.09095169 0.036067266 -0.055371568 -0.04033336 -0.02979999
0.21976674 -0.123431176 -0.10722891 -0.03097923 -0.012364314 0.10355437 -0.12599844 0.058462817
-0.10681917 -0.012405836 0.06831122 -0.05164007 -0.13447271 0.12530547 -0.015221414 0.12006781
-0.0882013 -0.11551009 0.067520514 0.046452876 -0.04369766 -0.09312485 0.029580297 -0.006793421
-0.10520001 -0.018171163 -0.02622174 -0.038970754 0.06298865 -0.069720894 -0.03939427 0.08243598
0.11575766 0.04173568 0.08950219 0.180822 0.14502886 -0.13768122 -0.1110479 -0.14074874
0.18667446 0.1824766 -0.137997 -0.043690056 0.115889974 0.055611324 0.12845072 0.12550503
0.2005687 -0.2656927 0.039715134 0.13645661 0.013229097 0.09067016 0.062359747 0.0961239
0.0030194572 -0.06496285 -0.21660109 0.0068158875 0.040110137 0.12035738 0.018170336 -0.050560325
-0.012062365 -0.15906428 -0.1559935 0.08912399 -0.029218692 -0.08898204 -0.0138575435 0.17890213
0.1344267 -0.113878734 -0.014573557 -0.0997772 0.05572898 0.088005506 -0.018961329 -0.09227623
-0.16709056 0.048272535 0.035920016 -0.040124644 0.09551135 -0.13479562 -0.12188067 0.05380868
-0.19018117 -0.016939994 0.1201106 0.11575251 0.04733966 0.08336405 -0.035314362 -0.13777493
-0.015465739 0.15491445 0.008992404 0.090466976 -0.012856048 -0.2230064 -0.09571634 -0.10215689
0.20116691 0.18834324 -0.06852198 -0.18575025 -0.03497479 0.06751084 0.16840604 0.15353368
0.04642691 -0.2533689 -0.15864453 -0.080713876 0.19591698 0.02634725 -0.057648797 0.08000796
0.011475504 -0.24041735 -0.110849835 -0.02147731 -0.034652904 0.17974296 0.12843242 0.20289676
0.06819408 -0.18033278 -0.15054342 -0.05038561 -0.008557659 0.10487694 -0.046300516 0.06585478
0.0075293155 0.045690794 0.14256942 0.09912767 -0.11122443 0.13896431 0.06481261 0.12815347
-0.023270149 0.05680087 -0.057292998 0.15898983 -0.17874417 -0.28123936 -0.14039631 0.12847623
-0.20996745 0.05887465 0.077394746 -0.016442271 -0.047607865 -0.1355767 -0.025464818 -0.09550248
0.093958035 0.08340924 0.12562282 0.09424392 -0.08635467 0.05729815 -0.03479301 0.017937794
0.008651757 -0.031928316 0.02847967 0.020697387 0.09589937 -0.03635624 0.05633076 -0.095608704
-0.09792352 -0.15970193 -0.08959503 -0.1406047 0.036623232 0.12239229 0.0054794205 0.14839706
0.042977117 -0.10046366 0.007156224 0.10186867 -0.021345543 0.0065493756 0.10962049 0.16237341
0.20206887 -0.1900803 -0.09548224 0.20526783 -0.06197841 0.09300169 0.12614283 0.11391744
0.24713966 -0.0050834776 0.055464476 0.06923698 0.06837528 -0.042192962 0.11709171 0.17414644
0.012633482 -0.16983572 0.040362116 0.1622311 -0.04931567 -0.10273512 -0.056165863 0.09498421

rnn.weight_hh_l1 f4 [256, 64]
00000000: b8aa ee3d 93fb 363c f019 16bb 1831 833c
00000010: 09d1 a1bd 4667 103e 57d8 cebc 1365 3fbd
00000020: 93cd dbbd 25f8 1ebe 1392 58bd c7fb 66bd
00000030: dd12 1cbb 9cc3 ff3d d481 053e 2d11 dd3d
00000040: 0309 883c b390 22be 7375 0ebe 4a35 f3bd
00000050: b293 fa3d c8c4 29be e7aa e5bd e42c 033e
00000060: 1837 b8bd 5896 a0bd 8328 0bbe 81be 44bd
00000070: 2413 b03d 6369 9e3d a4bd 9cbd fbc3 cb3c
00000080: 2060 f4bd 880e 2f3d afcc 233d a494 fcbd
00000090: 3a64 cb3d f4fb bdbd 19a7 0cbd 8bd9 de3d
000000a0: 95e9 04be 7e22 233e 017a 8b3d dfe8 aebd
000000b0: f8a0 efbd cb9e 22bd f25e 01be 2289 cabd
000000c0: 5465 1abd b829 9ebd 7272 f2bd f929 a83d
000000d0: 2e8b d5bd ca8f 17bd 6c83 c53d 33f1 32bc
000000e0: 1559 14be dded bb3d 3966 0fbe 70a8 8fbd
000000f0: 3c63 493e a903 353e 7905 89bd 9e5c b93c
00000100: acae c33c 62b6 e43c 3108 8d3c a54e dcbc
00000110: 9e7c 1b3d c268 ef3c 741e ec3d 237b 693d
00000120: 52cf 1fbe 4330 823d 3f7a de3d e340 e8bc
00000130: c97c 9fbd b4c4 e9bd 65d0 e2bd 6fde e2bd
00000140: 0c8d 52bc a4d1 383d 91a6 92bd 47b4 54bd
00000150: 6030 95bd 8a81 cd3c c3a8 a13d d859 c4bb
00000160: ed09 e2bc 307e 523c b789 88bd 1c2b 81bc
00000170: fa2a e23d e572 05be 8dfb ca3d c0ba ce3d
00000180: 26fd 88bb 6351 57bd fdef 5a3c 1255 b6bc
00000190: e94d fc3a 1f87 023e d9d9 e8bd 2c57 08be
000001a0: a7a8 293e 84f0 1abd 47fd 49be 5c8f 6f3e
000001b0: ec06 913d 5f44 653d 053f d23d 96f9 9bbc
000001c0: 3a7a f03d 55f8 4a3d 4a90 713d 8e0b 85bc
000001d0: bb93 65bd 277d 13bc 1065 283d 41a6 38bd
000001e0: 5dc7 ecbd 2b2c 963d f527 d13d 67c7 193e
000001f0: d9d5 e4bd 9897 ff3d 14c0 95bd 2343 a4bd
00000200: 85e6 733d c3e7 df3c 067a 55be cb0f 813c
00000210: 8672 ec3d 92ab 133e 079c 84bd 8bb3 523e
00000220: c78a 57be 4944 46be b5b1 0a3d de0d 3e3b
00000230: 9df2 4bbe 7153 573e 0a3c 493e 2232 083e
00000240: 3134 563d aed9 0abe 2fac 3dbe d37f 61bd
00000250: e2d9 353e 872f f6bd e269 1abe 87ef 453c
00000260: f122 633c 8201 ad3d 7fab 573d ba64 e7bd
00000270: 70f9 1fbd a5f0 b9bc 73bc 843d f826 093e
00000280: 197b 14be 7840 e03d 0149 773d 30ee 38be
00000290: 7ad3 673d d85e 4a39 7f0b e63d 9e69 463e
000002a0: 24cb d9bd 3acf 623e b448 af3d 72eb c9bd
000002b0: 24eb 57be 8e2a 5e3d 4a66 8bbd 2fa1 ccbd
000002c0: 17a4 9fba 1618 1cbe 8d2a 133d ca76 3c3e
000002d0: 0c3f 0dbe 481c 0f3e 04bc a7bd 703a 5d3e
000002e0: 5212 0abe c88b 65bc 4706 2bbe 8b9e 14bc
000002f0: 4f91 893e 2933 113d 7798 0e3e 1828 273e
00000300: 5724 02be ed73 f63d a21f 2fbd 62e6 f1bd
00000310: 1441 453d 4e82 bc3c 5b42 693b d2fb fe3d
00000320: 841f 09be 82cd d1bd 8aa1 13be 35fb e5bd
00000330: 3cd5 5abe d5b3 103e 2e45 403e 5883 b53c
00000340: c3eb 023e 26b3 18be 9c31 d53c 4566 dabc
00000350: 6bf6 4f3d 4606 95bd 9990 183d 8729 fd3d
00000360: 7a93 3fbe 4b00 acbd 4e5d 1b3d 1982 cb3c
00000370: f1e0 60bd 5192 2dbe c4c4 21bd 3e7f a83c
00000380: 93e3 483d b01f 573d 2844 af3b 7b93 5ebd
00000390: 1407 123e 2157 f5bd 95e7 cebd 7500 593d
000003a0: 4dcf 44ba 661d 243e 4f71 183e 787d 2d3d
000003b0: a38b 66be 0e06 5a3e 8fa1 1abe 1e89 7dbd
000003c0: c85a 85bd 3b9f d63c 010c d63b 6e31 9dbd
000003d0: bfd5 51bd e959 3a3c 7c6e 603e 0ca5 f03c
000003e0: dcb8 14bd de99 943d b0b4 e5bd 5412 7fbc
000003f0: 67e7 d53d 3466 2d3c 54eb a93d 64d5 a83d
0.11653656 0.011168378 -0.0022903644 0.01601462 -0.079011984 0.14101896 -0.025249643 -0.04672725
-0.107325695 -0.15524347 -0.052873682 -0.056392457 -0.0023814954 0.124884814 0.13037807 0.10794292
0.01660586 -0.15875511 -0.13911991 -0.118753985 0.12235202 -0.16578972 -0.11214238 0.12810093
-0.08994883 -0.07841176 -0.13589673 -0.04803324 0.08597401 0.07734945 -0.076533586 0.024873724
-0.11932397 0.042738467 0.039990123 -0.123330384 0.09931226 -0.09276572 -0.034339044 0.10881337
-0.1297973 0.15931126 0.0681038 -0.085405104 -0.11700624 -0.039702218 -0.12633875 -0.09889437
-0.03769429 -0.07722801 -0.11838235 0.08211131 -0.10426937 -0.037002362 0.09644207 -0.010921764
-0.14487107 0.09176228 -0.14003839 -0.07014549 0.19666761 0.17677177 -0.06690497 0.022627171
0.023887001 0.027918998 0.01721582 -0.02689297 0.03796064 0.029224757 0.11529246 0.057002198
-0.1560643 0.063568614 0.1086316 -0.028351253 -0.07787473 -0.11414471 -0.11074904 -0.11077582
-0.012851011 0.045121804 -0.07160676 -0.05192974 -0.072846174 0.025086183 0.07893517 -0.0059921555
-0.027592624 0.012847468 -0.06666892 -0.015767626 0.110433534 -0.1303211 0.09911261 0.100942135
-0.0041805683 -0.05256785 0.013362882 -0.022257362 0.0019249293 0.12746857 -0.11369676 -0.13314503
0.16568242 -0.03782703 -0.19725524 0.23394531 0.07081398 0.055973407 0.10265926 -0.01903991
0.11742063 0.049553234 0.058975495 -0.016240861 -0.05604909 -0.009002007 0.041112006 -0.045080427
-0.11561463 0.07332643 0.10212699 0.15017472 -0.11173601 0.12480086 -0.073120266 -0.08020618
0.059546012 0.027332192 -0.2084733 0.015754601 0.11545281 0.14420918 -0.06475072 0.20576303
-0.21049033 -0.19361986 0.03386088 0.0028999965 -0.19916768 0.21027924 0.1965181 0.13300374
0.052295867 -0.135596 -0.18522714 -0.055053543 0.17758897 -0.12020784 -0.15079454 0.012081034
0.013863311 0.08447553 0.052653786 -0.11298509 -0.03905624 -0.022697756 0.06481256 0.13393772
-0.14500083 0.109497964 0.060372356 -0.18059611 0.056598164 0.00019299553 0.112326615 0.19376227
-0.10634449 0.22149363 0.08558789 -0.09859361 -0.21085793 0.054239802 -0.068066195 -0.09991681
-0.001217964 -0.15243563 0.03592925 0.1840469 -0.13793582 0.13975632 -0.08190158 0.21604323
-0.13483551 -0.014010377 -0.16701613 -0.009071003 0.26868674 0.03544918 0.13925348 0.16323888
-0.12709175 0.1203383 -0.042754777 -0.1181152 0.048157766 0.023011353 0.003559253 0.12450375
-0.13390929 -0.10244276 -0.14417091 -0.112295546 -0.21370405 0.141311 0.1877639 0.022157356
0.12785248 -0.1491209 0.026024632 -0.026660094 0.050772112 -0.07276587 0.037247274 0.12361436
-0.18708602 -0.083984934 0.03793078 0.024842309 -0.05490202 -0.16950347 -0.03949429 0.020568486
0.049045157 0.052520454 0.005348701 -0.054339867 0.14260513 -0.11979509 -0.101027645 0.05297895
-0.0007507697 0.1602684 0.14886974 0.042355984 -0.22514205 0.21291372 -0.15100692 -0.061898343
-0.06511456 0.026198974 0.0065321927 -0.076754436 -0.051229235 0.011373975 0.21917146 0.029375575
-0.03630911 0.0725591 -0.11216104 -0.015568335 0.10444527 0.010583449 0.082968384 0.08243826

rnn.bias_ih_l1 f4 [256]
00000000: fcd5 643c e00d 09bc dfed 73bd 57db c8bc
00000010: 65cc f8bd b013 2b3d 8dd7 15be de66 f3bb
00000020: 450a 8fbd d8ae 3bbd 9082 6fbe 4298 423d
00000030: c10b c93d c556 1ebe 93ca 83bc 0721 dabd
00000040: 3cee 363d 4d92 35be ef16 59bc 4a89 553c
00000050: ca1f 1ebe f9cb a9bd f352 fcbd a936 393b
00000060: d909 cabd 8d6c 483d 1bc6 29bd 2129 543c
00000070: 0812 4c3c 606a 65bd 78a2 f9bd b733 5abe
00000080: 0532 483c e1ca 6ebc 94f3 293d 3f9e b8bd
00000090: 493d 60bd facd 1cbd 8406 e9bd e6d8 d03c
000000a0: 978f ba3c 4fca 183d aa7f d2bc 908d fabc
000000b0: 8692 26be fcb4 1cbe e50c 933c ba39 943d
000000c0: b9c6 eb3c d6fe 03be 9114 64bd ee79 4cbd
000000d0: cee4 33be 9810 33bd 72f4 e5bd 7f83 4dbe
000000e0: 15a5 653d d3d4 1cbe fc13 1ebe d57e 15bc
000000f0: a925 4ebe 2317 34be 3468 a2bc 7c45 1cbe
00000100: fe4e afbd c73f cb3b 57f8 2dbd 57a3 14bd
00000110: 2ab0 6a3d 3b8e 0cbd cf31 01bd 9d3a 73bb
00000120: e7bb acbc e0a8 2dbe 3548 a1bd cae5 e5bd
00000130: 5000 93bd ecb6 493d 9905 5a3d 3b38 03be
00000140: 688d f3bd e407 b3bc 75a3 8cbd 00ec 2fbd
00000150: 3cb3 5bbd 3b1a 09bc 7801 623d 4c74 b13d
00000160: 4aaf babd 6c4c f7bd 7918 f4bc a4b9 953d
00000170: 0ca3 1dbe 35c7 a0bc c0f8 473d 0c04 85be
00000180: a927 483d 453b 6cbd 8119 0bbd c35d 22bd
00000190: 33c8 2d3d 7808 963c 2584 b23d 4b72 b33c
000001a0: f490 2e3d b06c b7bb 0584 b6bc 6747 2bbe
000001b0: 6904 0abe 52cf 65bd 5153 babd 3087 cb3d
000001c0: c460 7c3c be92 1dbe 58fa 15be eb49 413d
000001d0: 25a9 1bbe cdc5 25be 5bf7 9fbd a624 93bd
000001e0: fbdc ffbd e4b1 b6bb 6a26 42be 7883 713c
000001f0: 0dec 82be b84d b7bb 62ae 41be 11f9 4dbd
00000200: 5235 c8bd 4f10 be3c 7f10 b23d c04a 66bd
00000210: c9f5 c13c 55c2 1abd 708d 02be dfc3 2dbe
00000220: b52d c0bb fbb9 c4bd 5c14 7bbc 44e5 f73d
00000230: dd62 333e 4a2a 313d 94d7 323d c01d 9e3c
00000240: 69c0 07be 2272 ae3d 3601 043d 4471 b8bd
00000250: ac13 db3c 1c8f ab3b b7b7 dd3d 889c 3cbd
00000260: dfe6 3fbd dd99 56bb 1e9b a4bc 98fc bb3d
00000270: 80d3 ac3d 79d3 57bd 1383 89bd 422d 4dbd
00000280: 8206 083d 29d6 1dbe c04c 5fbb 870e 9e3d
00000290: b861 87bd ab22 4e3c d4e8 803d 1015 8c3c
000002a0: ba3a efbd d428 31bd 8a51 57bc 42d3 4bbd
000002b0: 8b39 e9bb e5ac 90bc 49e3 973d d59d 30bd
000002c0: 6be1 983d c2e4 0b3d e6e5 87bb e1ba 553c
000002d0: 013f 9fbd ed85 f3bc 36a3 e6bd f1c7 bcbc
000002e0: fd2f 943d 9f76 09be 4cae babd cc20 28bb
000002f0: 38fc d6b8 031c adbd 866b 39bd 474e 18bd
00000300: 73d3 eebc 8cc7 bbbb 8d17 14be 4fee 17be
00000310: 041f c5bd b367 14be 6267 26be ab9f 983d
00000320: 21bb f0bc 7727 d93c 4994 c7bd 4742 953c
00000330: 9043 03be f109 07bd 1bc9 f7bd ffb5 9bbc
00000340: f84e 1bbe d7d7 05be 7fd0 21be 6581 13be
00000350: 8d75 c3bd 78f8 eebd fdce cd3c 5bea d6bd
00000360: 3850 3abe fa6c e13d 39ab c1bd 6f21 01be
00000370: 26cc 18be b2d3 0bbe 5b2b 2cbd 00f2 d9bc
00000380: 4d49 0bbe bc3e 08be 9336 b03d 5369 cbbd
00000390: fd98 6ebd f419 04bd 67d7 29bd 7960 b3bd
000003a0: 339a a3bd 1257 843d e2d9 d9bb 480f c2bd
000003b0: d34f d53c 0a38 06be 1032 68bd 7452 e8bd
000003c0: 7af0 16be 6e00 1f3c 1c33 d9bd 2217 07bd
000003d0: 5755 6ebe c26c acbd bd03 dfbd 1fb4 5dbe
000003e0: 6f4e 04be f56d 32bd ff42 ee3c 7155 2d3d
000003f0: 40c5 50be 8818 58be 9e58 d0bd 7c7d 41be
0.0139670335 -0.008365124 -0.059553023 -0.024518652 -0.1214836 0.041766822 -0.14633007 -0.007428034
-0.06984381 -0.04582104 -0.2338965 0.047508486 0.09816695 -0.15462787 -0.016087806 -0.10650831
0.04466079 -0.1773159 -0.013250097 0.013033221 -0.15441814 -0.08290858 -0.12320509 0.002826134
-0.098651595 0.048931647 -0.041448694 0.012949259 0.012455471 -0.05600965 -0.121891916 -0.2130879
0.012218957 -0.014574737 0.04149206 -0.09014558 -0.054745946 -0.038282372 -0.11378196 0.02549405
0.022773547 0.03730231 -0.02569564 -0.03058508 -0.16266832 -0.15303415 0.017950485 0.07237573
0.028781282 -0.12890181 -0.055683676 -0.04992097 -0.17567751 -0.043716997 -0.11228265 -0.20069693
0.056065638 -0.15315561 -0.15437311 -0.009124477 -0.20131554 -0.17586951 -0.019825079 -0.15260881
-0.085599884 0.006202671 -0.042473163 -0.036288586 0.05729691 -0.03431533 -0.03154164 -0.0037113794
-0.021085693 -0.16958952 -0.078751005 -0.112254694 -0.07177794 0.049246714 0.053227995 -0.12814419
-0.118922055 -0.021854348 -0.068671145 -0.042949677 -0.053637728 -0.00836807 0.055177182 0.0866476
-0.09115465 -0.12075123 -0.029796826 0.07310799 -0.15394229 -0.01962624 0.04882121 -0.2597965
0.048865948 -0.05767371 -0.03395987 -0.0396402 0.042427253 0.018314585 0.08716611 0.021905085
0.042618707 -0.0055976734 -0.022279749 -0.16726457 -0.13478245 -0.05610592 -0.090979226 0.09937894
0.01540393 -0.15388009 -0.1464628 0.047189634 -0.15201242 -0.16188736 -0.07810851 -0.071847245
-0.124933206 -0.0055754054 -0.18959966 0.014740817 -0.25570717 -0.0055939816 -0.18914178 -0.050286356
-0.09775795 0.023201136 0.08694553 -0.05622363 0.02367677 -0.037782986 -0.12749267 -0.1696925
-0.0058648237 -0.096057855 -0.015324678 0.12104276 0.17518182 0.04325322 0.043662623 0.019301295
-0.13256992 0.08517863 0.032227717 -0.09005979 0.026742779 0.005235566 0.108260565 -0.046047717
-0.046851035 -0.0032745518 -0.020093497 0.09179038 0.08438778 -0.05269191 -0.067144535 -0.05009199
0.03320933 -0.15413727 -0.0034072846 0.077176146 -0.06610435 0.012581508 0.062944084 0.017099887
-0.11681123 -0.043251827 -0.013141999 -0.049762018 -0.0071174554 -0.017660568 0.07416398 -0.04311927
0.0746487 0.034153707 -0.004147279 0.013045044 -0.07775689 -0.029726947 -0.11261599 -0.023044558
0.072357155 -0.13424157 -0.09115276 -0.0025654314 -0.000102512946 -0.084526084 -0.045268558 -0.037184026
-0.029153561 -0.005730575 -0.14462109 -0.14837001 -0.096250564 -0.14492683 -0.16250375 0.07452329
-0.029386105 0.026508076 -0.0974508 0.01822008 -0.12818742 -0.032968465 -0.12098905 -0.019007681
-0.15166843 -0.13070618 -0.15802191 -0.14404829 -0.095439054 -0.116684854 0.025123114 -0.104939185
-0.18194664 0.11007114 -0.09456486 -0.1261041 -0.14921626 -0.13654974 -0.042033534 -0.026604652
-0.13602181 -0.13305181 0.08604159 -0.099321984 -0.05825137 -0.032251313 -0.04146519 -0.08758635
-0.079883955 0.0646192 -0.006648288 -0.09475571 0.02603904 -0.13107315 -0.05668837 -0.11343852
-0.14740172 0.009704692 -0.106054515 -0.032981046 -0.23274742 -0.084191814 -0.10889385 -0.21650742
-0.12920545 -0.043561894 0.02908468 0.04231781 -0.20387745 -0.21103108 -0.101731524 -0.18895525
