notebooks/best_model_v2_tp.pth (torch, 7056 bytes, 9 tensors)

rnn.weight_ih_l0 f4 [24, 31]
000000 5c 03 1b 40 34 5c 1f 3f 83 c3 56 bf 8c 9e 9f bf
       2.42208 0.62250066 -0.8389208 -1.247026
000010 1a a8 b3 3e fe a9 5b 3e 96 2e 8f bf 88 77 ac bf
       0.3508919 0.21451566 -1.1186092 -1.3473978
000020 cf 4a c6 bf eb f0 bb be 5d 0b ee 3f f8 b9 82 bf
       -1.549158 -0.36707243 1.8597218 -1.0213003
000030 ce 25 a3 bf ff 92 ee be 24 8f dc be c2 ee 45 3e
       -1.2745912 -0.46596524 -0.43077958 0.1932936
000040 c8 c1 37 be 47 02 f4 3e f7 ca 06 3f 2b 49 bb 3e
       -0.17945015 0.47657987 0.5265345 0.3657926
000050 6e 5b 46 be dc 33 f5 be 4e 31 8a bf 2e 73 3f bf
       -0.19370815 -0.47891128 -1.0796297 -0.74785125
000060 5b d1 d6 be 51 21 9b bd 27 55 7f be c7 fd 6e be
       -0.419566 -0.07574714 -0.24934827 -0.23338996
000070 38 af 0e bf 3d 77 04 c0 46 5a cd 3e b3 2c aa 40
       -0.5573611 -2.0697777 0.40107936 5.3179564
000080 e8 6f 45 40 f7 5e 7c 3f 95 66 d8 3f dd de cf 3e
       3.0849552 0.98582405 1.6906306 0.4059972
000090 bd a9 69 bf 38 50 35 40 46 ec 3d 3f 52 21 92 be
       -0.91274625 2.8330212 0.7418865 -0.28541046
0000a0 1e 5a 52 be 06 fc bb 3d 9e 13 1c bf 10 30 97 bf
       -0.2054219 0.09178929 -0.60967433 -1.1811543
0000b0 37 87 70 bf 07 fc b0 3d b5 98 29 3f ac 91 bf 3e
       -0.9395632 0.086418204 0.6624864 0.37415826
0000c0 f8 be 73 3f fb f4 02 3f 83 fb 1a 3f 02 e2 6f 3e
       0.9521327 0.5115506 0.60540026 0.23426059
0000d0 1e 85 c7 be 86 21 7d 3e 02 d6 8b 3e 10 c1 5c 3f
       -0.38968748 0.2471982 0.27311713 0.8623209
0000e0 97 90 71 3f 97 8c 29 3f 85 15 ba 3e 37 b7 c6 3e
       0.9436125 0.6623015 0.36344543 0.38811657
0000f0 c9 99 9d 40 2e a5 fc 3f 2a e3 f9 bd d3 71 88 3e
       4.9250226 1.9737909 -0.12201531 0.2664934
000100 08 48 79 3f d5 de 67 40 f5 ce 21 40 24 7d f7 3f
       0.97375536 3.6229756 2.5282567 1.9335065
000110 9f c0 69 3f fc c0 c8 3f e9 e5 a8 3f 9d a3 a0 3f
       0.9130954 1.5683894 1.3195163 1.2549931
000120 93 32 bf 3f ae ff a4 3f ba 7e b3 3f 3e 92 7c be
       1.4937309 1.2890527 1.4023049 -0.24665162
000130 63 e0 b5 bf 6a cb fa bf 63 dd ec bf b2 34 b2 bf
       -1.4209102 -1.9593327 -1.8505062 -1.3922331
000140 75 6f 1e 3f c9 55 02 bf 80 c6 66 be 55 af b0 be
       0.6188882 -0.5091215 -0.22536659 -0.34508768
000150 13 0c 61 bd d2 80 74 3d 7c 6f 84 be 81 7e 05 3f
       -0.054943155 0.059693165 -0.25866306 0.52146155
000160 cd 6b a0 3d f5 31 33 3f 46 57 47 3f 6f 5c a1 bf
       0.07833061 0.69998103 0.77867544 -1.2606333
000170 bf 7d 5f 3f 56 e8 25 40 63 9d a4 bf 91 a1 32 3f
       0.8730125 2.5923057 -1.2860531 0.6977778
000180 2d b3 31 3f 6a a6 09 bf bd 47 ef 3f a2 51 6a 40
       0.69414026 -0.5376955 1.8693768 3.6612325
000190 d8 e7 1e 40 51 a0 08 bf 71 58 af be 42 32 de 3d
       2.4829006 -0.53369623 -0.34247163 0.1084943
0001a0 4c 95 ab bd d4 46 88 be 57 62 a8 3f 5f 84 e5 3f
       -0.083780855 -0.26616538 1.3155011 1.7931021
0001b0 0a ae 36 40 9c 7d 1b 40 50 0c 9b 3f f5 47 a8 3e
       2.8543725 2.4295416 1.2113132 0.328674
0001c0 33 13 b9 bf 0e eb ec bf 8a 93 75 bf 8f f7 07 40
       -1.4458984 -1.8509233 -0.9592825 2.1244848
0001d0 36 05 a3 40 21 b2 da 40 c1 44 a3 40 70 84 ca 3f
       5.094386 6.8342443 5.102143 1.5821667
0001e0 48 bd 19 3c 94 b6 95 bd ce f3 8c 3f 72 ad 34 bf
       0.009383507 -0.07310215 1.1011903 -0.70577157
0001f0 7f e3 26 be b2 75 8d 40 4e 95 45 40 a9 4c cc 3e
       -0.1629772 4.420617 3.0872378 0.39902237
000200 06 6c 16 c0 58 0b f4 3f 97 5e a3 3f 9e 53 8c be
       -2.3503432 1.9065962 1.2763242 -0.27407545
000210 bf 5a 9b 3f ef b7 12 3f 1c 58 dc 3e 56 8c bf 3f
       1.2137069 0.5731191 0.43035972 1.4964702
000220 8d fc d8 be 11 3d f5 be 56 e1 46 3f e9 2a d3 3f
       -0.4238018 -0.47898152 0.77687585 1.649747
000230 6b 69 f3 3f d9 5e 54 3f 71 d5 fe be ef e6 e1 be
       1.9016546 0.82957226 -0.49772218 -0.441215
000240 dc 00 bb 3f 98 f8 8c 3f d6 10 8b 3e d8 78 67 be
       1.4609637 1.1013365 0.27161282 -0.22604692
000250 a6 8c 83 bf 2d 66 34 bf 2a f8 18 bf f3 51 df 3e
       -1.0277297 -0.7046841 -0.5975367 0.4361721
000260 d9 5c 3f be 5e 74 c2 40 ea 20 eb bf 6f 08 c1 bf
       -0.18687762 6.076705 -1.836942 -1.5080699
000270 ae a0 ca 40 48 bd 66 40 34 30 ca 3f 0d 19 1f 40
       6.332114 3.6053028 1.579596 2.485904
000280 dd 04 3b 40 1c 8d 0b 40 0b d2 80 3f 9c d6 ab 3f
       2.9221718 2.1804876 1.00641 1.3424869
000290 ee 47 86 3f 86 42 49 bc 41 75 e5 bf 5d 88 07 c0
       1.0490701 -0.012283927 -1.7926408 -2.117698
0002a0 96 af c9 bf 2b f1 8a bf ef e8 e5 bd 3d 26 d9 be
       -1.575671 -1.0854849 -0.11226069 -0.42411986
0002b0 13 47 5c be 35 53 52 bf 64 13 08 bf df b9 d7 be
       -0.21511488 -0.82158214 -0.5315459 -0.42133996
0002c0 5a 8f 91 3e 51 51 20 be fd b8 55 3f d3 bf 20 3f
       0.2842968 -0.1565602 0.83485395 0.627927
0002d0 cb 71 0b 3f 61 b8 36 3f 5b c0 90 3f 1b ca 97 3f
       0.5447051 0.7137509 1.1308702 1.1858553
0002e0 85 75 9d 3f 9e d4 06 3f 9d 77 ed bf 12 3f 21 40
       1.2301489 0.5266818 -1.8552128 2.5194745
0002f0 d0 ce 01 40 0a 84 e8 3d 73 68 1e c0 d2 70 6d 3f
       2.0282478 0.113533095 -2.475125 0.92750275
000300 83 21 34 40 77 9c 3e 40 94 a7 da bf 0b 00 cc bf
       2.8145454 2.9782999 -1.7082391 -1.5937513
000310 f3 14 07 c0 7b 94 5d c0 85 20 6c c0 64 e9 ac bf
       -2.1106536 -3.4621875 -3.6894848 -1.3508725
000320 ad 01 08 3f 65 93 a6 3f f6 54 d5 3f 1a b6 56 3f
       0.5312756 1.3013731 1.6666553 0.83871615
000330 98 98 d4 be dc 3a b1 bf 90 3e 49 be b4 57 93 3d
       -0.4152267 -1.3846087 -0.19652772 0.071944624
000340 26 da 79 be 1d de 9f bc b6 7a 9e bd a1 15 2c be
       -0.24399623 -0.019515092 -0.07738249 -0.16805126
000350 2f 09 22 be 69 96 36 bf 17 83 7e bf 62 c2 d4 bf
       -0.15823816 -0.7132326 -0.9941878 -1.6621821
000360 d4 94 f3 3f 46 40 ed 3d 02 ea 15 40 92 24 1b 3f
       1.9029794 0.11584525 2.3424077 0.60602677
000370 2a 46 7e 3d 82 08 c5 3f a6 da 25 3f b9 3a 6a bf
       0.062078632 1.5393221 0.64786756 -0.91495854
000380 d0 b2 5b be 2d 84 49 3f 0c 5e bd be b5 48 c7 bf
       -0.2145493 0.7871731 -0.36985815 -1.5569063
000390 52 0b 7f bf f4 27 14 3f c8 90 87 3d 93 6f af 3e
       -0.9962665 0.57873464 0.06619412 0.34264812
0003a0 d7 74 f6 3d d3 af 33 3d 3e 9e 40 3f b8 cf f5 3e
       0.12034004 0.04386885 0.7524146 0.4801004
0003b0 dc 76 a5 3f ae 44 33 3f 2b e1 d8 be d7 ca 2a bf
       1.2926898 0.7002667 -0.4235929 -0.6671576
0003c0 e4 2a 29 bf df c1 dd be e1 a5 a3 3c 6f ad 09 be
       -0.6608107 -0.43311974 0.019976558 -0.13445066
0003d0 a9 fe d5 bd 28 9a 68 be a4 a2 f5 3e af 46 cc 3e
       -0.10448963 -0.22715056 0.47975647 0.39897677
0003e0 d5 cc ad 3f 7a 81 a8 be 3c 6f 80 3e f8 ee 16 bd
       1.3578135 -0.32911283 0.25084865 -0.036848992
0003f0 cd e5 e0 bf f2 99 93 bf 7c 4b b0 bf 63 e7 24 c0
       -1.757013 -1.1531355 -1.3773036 -2.5766227

rnn.weight_hh_l0 f4 [24, 6]
000000 78 8d 99 c0 ee 25 c4 bf 7a 78 6b c0 63 42 0e 40
       -4.798519 -1.5324075 -3.6792283 2.222802
000010 7d 64 6e c0 26 47 f8 bf e6 e5 58 3f 3c a3 9f c0
       -3.7248833 -1.9396713 0.847258 -4.988676
000020 02 a6 85 bf 84 33 4c bf eb 7e 0f be 41 33 da 3f
       -1.0441287 -0.79766107 -0.14013259 1.7046891
000030 21 f3 af bf 1b 95 9a 3f 1f ba 49 3f 38 3e 44 bf
       -1.3746072 1.2076753 0.78799623 -0.7665744
000040 69 6b 16 40 45 64 3d c0 55 21 21 bf f0 23 d2 bf
       2.3503058 -2.959245 -0.62941486 -1.6417217
000050 78 90 34 be b7 fa 4a bf 5c f6 f0 bf 3a e3 b5 be
       -0.17633235 -0.7928881 -1.8825183 -0.35524923
000060 ad 89 f4 3e cf 8f 26 c0 16 ba 36 c0 dc 6d 04 c0
       0.47761288 -2.6025274 -2.8551078 -2.0692053
000070 07 35 69 bf 83 bb 46 c0 8e 5b ff 3f 24 93 1c 3e
       -0.9109654 -3.1051948 1.9949815 0.15290505
000080 b8 ac b3 3f c4 bc c1 3d ed 9c 24 bd 89 14 bf 40
       1.4037085 0.09459832 -0.04018872 5.9712567
000090 dd e7 5c 40 e6 34 ef 3f 3d e8 05 3f 78 52 08 bf
       3.4516518 1.8688018 0.5230749 -0.5325084
0000a0 53 0e 3f bd bf 97 b0 3f 0f af 49 40 a6 37 12 c0
       -0.04664452 1.3796309 3.1513097 -2.2846465
0000b0 a3 3b 41 c0 86 ad ad 3f 91 25 ef 3d f4 e4 17 bf
       -3.019265 1.356858 0.11677087 -0.5933373
0000c0 1e 68 bd bf 44 69 00 40 83 3b 5c bf 5e 7f a9 40
       -1.4797399 2.006425 -0.8602831 5.2967978
0000d0 f5 a8 c6 3d 49 05 17 c0 8b ef 13 40 6e b8 18 3f
       0.09700195 -2.3596976 2.3114955 0.5965642
0000e0 ab b7 3e 3f 24 d9 22 40 68 45 4c be 62 b3 3a bf
       0.74499005 2.5445032 -0.19948351 -0.72929966
0000f0 f7 00 e2 3f 63 2c 36 c0 b7 7b 8b bf 4a 89 56 40
       1.7656544 -2.8464592 -1.089713 3.3521295
000100 38 24 fc bf a0 0d a0 bf e6 6e e4 3f 67 a4 bc bf
       -1.9698553 -1.2504158 1.7846344 -1.4737672
000110 b1 d7 2c c0 af 83 b3 3f 8b 8b 71 c0 16 d1 13 c0
       -2.7006648 1.4024562 -3.774142 -2.3096366
000120 4e c9 b4 3f 38 4e 6c bf a9 5d 1a c0 1d 45 19 40
       1.4123933 -0.9230685 -2.4119666 2.3948433
000130 9c 05 c2 3f 9d 1d 72 3f 5d 0b 00 3d 93 55 db 3f
       1.5157962 0.94576436 0.031260837 1.713549
000140 f0 0e 0f 3f 14 83 ac bf 3a e5 53 40 35 88 c7 3e
       0.5588217 -1.3477502 3.3108659 0.38971105
000150 07 72 49 40 20 91 38 40 d2 c9 3d 3f da fb f3 bf
       3.1475847 2.8838577 0.7413608 -1.9061234
000160 be 99 d7 3f 59 80 f5 3d 00 87 64 3f 7b e8 9e 3f
       1.6843793 0.11987371 0.89268494 1.2414697
000170 2a 93 1b c0 ce 65 f5 bf eb 58 a5 bf 2e 0b 44 c0
       -2.4308572 -1.9171693 -1.2917761 -3.0631824
000180 48 03 ad 3d 8f a7 fc 3d 07 4f 70 bd cd dc 29 c0
       0.084478915 0.12336647 -0.058669116 -2.6541016
000190 f8 78 0f be d6 2d b4 40 2a 96 f9 3e ff 73 35 40
       -0.1401099 5.630595 0.4874738 2.8352048
0001a0 12 64 9e bf 23 6d 0f c0 b3 12 c7 bf 03 23 79 bf
       -1.2374289 -2.2410362 -1.5552582 -0.9731905
0001b0 2e f7 01 c0 c8 c1 e1 be 1b 96 95 3e 23 20 49 bf
       -2.0307117 -0.44093156 0.29216084 -0.7856466
0001c0 62 00 e3 bf 9c c3 96 bf 8f 49 3b 3f de ee 9f 3f
       -1.7734492 -1.1778445 0.73159117 1.2494771
0001d0 ee ff fe 3d 80 9f 36 c0 fc 92 bf 3f 07 3c 93 be
       0.124511585 -2.853485 1.4966731 -0.28756735
0001e0 86 6e 88 c0 93 44 49 bf 08 ae b3 be 75 63 01 40
       -4.2634916 -0.7862026 -0.35093713 2.0216954
0001f0 0d e5 e1 3f 4c 19 92 bf 30 09 d6 3f 2c fb 68 3f
       1.7648026 -1.141397 1.6721554 0.9100826
000200 3f 47 9b 3f 47 5e 56 3e 71 76 5f 40 b3 98 53 be
       1.2131118 0.20934401 3.491604 -0.20663719
000210 24 d5 64 40 a5 23 5d 3f 65 f5 96 bf 1d 6c 59 bf
       3.575509 0.86382514 -1.1793638 -0.8493059
000220 43 8f 99 3f d0 89 76 3f 59 37 45 bf 1d 99 73 bd
       1.1996845 0.96304035 -0.7703758 -0.059472192
000230 83 53 aa 3e 14 c0 0b bc f6 81 b6 bf 79 43 b5 be
       0.3326684 -0.008529682 -1.4258411 -0.3540304

rnn.bias_ih_l0 f4 [24]
000000 ec 81 03 40 ce a9 75 bf 06 06 9a be ef ea ae bd
       2.0548048 -0.95962226 -0.3008272 -0.08540904
000010 71 99 5d bf 5b 22 a0 3f 26 2e 4b 40 1e 2b 43 40
       -0.8656226 1.2510484 3.1746917 3.0495067
000020 40 d8 b3 bd 73 65 16 3f ac 53 4e 40 e4 42 01 40
       -0.08781481 0.5874855 3.223857 2.0197077
000030 16 72 0b 40 41 de 8d bf 84 22 97 be 7d 76 81 be
       2.1788383 -1.1083452 -0.2951852 -0.25285712
000040 da 13 23 3f fa f7 e9 be 07 b6 5b 3f da 04 91 3f
       0.63702166 -0.45697004 0.85824627 1.1329606
000050 ab ad 32 3f 63 6e 22 40 55 c0 92 3f 6f d8 9f bf
       0.69796246 2.5379875 1.1464945 -1.2487925

rnn.bias_hh_l0 f4 [24]
000000 88 dc d8 3f 51 9d 82 bf da 9d d9 be d5 a7 c0 be
       1.6942301 -1.0204259 -0.42503244 -0.37628046
000010 40 d9 f2 be 58 05 d1 3f 9b d7 43 40 38 d1 39 40
       -0.47431374 1.6329756 3.0600345 2.9033947
000020 74 95 35 3e c7 45 52 3f 04 dc 7b 40 eb 93 17 40
       0.17732793 0.8213772 3.9353037 2.3684032
000030 75 27 ff 3f 28 4b 26 bf 8a 08 03 bf 48 1d df be
       1.9933916 -0.6495843 -0.51184905 -0.43577027
000040 fb bb 69 3f 10 ad 00 bf 1c f6 72 3f 56 d3 c4 3f
       0.9130246 -0.5026407 0.94906783 1.5376995
000050 56 c5 cc 3d 68 f4 e7 3f d6 ea 48 3f e5 1b db bf
       0.09998576 1.8121462 0.7848333 -1.7117888

rnn.weight_ih_l1 f4 [24, 6]
000000 f5 f5 bb bf 1a 5b 71 3f e5 58 3b 40 af 77 d6 3e
       -1.4684435 0.94279635 2.9273007 0.41888186
000010 c4 0c 12 3f f2 2a 7a bf fe 55 25 bf 4b 71 c7 3e
       0.5705073 -0.9772178 -0.6458434 0.38953623
000020 13 75 82 3f 15 8f e8 bd cc 1d 41 3f cf a4 af bf
       1.0191978 -0.11355416 0.7543609 -1.372217
000030 0c 34 d8 bf b8 41 0e 3f 95 b1 81 be 35 70 41 3f
       -1.6890883 0.5556903 -0.25330797 0.7556184
000040 ea 16 3e be eb c5 6e c0 90 2a 99 c0 ef 0e 87 c0
       -0.18563429 -3.73083 -4.7864456 -4.220573
000050 d3 f5 23 c0 23 08 5e 3e 52 80 28 bf ea 37 6b 3f
       -2.561879 0.21682791 -0.658208 0.91882193
000060 5c b8 08 c0 87 b6 f4 3e fc af cb 3e 9a 5b 15 40
       -2.1362524 0.47795507 0.39782703 2.333716
000070 6f f8 47 bf 84 b2 51 c0 23 3f a2 bf 06 47 8f bf
       -0.78113455 -3.2765207 -1.2675518 -1.119355
000080 5a 4c 83 be fc 0d ae 3f 1f f6 ff bf a2 fa 08 c0
       -0.2564419 1.3598018 -1.9996985 -2.1402974
000090 23 4e c6 3e 01 99 b0 3f 0a fc cf be 6d f8 49 be
       0.3873149 1.3796693 -0.40621978 -0.19723673
0000a0 d3 ce 3e bc e7 50 3d 3f 45 e1 1d bf 8f 19 e6 3f
       -0.01164599 0.7395157 -0.6167186 1.797655
0000b0 2a da 22 3f c0 f2 05 3f e0 96 4a 3f 53 53 ed be
       0.6361414 0.5232353 0.79136467 -0.46352634
0000c0 d7 47 27 bf 49 1a 34 c0 48 93 8f c0 45 23 16 40
       -0.65343994 -2.8141043 -4.4867287 2.3459027
0000d0 31 ef d5 bf 04 6d 60 c0 3a 50 0e c0 83 f1 ae bf
       -1.671362 -3.5066538 -2.2236466 -1.3667454
0000e0 13 98 32 c0 c2 6d 00 40 ce cd 44 c0 7e 69 ef be
       -2.7905319 2.006699 -3.0750613 -0.46760172
0000f0 26 4a 90 bf 63 c9 2b 3f b1 95 7d c0 84 29 a4 3f
       -1.1272628 0.67104167 -3.9622614 1.282517
000100 2c 8f f7 3f c1 b9 ae bf 49 4d 06 c0 f1 67 2b 3f
       1.9340568 -1.3650438 -2.098467 0.66955477
000110 38 1d 89 bf a0 a0 4e bf cb c9 ad bf 7c 67 18 c0
       -1.0712042 -0.80713844 -1.3577207 -2.3813162
000120 94 9c 1a 3f 15 09 08 3f 79 9e c6 3e 6c 9f a4 be
       0.6039517 0.5313886 0.3879278 -0.3215288
000130 1c 92 2f bf ef 07 60 3e e1 24 46 3e 14 25 de 3e
       -0.6858232 0.21878026 0.19350006 0.43387663
000140 1f ca d1 3e e8 a6 09 bf 46 6b b0 be c2 31 3a bc
       0.4097452 -0.53770304 -0.34456843 -0.011364402
000150 fc 0d 32 c0 20 3a 90 bf e7 65 5a c0 9e 7a d4 3f
       -2.7821035 -1.1267738 -3.4124696 1.659992
000160 c9 85 86 40 63 5b d9 3f 5e 99 53 3f d8 a7 83 3f
       4.203831 1.6981014 0.82655895 1.0285597
000170 7d 11 6d 3f 9e be 94 bf 89 8d 21 3e 2e 31 59 bf
       0.9260481 -1.1620672 0.15776648 -0.8484067
000180 2d 02 1d bf d4 6b da be 87 fa 61 be 35 fe c1 3e
       -0.61331445 -0.4266039 -0.22068225 0.37889257
000190 9a 23 34 ba 47 52 1c bf a4 01 b2 3c 16 d0 cf 3e
       -0.000687176 -0.61063045 0.021729298 0.40588444
0001a0 55 94 14 3f 1a 2e 52 3f a6 5d a0 bf 67 8e 9d c0
       0.58038837 0.82101595 -1.2528579 -4.923633
0001b0 dc 10 ec bf bd 8e f9 3e 5d 1e 06 c0 a7 1d 8e 3f
       -1.8442645 0.48741713 -2.0956032 1.1102799
0001c0 ef 5f 4b bf e1 1b 89 bf 6d 89 8c bf 05 03 04 3f
       -0.7944326 -1.0711633 -1.0979439 0.5156711
0001d0 4e 6e 30 c0 c2 2d 0c 3f 2e e7 b8 bd 7b 0d 1c bf
       -2.7567325 0.5475732 -0.09028469 -0.6095807
0001e0 e8 e3 a5 bf 19 9f ba bd 28 d7 0a c0 3b 4c d5 3f
       -1.2960176 -0.09112377 -2.169382 1.6663889
0001f0 d6 76 21 bf 65 51 4f c0 a7 5a 88 bf 0a 96 a7 bf
       -0.63071954 -3.239343 -1.0652665 -1.3092663
000200 6b f6 46 bf af 46 37 bf 57 dc 1a c0 39 0f 43 c0
       -0.77719754 -0.7159223 -2.4196985 -3.047804
000210 6f e4 05 c0 bd 78 fc be 66 fe bd bf bc a1 cc 3e
       -2.0920675 -0.49310866 -1.4843261 0.39967144
000220 eb 3a 63 bf 70 7d df bf e2 df 0f c0 45 a1 d9 bf
       -0.88761777 -1.7460155 -2.2480397 -1.700234
000230 da a6 e9 bf 66 b6 d1 3e 20 61 8e bf 2a e4 ce bf
       -1.8254044 0.4095947 -1.112339 -1.616338

rnn.weight_hh_l1 f4 [24, 6]
000000 23 e0 2d c0 e5 8e 0a c0 eb 15 7e 3f 37 21 0f c0
       -2.7168052 -2.1649716 0.99252194 -2.2364023
000010 c6 64 16 40 20 07 0c 40 0e 58 3e c0 b0 39 0c c0
       2.3499007 2.1879349 -2.9741244 -2.191021
000020 c6 00 6e 3f 9f 42 88 bf 97 32 28 40 61 e0 bb 3f
       0.9296993 -1.0645331 2.6280878 1.467785
000030 53 f2 28 3e 8d bd ed 3e af fd 2b 3d 74 fd 15 c0
       0.1649869 0.46433678 0.04198998 -2.3435946
000040 da f1 24 bf 18 bc 7e be 38 32 3f be 28 a5 a1 3e
       -0.64431536 -0.2487644 -0.186715 0.31571317
000050 c2 3b 25 40 52 f4 10 c0 25 ff d0 3c a0 b5 ba 3f
       2.5817723 -2.2649121 0.025512287 1.4586678
000060 51 fa de bf e4 46 80 bf 7f 7d 1f 40 33 c1 19 c0
       -1.742014 -1.0021634 2.4920347 -2.402417
000070 fa 94 a0 3f 9b 36 2b 40 5a 7d 54 bf e6 2d 21 bf
       1.2545464 2.6752079 -0.8300377 -0.6296066
000080 62 96 68 3f ea 81 ee bf 05 61 0c 40 70 f6 9e 40
       0.90854466 -1.8633397 2.1934216 4.9675827
000090 a8 2c 4d c0 67 47 21 c0 97 1c 23 3f f8 9e b9 bf
       -3.2058506 -2.519983 0.637155 -1.4501638
0000a0 52 de 2e 40 a8 46 c3 3f af b5 13 c0 9e 3e ce bf
       2.7323194 1.5255938 -2.307964 -1.6112859
0000b0 36 54 2d 3f fa d9 88 bf 25 24 bd 3f 4c 25 04 40
       0.6770662 -1.0691521 1.4776655 2.0647764
0000c0 de b7 d1 be dc e9 5a 3e c9 cf 61 40 5b 6e 42 c0
       -0.40960592 0.21378273 3.5283072 -3.0379856
0000d0 cb 2b 7a 3c 92 85 2d 3f e9 43 c4 be 49 db fc 3e
       0.01526923 0.6778194 -0.3833306 0.4938605
0000e0 1a e3 18 40 39 ad 53 c0 9d 40 ea bd 47 49 97 3f
       2.3888612 -3.3074477 -0.11438105 1.1819237
0000f0 b6 6b 9f bf 6c 08 80 bf 41 60 ae 3f 1f 0d fd bf
       -1.2454746 -1.000257 1.3623124 -1.9769629
000100 12 27 68 3f 19 b0 07 40 14 e3 29 bf 89 21 62 3e
       0.90684617 2.1201231 -0.6636212 0.22083105
000110 4e 30 8d be b4 e2 15 c0 dc e8 8c 3f 7e 0d 3a 40
       -0.27575916 -2.3419619 1.1008563 2.9070735
000120 27 6c dc 3f 22 83 a5 3f 91 7c 82 be e3 f1 27 3f
       1.7220505 1.2930644 -0.25485662 0.65603465
000130 88 a3 99 bf 82 08 a8 bf 2f 1a 02 40 dc f3 a7 3f
       -1.2003031 -1.3127596 2.0328481 1.3121295
000140 51 8e 9d 3e 89 d2 b2 39 21 55 df bf bb c1 da bf
       0.3077264 0.00034107667 -1.7447854 -1.7090372
000150 ae 2e db bf 08 e9 95 bf dd 76 ed bf e4 e3 1b bd
       -1.712362 -1.171174 -1.8551899 -0.03805913
000160 2d fb aa 3f 13 42 90 3f 6e d8 eb 3f e3 db c7 3f
       1.3357903 1.1270164 1.8425424 1.5613979
000170 56 58 20 be 6c 37 49 3f 6e 74 b0 bf 4b 29 d1 bf
       -0.15658697 0.7860019 -1.3785532 -1.6340727
000180 f7 bc 0c c0 05 26 23 c0 60 7f b7 3e b8 c6 7b bf
       -2.1990335 -2.5491955 0.35839367 -0.98350096
000190 8c 42 c3 3f b4 ec 8c 3f 1c 3a 1a c0 63 36 00 c0
       1.5254683 1.1009736 -2.4097967 -2.0033195
0001a0 1c 0f 5c 3f 76 24 b4 bf fe 08 0e 40 db 5b 7e 3f
       0.85960555 -1.4073627 2.2192988 0.9935891
0001b0 81 41 66 bf de 6c 61 bf 73 49 16 40 52 ef 15 c0
       -0.899437 -0.88056743 2.348233 -2.342732
0001c0 2d 7e f3 3f 14 5e e0 3f 1e 1e a9 bf 93 7e e3 bf
       1.9022881 1.752871 -1.3212316 -1.7773002
0001d0 76 c6 b4 3f f0 36 af bf fd ce e3 3f a7 3b e1 3f
       1.4123065 -1.368864 1.7797543 1.759633
0001e0 ca 86 2c be 96 dd 1a be cf 8c 70 3f 3d f0 60 be
       -0.16848293 -0.15123591 0.93964857 -0.21966644
0001f0 e3 16 57 3e f6 8f 8d bc ac 4f 81 bd a6 ea 0f 3f
       0.21004824 -0.01728056 -0.06314024 0.5621742
000200 58 87 2f 3f c8 db 87 3e 9d ca 09 bf 6a bf 52 bf
       0.68565893 0.26534867 -0.5382479 -0.82323325
000210 3f 9b 4e bf 42 b4 b8 be af e6 3a 40 f2 ad 18 c0
       -0.80705637 -0.36075026 2.9203298 -2.3856168
000220 4a e7 ff 3f 09 ca 3a 40 b6 ae 01 bf a2 4d 7a be
       1.9992459 2.9185812 -0.5065721 -0.24443677
000230 79 73 25 40 0e bc 16 c0 56 29 c5 3e 6e 9b 01 3f
       2.585173 -2.355228 0.385081 0.5062779

rnn.bias_ih_l1 f4 [24]
000000 93 16 22 40 10 b3 16 40 ec a6 4d bf ff 50 1e 3f
       2.5326278 2.354679 -0.8033283 0.6184234
000010 a3 6f 20 3f 88 5f 3f bf eb b9 2a 40 02 70 d1 3f
       0.62670344 -0.74755144 2.6675975 1.6362307
000020 4d 16 bf be 06 d7 3c bf 7a 79 9e 3f 09 7c e4 3d
       -0.37321702 -0.737656 1.2380822 0.1115647
000030 91 54 21 c0 25 df 2e c0 cc 0d ce 3e 07 a4 06 c0
       -2.5207865 -2.7323697 0.402449 -2.1037614
000040 5e 83 12 40 21 db a5 3f be f9 c7 3f 05 cf a6 3f
       2.289268 1.2957498 1.562309 1.3031927
000050 a3 1e 29 bf 30 f2 75 bf be 81 8e 3f 2d 37 5c 3f
       -0.6606237 -0.96072674 1.1133344 0.8602169

rnn.bias_hh_l1 f4 [24]
000000 71 8d 09 40 bc b9 28 40 d0 2f 8a bf 74 1d 4d 3f
       2.149258 2.6363363 -1.0795841 0.80123067
000010 8b 12 9f 3e a5 65 dc be fd 21 2d 40 43 96 06 40
       0.31068835 -0.430463 2.7051995 2.1029212
000020 f6 12 1f 3d 6e 0c 6f bf 49 79 c2 3f 32 89 9c bd
       0.038836442 -0.9337834 1.5193263 -0.076433554
000030 7e ed 41 c0 62 6f 36 c0 93 b2 33 3f 01 7f 21 c0
       -3.0301204 -2.8505483 0.7019436 -2.5233767
000040 87 9c 11 40 74 8c 64 3f 86 d2 89 3f 3d 54 bf 3f
       2.2751787 0.89276814 1.0767372 1.4947582
000050 80 55 08 bf 08 e9 78 bf 05 73 b2 3e bf cb b8 3e
       -0.5325546 -0.9723058 0.34853378 0.36092946

fc.weight f4 [1, 6]
000000 3a 43 06 c0 ba 02 07 c0 45 03 e6 3f be f1 fc bf
       -2.0978532 -2.1095414 1.7969748 -1.9761274
000010 19 62 f5 3f c5 4b fd 3f
       1.9170562 1.9788748
