notebooks/best_model_total_cond_dp.pth (torch, 216888 bytes, 26 tensors)

rnn.weight_ih_l0 f4 [136, 6]
-0.20685288 -0.1424684 -0.010673653 -0.061274696 -0.14404564 0.010510695 0.32819647 0.10335704
0.2920931 -0.063000135 0.1404588 1.220994 -0.0951747 -0.14675032 -0.14519595 -0.092937924
-0.10705548 0.6605085 0.24807611 0.11896015 0.25323996 0.014209047 -0.26101556 0.3022649
-0.30102366 -0.09270113 0.08014633 0.4378896 -0.50756913 0.19390513 -0.086016834 0.08135511
-0.14711238 -0.1719208 0.1264732 -0.17035894 -0.17141576 -0.038692344 -0.13568738 0.10543634
-0.0046757422 0.3926928 -0.10313795 0.0010139568 0.024322923 0.4713172 -0.32495555 -0.24911156
0.040662136 0.06755109 0.08141933 -0.20873117 0.11818509 0.3644006 -0.25085166 0.07923233
-0.08371056 -0.19671148 -0.009197986 0.6581995 0.332556 -0.022731606 0.16024326 0.35055712
0.16215955 0.5725121 -0.26050124 -0.081268996 -0.17044953 0.12900038 0.104942486 0.23331335
-0.27459043 0.2230716 -0.056567546 -0.6120201 0.23397547 0.5083228 0.120841496 0.18661638
0.18129751 -0.21132152 0.11443865 -0.40396482 -0.07864427 -0.05893836 -0.070289835 0.12708199
0.0822652 -0.011111958 0.00026882783 0.068876475 -0.13595235 0.32099283 -0.7521179 -0.2664045
0.34133223 0.018148016 0.26311865 0.12666097 0.33097056 -0.13191181 -0.09641955 -0.1368226
-0.004642857 -0.10588208 -0.15292415 0.030575616 -0.26393297 -0.015754519 -0.17443115 0.073760055
-0.02078613 0.22478832 0.12525558 -0.18066607 -0.05469195 0.3424442 0.009410417 -0.034871474
-0.21634401 -0.15842126 0.011860901 0.31441042 -0.2284422 0.19046608 0.010623544 0.00348881
-0.05659296 -0.16559355 -0.22503394 -0.34163156 -0.091210894 -0.1553551 -0.12191801 0.02813262
0.19589311 1.0521466 -0.2936952 -0.11949602 -0.06313903 -0.087669894 -0.07135039 -0.11929456
0.022840599 -0.15170026 -0.21143764 -0.28542048 -0.23841012 0.09373653 -0.1920799 0.09505808
0.031405214 0.15645409 -0.023000522 -0.34707192 0.025909107 -0.0920824 -0.1357633 -0.034209114
0.038348533 0.20163 -0.14162683 -0.036454104 0.11432017 0.35404766 -0.02771318 -0.20749192
-0.08469395 0.10226099 -0.07168448 -0.033566725 -0.072455175 0.61879486 0.1417543 0.063686594
0.21522093 -0.17975447 0.06819739 -0.22686933 0.05573085 -0.23106919 -0.15692274 -0.017843982
-0.088838525 0.0372586 -0.017897991 -0.052211776 0.039988022 -0.052337263 0.04915956 0.006897739
0.00702188 -0.09181324 -0.07696624 -0.19483896 -0.1651672 0.8420226 -0.20863473 0.017293597
-0.1440359 0.1988437 -0.10252375 0.104271285 -0.16767839 -0.017972587 -0.24543625 -0.13055843
-0.16972652 0.008937503 0.30413267 0.19167954 0.36904985 0.10416812 0.096137434 0.5837717
-0.34298193 -0.2122903 0.065745674 -0.061151054 -0.05537347 -0.088858485 0.1682264 0.20608774
0.25190717 0.11220043 -0.010390673 0.24514017 -0.23158967 -0.10433846 -0.017558256 0.28925896
-0.30811456 0.056081347 0.026702918 0.06278699 -0.031267136 -0.31387952 -0.11717613 -0.47692022
0.25835782 0.28824678 0.13070668 0.39148864 0.23571219 -0.20811461 -0.04487237 0.2674993
0.15616842 0.23518668 0.053976756 -0.3607087 -0.09369262 -0.07953041 0.15089355 -0.20958367
00000000: 3ed1 53be 3ce3 11be 8ce0 2ebc 2dfb 7abd
00000010: b380 13be 0d35 2c3c 5e09 a83e dbac d33d
00000020: 3a8d 953e 3706 81bd 6fd4 0f3e 8849 9c3f
00000030: f4ea c2bd b745 16be 3fae 14be 3d56 bebd
00000040: e73f dbbd 1617 293f aa07 7e3e 61a1 f33d
00000050: aba8 813e 10cd 683c d5a3 85be 77c2 9a3e
00000060: c61f 9abe 17da bdbd c223 a43d 1133 e03e
00000070: 0df0 01bf 118f 463e 9829 b0bd 829d a63d
00000080: a1a4 16be 020c 30be 3182 013e 9372 2ebe
00000090: 9d87 2fbe dd7b 1ebd a2f1 0abe 02ef d73d
000000a0: f836 99bb 080f c93e fd39 d3bd bfe6 843a
000000b0: de40 c73c 7d50 f13e 9360 a6be 1a17 7fbe
000000c0: 578d 263d 3a58 8a3d 2dbf a63d a0bd 55be
000000d0: 060b f23d b792 ba3e a16f 80be 8f44 a23d
000000e0: 7170 abbd bc6e 49be 26b3 16bc c37f 283f
000000f0: c844 aa3e a237 babc cf16 243e 397c b33e
00000100: 270d 263e 2790 123f 6b60 85be 5c70 a6bd
00000110: 528a 2ebe ad18 043e 16ec d63d b2e9 6e3e
00000120: 1e97 8cbe e26c 643e 5fb3 67bd 59ad 1cbf
00000130: 4497 6f3e 7121 023f bf7b f73d 5d18 3f3e
00000140: 0ea6 393e ab64 58be d05e ea3d 7ad4 cebe
00000150: 3f10 a1bd 5a69 71bd 1ef4 8fbd c821 023e
00000160: a87a a83d ee0e 36bc 76f1 8c39 1c0f 8d3d
00000170: 1837 0bbe 2c59 a43e cc8a 40bf 2c66 88be
00000180: 19c3 ae3e 26ab 943c 7db7 863e 6ab3 013e
00000190: f974 a93e e413 07be 9d77 c5bd 391b 0cbe
000001a0: 1b23 98bb b4d8 d8bd 2698 1cbe b779 fa3c
000001b0: 3922 87be 9f0f 81bc 149e 32be 830f 973d
000001c0: ad47 aabc e92e 663e 0043 003e 8700 39be
000001d0: ab04 60bd d954 af3e 262e 1a3c 64d5 0ebd
000001e0: 4989 5dbe 2f39 22be 3954 423c 67fa a03e
000001f0: c1ec 69be 8a09 433e 600e 2e3c 85a4 643b
00000200: 05ce 67bd 5b91 29be 4c6f 66be 55ea aebe
00000210: c7cc babd 6815 1fbe 26b0 f9bd 6176 e63c
00000220: 3498 483e bdac 863f 385f 96be 54ba f4bd
00000230: 094f 81bd 468c b3bd 2720 92bd b550 f4bd
00000240: 351c bb3c 5057 1bbe 1c83 58be a222 92be
00000250: c821 74be f0f8 bf3d 98b0 44be d0ad c23d
00000260: c1a2 003d 8035 203e 976b bcbc 69b3 b1be
00000270: 563f d43c b395 bcbd 8905 0bbe db1e 0cbd
00000280: 5a13 1d3d 1878 4e3e a006 11be e650 15bd
00000290: b120 ea3d bc45 b53e c006 e3bc c378 54be
000002a0: 0674 adbd 366e d13d 50cf 92bd 437d 09bd
000002b0: 6163 94bd 5769 1e3f 0a28 113e 1e6e 823d
000002c0: e062 5c3e 8e11 38be 13ab 8b3d 6f50 68be
000002d0: 0846 643d 679d 6cbe 5bb0 20be 8b2d 92bc
000002e0: f9f0 b5bd 799c 183d cf9e 92bc 04dc 55bd
000002f0: 7bca 233d 995f 56bd 895b 493d 6e06 e23b
00000300: cc17 e63b 9408 bcbd 7aa0 9dbd dd83 47be
00000310: 9721 29be cb8e 573f 58a4 55be 4dab 8d3c
00000320: 267e 13be af9d 4b3e f9f7 d1bd 2f8c d53d
00000330: e2b3 2bbe 3f3b 93bc a453 7bbe 1cb1 05be
00000340: cacc 2dbe 9b6e 123c 47b7 9b3e a447 443e
00000350: 1af4 bc3e 1856 d53d b4e3 c43d 1072 153f
00000360: 549b afbe a162 59be aba5 863d 8779 7abd
00000370: 4bcf 62bd 70fb b5bd 8b43 2c3e aa08 533e
00000380: faf9 803e 57c9 e53d a43d 2abc 0606 7b3e
00000390: d825 6dbe 67af d5bd 55d6 8fbc c019 943e
000003a0: 31c1 9dbe 8eb5 653d 14c0 da3c 7796 803d
000003b0: f811 00bd d1b4 a0be 0afa efbd e32e f4be
000003c0: 7a47 843e 1595 933e f9d7 053e 3371 c83e
000003d0: 895e 713e ff1b 55be 17cc 37bd abf5 883e
000003e0: 9dea 1f3e c7d4 703e bb16 5d3d d0ae b8be
000003f0: ebe1 bfbd d7e0 a2bd d783 1a3e 1a9d 56be

rnn.weight_hh_l0 f4 [136, 34]
-0.06955637 0.0068788324 -0.03891812 0.0222133 0.06730531 0.07234281 -0.07172323 0.082368515
0.05741013 -0.046159543 -0.27680263 -0.04762122 0.07520597 -0.004291124 0.005045048 0.0118819475
0.0037156336 0.07233479 0.12653202 -0.11569411 -0.1796893 0.044189192 -0.042106107 -0.13822433
-0.03921585 -0.10484189 -0.17559902 -0.07808211 0.33289254 0.17764615 0.097159036 -0.12580094
-0.14516188 -0.18340994 -0.18469462 -0.33418804 -0.31271744 0.7164538 -0.26685974 -0.013829605
0.11822014 -0.23805237 0.47863644 0.6088633 0.33956787 0.43116543 0.3591259 0.06935546
-0.2076926 0.7486447 -0.06623894 -0.2952209 0.06703677 0.047747653 0.023252275 -0.025236698
0.23145124 -0.041161917 0.022356361 -0.101819664 -0.09117617 0.17443995 -0.3737043 0.22105601
-0.19407183 0.31861785 -0.3656038 -0.049020648 -0.09909538 0.56618124 0.13924626 0.23538314
-0.17946558 0.32450405 -0.21875015 0.14066468 0.117366545 0.35831925 -0.024756048 0.2556363
0.2494154 -0.127107 0.18852825 -0.28451142 -0.16688836 -0.26469108 0.2469494 0.10108797
0.16576512 0.36218855 0.23418106 -0.14872111 -0.1399956 -0.12525947 -0.020827265 0.10496868
0.15423734 0.29784966 -0.17063047 0.327757 -0.024388371 -0.08250177 -0.25002608 0.1508653
-0.03915157 0.095858134 -0.32706285 0.03964803 0.1137967 0.04714486 0.2840842 0.33553624
-0.005047641 0.33550194 0.54509383 0.5149573 0.23575181 -0.03773339 0.1787217 -0.16968635
-0.097327195 -0.12410382 0.20079057 0.15536729 0.35350266 0.044163752 0.1324475 0.284438
-0.06612285 0.45008078 -0.18364757 0.24089968 -0.057100352 0.15614139 0.041701633 0.0854788
-0.07095816 0.052703626 0.049299564 -0.20197213 -0.016115107 0.016822845 0.036131274 0.01019546
0.100649215 0.062548734 0.12394984 0.2406716 -0.06668782 -0.36136037 -0.026993282 -0.1870061
-0.14809795 -0.2165045 -0.04533001 0.09617161 -0.021188602 0.18832988 -0.2079653 0.02411722
-0.0043466273 -0.0016854104 -0.11257859 -0.047084756 0.118351534 0.030476226 -0.18626961 -0.020206446
-0.16560827 0.07710846 0.118948154 0.009525371 0.19683558 0.32151592 0.041222315 0.052146118
-0.039342903 -0.1697462 -0.021189958 0.30083662 0.19672771 0.12237436 0.13662034 0.05545277
0.017070653 0.08369241 0.11423842 0.041996304 0.10813911 0.29557857 0.093993545 -0.02091817
0.14384377 -0.18145312 0.032617107 -0.068124205 0.072764345 -0.2332315 -0.054803085 -0.0072604455
0.047748294 0.11085256 -0.17562832 -0.05075505 -0.11614068 0.09445388 0.049303055 0.03040426
-0.0005959158 0.21071722 0.06469295 -0.20538598 -0.07604234 0.040699475 0.08475774 -0.01034508
0.19720288 -0.030640474 -0.0322313 -0.21932712 0.16634007 -0.3217738 0.06736442 -0.22609091
0.033719268 -0.013765359 0.019796045 0.08233346 0.036881015 -0.0098917 0.067690834 0.0155891655
-0.02653953 0.17051955 -0.021909207 -0.013922283 0.071286134 -0.06214437 0.000529643 0.64041215
-0.2658291 -0.4163841 -0.1241371 0.08200576 0.01831948 -0.3196467 -0.044310663 0.5018602
0.013400272 0.27370587 0.59415716 0.22392273 -0.060791627 -0.98973495 0.22145948 -0.14574817
00000000: 9273 8ebd d467 e13b 9b68 1fbd abf8 b53c
00000010: 5ed7 893d 7828 943d a1e3 92bd d3b0 a83d
00000020: e226 6b3d ca11 3dbd 13b9 8dbe 780e 43bd
00000030: 9605 9a3d 8f9c 8cbb ee50 a53b 80ac 423c
00000040: fd81 733b 4324 943d 9c91 013e 09f1 ecbd
00000050: 7900 38be baff 343d 7477 2cbd ae8a 0dbe
00000060: cda0 20bd 58b7 d6bd 3bd0 33be 83e9 9fbd
00000070: e470 aa3e dfe8 353e 51fb c63d f6d1 00be
00000080: 51a5 14be d1cf 3bbe 9620 3dbe b21a abbe
00000090: 801c a0be 8469 373f d7a1 88be 9195 62bc
000000a0: 671d f23d 00c4 73be d60f f53e 77de 1b3f
000000b0: d7db ad3e b7c1 dc3e 5adf b73e 3c0a 8e3d
000000c0: 5ead 54be 2ea7 3f3f 48a8 87bd 3227 97be
000000d0: 934a 893d 0b93 433d 8e7b be3c 31bd cebc
000000e0: 8e01 6d3e 6699 28bd b024 b73c d486 d0bd
000000f0: 92ba babd 63a0 323e 2c56 bfbe 825c 623e
00000100: c4ba 46be e121 a33e 6c30 bbbe e0c9 48bd
00000110: 85f2 cabd 41f1 103f 9296 0e3e 4708 713e
00000120: d3c5 37be 6525 a63e 0a00 60be 670a 103e
00000130: df5d f03d 9f75 b73e 32cd cabc c3e2 823e
00000140: c066 7f3e 5628 02be 8d0d 413e 7bab 91be
00000150: c8e4 2abe 9785 87be 4ee0 7c3e 3607 cf3d
00000160: 55be 293e c770 b93e 29cd 6f3e 594a 18be
00000170: 025b 0fbe 0544 00be f19d aabc d2f9 d63d
00000180: 65f0 1d3e c07f 983e c1b9 2ebe c4cf a73e
00000190: 1fca c7bc b0f6 a8bd 6b03 80be 6f7c 1a3e
000001a0: 665d 20bd 4551 c43d c874 a7be f965 223d
000001b0: 3f0e e93d f81a 413d 7c73 913e 68cb ab3e
000001c0: af66 a5bb e9c6 ab3e 458b 0b3f 3ed4 033f
000001d0: ec68 713e 548e 1abd d202 373e 42c2 2dbe
000001e0: 7b53 c7bd 252a febd 0b9c 4d3e 9a18 1f3e
000001f0: 4dfe b43e 0de5 343d 51a0 073e dca1 913e
00000200: 6b6b 87bd fd70 e63e 1c0e 3cbe 68ae 763e
00000210: 0fe2 69bd 87e3 1f3e 55cf 2a3d 820f af3d
00000220: 8352 91bd c2df 573d 57ee 493d c8d1 4ebe
00000230: d403 84bc 10d0 893c 63fe 133d dc0a 273c
00000240: 2d21 ce3d 8d19 803d 6ad9 fd3d 9e72 763e
00000250: a093 88bd 3a04 b9be 0421 ddbc 877e 3fbe
00000260: fda6 17be 5bb3 5dbe f6ab 39bd 9ff5 c43d
00000270: b893 adbc 8cd9 403e dbf4 54be 7a91 c53c
00000280: 276e 8ebb fde8 dcba 9b8f e6bd f2db 40bd
00000290: 4a62 f23d 47a9 f93c 76bd 3ebe fd87 a5bc
000002a0: 3795 29be 0aeb 9d3d 179b f33d 4d10 1c3c
000002b0: 448f 493e bc9d a43e bbd8 283d 2b97 553d
000002c0: 0626 21bd f3d1 2dbe 9096 adbc 4207 9a3e
000002d0: fd72 493e 699f fa3d 34e6 0b3e 7222 633d
000002e0: c1d7 8b3c ed66 ab3d d5f5 e93d 5104 2c3d
000002f0: 0a78 dd3d 1356 973e b07f c03d 955c abbc
00000300: c84b 133e d9ce 39be 8499 053d b484 8bbd
00000310: 7905 953d 3dd4 6ebe 3379 60bd 08e9 edbb
00000320: b793 433d ab06 e33d e9d7 33be 87e4 4fbd
00000330: 2adb edbd 0971 c13d 00f2 493d 5b12 f93c
00000340: 3b37 1cba 41c6 573e bd7d 843d b450 52be
00000350: 16bc 9bbd 7eb4 263d 7795 ad3d 697e 29bc
00000360: 8def 493e bb01 fbbc f804 04bd 4a97 60be
00000370: 0d55 2a3e 89bf a4be 5bf6 893d 6084 67be
00000380: 371d 0a3d 1a88 61bc 512b a23c 729e a83d
00000390: 8c10 173d cc10 22bc 7ea1 8a3d b369 7f3c
000003a0: 6e69 d9bc ad9c 2e3e f07a b3bc 4a1a 64bc
000003b0: 77fe 913d 188b 7ebd bdd7 0a3a 0df2 233f
000003c0: c01a 88be 4c30 d5be 983b febd a3f2 a73d
000003d0: bc12 963c bba8 a3be 197f 35bd e979 003f
000003e0: d08c 5b3c 2d23 8c3e af1a 183f 004c 653e
000003f0: a400 79bd 455f 7dbf 46c6 623e 023f 15be

rnn.bias_ih_l0 f4 [136]
-0.14105302 0.07190464 0.12709086 0.2545463 0.15902899 -0.12943661 0.01619554 0.047924463
-0.05235488 0.109132014 0.05577117 0.040020473 -0.20125672 0.13887398 -0.039808784 0.03189848
0.21292332 -0.10408124 -0.013206196 0.08757395 0.15804595 0.003201705 -0.05424274 0.1220295
-0.03379067 -0.02189531 -0.14330444 0.042407844 -0.19346255 -0.014193398 -0.086582884 -0.16732354
-0.09183105 -0.065672606 0.10428551 0.32619604 0.053912796 0.053419568 0.16679351 0.02440855
0.042563684 -0.13909997 -0.11334109 0.22258592 0.33334938 0.0083770985 0.16413328 0.2282285
0.0017911978 0.0011734855 0.22491153 -0.25854304 -0.093032934 -0.078614615 -0.16418843 0.12762634
-0.009950625 -0.19021194 -0.03610924 0.024346069 0.00057570456 0.051925633 0.06724735 0.083955534
0.029430313 -0.14884311 -0.23422082 0.003933107 -0.28241226 -0.20795912 0.0062795556 0.15934865
-0.5152931 0.18643151 0.023423174 -0.02508777 -0.025266249 0.119957685 -0.067605115 0.0107607525
-0.1335881 -0.05279921 -0.054219447 0.17058423 0.09687889 -0.1499521 -0.004636525 -0.06265328
0.047280848 0.14586234 -0.065159574 -0.14724955 -0.020291822 0.18718442 -0.19540371 0.118106954
-0.15937504 0.10714837 0.06804001 -0.13100727 0.015321025 -0.103035845 -0.0014694756 -0.050508197
-0.053716578 -0.07742868 0.015253359 -0.14722078 0.017496916 -0.034798026 -0.0024184417 -0.18642808
0.06663621 -0.089995034 -0.14331046 -0.13131528 0.118005775 0.12569067 0.43083474 -0.16844505
0.007193288 -0.057352025 -0.017133534 -0.12519276 -0.09076034 0.03386219 0.05773429 -0.20640488
-0.13906465 0.13891017 -0.07563893 0.09764795 -0.11324103 0.05807415 -0.24492389 -0.11588709
00000000: 3470 10be bd42 933d 1b24 023e e553 823e
00000010: 7fd8 223e 088b 04be 82ac 843c 714c 443d
00000020: 1272 56bd 9b80 df3d 4f70 643d 82ec 233d
00000030: 3e16 4ebe fb34 0e3e 890e 23bd fba7 023d
00000040: 9208 5a3e 8c28 d5bd cd5e 58bc f959 b33d
00000050: ccd6 213e b2d3 513b a32d 5ebd 9aea f93d
00000060: 1668 0abd cb5d b3bc 66be 12be d9b3 2d3d
00000070: 0c1b 46be 6d8b 68bc 5e52 b1bd dd56 2bbe
00000080: eb11 bcbd 5c7f 86bd a493 d53d 2b03 a73e
00000090: aad3 5c3d 7ace 5a3d ebcb 2a3e 70f4 c73c
000000a0: 4257 2e3d 3970 0ebe 601f e8bd 90ed 633e
000000b0: c5ac aa3e 1940 093c 8e12 283e bbb4 693e
000000c0: a0c6 ea3a a4cf 993a 354f 663e c15f 84be
000000d0: 0d88 bebd b300 a1bd 0321 28be 7bb0 023e
000000e0: f207 23bc ebc6 42be 48e7 13bd 6871 c73c
000000f0: e1ea 163a f9af 543d fbb8 893d e1f0 ab3d
00000100: d717 f13c 546a 18be 95d7 6fbe 4be1 803b
00000110: 5798 90be 3cf3 54be bbc4 cd3b 4b2c 233e
00000120: 40ea 03bf e7e7 3e3e f5e1 bf3c de84 cdbc
00000130: 2afb cebc 60ac f53d 8d74 8abd de4d 303c
00000140: 52cb 08be fc43 58bd 3615 5ebd a2ad 2e3e
00000150: 7168 c63d 0b8d 19be feed 97bb 5d50 80bd
00000160: 90a9 413d f05c 153e 6272 85bd 96c8 16be
00000170: 093b a6bc 46ad 3f3e e917 48be 0fe2 f13d
00000180: 3633 23be 9b70 db3d 9058 8b3d c526 06be
00000190: 0905 7b3c 7504 d3bd 6b9b c0ba afe1 4ebd
000001a0: ea05 5cbd ee92 9ebd 3ae9 793c 0bc1 16be
000001b0: b155 8f3c 6088 0ebd b87e 1ebb 01e7 3ebe
000001c0: 9178 883d 514f b8bd fabf 12be 8377 06be
000001d0: 03ad f13d 0eb5 003e 5f96 dc3e dc7c 2cbe
000001e0: acb5 eb3b f5e9 6abd a05b 8cbc 8832 00be
000001f0: 8fe0 b9bd 14b3 0a3d ca7a 6c3d cd5b 53be
00000200: f766 0ebe 783e 0e3e 95e8 9abd a6fb c73d
00000210: eaea e7bd 29df 6d3d 54cd 7abe 3656 edbd

rnn.bias_hh_l0 f4 [136]
-0.12850218 -0.006917479 -0.08138011 -0.005794101 0.024206156 0.1220579 -0.028868286 0.15309912
-0.102862574 -0.046802033 0.14831574 0.14317213 -0.005541774 0.1747986 -0.11270387 0.041824102
0.1878922 -0.0913367 0.11472951 0.019974211 0.12223953 -0.17401987 -0.2019004 -0.067301095
-0.0901892 -0.015658816 -0.1648009 0.107369736 -0.113880925 0.0590076 -0.014155496 -0.14219353
-0.2750918 -0.08989052 0.08750396 0.07828978 -0.069709666 0.3268808 -0.05905635 -0.0986671
0.17321558 -0.13384354 -0.16192973 0.011301636 0.11339642 0.21874654 -0.09340973 0.18287279
0.13709119 0.118089184 0.21041304 0.0828764 0.04932686 -0.040051103 -0.05233932 0.03103075
0.02669702 -0.13011183 -0.19120419 0.069175534 0.21733771 -0.13726656 0.22962874 -0.010130275
0.09027208 -0.172266 -0.14943615 -0.21544205 -0.21068048 -0.02039628 -0.12887149 0.13499875
-0.45213258 -0.016838238 0.019701928 -0.034484927 0.040011656 -0.09103478 0.10649635 0.14161769
0.0774295 0.09765348 0.2272621 -0.16332488 0.06989922 0.02320537 0.14577028 0.15957998
0.20317858 -0.17081873 -0.022502854 0.1284721 0.037221856 0.041985154 -0.17740591 0.13085598
-0.15915859 0.07775651 -0.1907095 -0.12001078 -0.15633576 0.0023883276 -0.03342205 0.13563149
0.0017093137 0.032711808 0.13055521 -0.1732501 0.21006626 0.08292416 0.13671575 -0.01659753
0.05229072 -0.0065975497 -0.15040623 -0.012767271 -0.16935213 -0.012760174 0.41595557 -0.11542923
0.009567887 0.009477819 -0.0065438 0.03129913 -0.08670914 -0.18262823 -0.03214594 -0.08739277
-0.020096332 -0.05226692 -0.010601828 -0.0489623 -0.14823501 -0.19618447 0.052616097 -0.02056931
00000000: 1396 03be 05ac e2bb 9daa a6bd 71dc bdbb
00000010: fd4b c63c 7ef9 f93d 2f7d ecbc 04c6 1c3e
00000020: 9da9 d2bd 7db3 3fbd 15e0 173e b79b 123e
00000030: c597 b5bb 67fe 323e 49d1 e6bd c04f 2b3d
00000040: d066 403e bc0e bbbd 4ef7 ea3d f5a0 a33c
00000050: b858 fa3d 4432 32be fabe 4ebe 28d5 89bd
00000060: 1eb5 b8bd eb46 80bc 91c1 28be aae4 db3d
00000070: 673a e9bd f4b1 713d 74ec 67bc 2e9b 11be
00000080: d5d8 8cbe 8518 b8bd 4735 b33d 6456 a03d
00000090: f1c3 8ebd ec5c a73e 12e5 71bd fa11 cabd
000000a0: 6d5f 313e 480e 09be e8d0 25be 7f2a 393c
000000b0: 623c e83d 18ff 5f3e 9a4d bfbd 0143 3b3e
000000c0: a261 0c3e bed8 f13d 8476 573e 1abb a93d
000000d0: f60a 4a3d a00c 24bd c161 56bd 3334 fe3c
000000e0: b5b3 da3c 093c 05be 08cb 43be e7ab 8d3d
000000f0: c78d 5e3e 9b8f 0cbe cc23 6b3e 74f9 25bc
00000100: 91e0 b83d 8066 30be ca05 19be d79c 5cbe
00000110: a0bc 57be 1916 a7bc e3f6 03be 1d3d 0a3e
00000120: ec7d e7be 58f0 89bc f065 a13c 1140 0dbd
00000130: 43e3 233d 7170 babd c21a da3d 3a04 113e
00000140: 5c93 9e3d 8cfe c73d 65b7 683e a33e 27be
00000150: 5227 8f3d 3019 be3c ce44 153e ef68 233e
00000160: 0c0e 503e 1beb 2ebe e857 b8bc 318e 033e
00000170: f275 183d a0f8 2b3d e5a9 35be 1cff 053e
00000180: 78fa 22be ce3e 9f3d 5a49 43be 36c8 f5bd
00000190: 7b16 20be 7d85 1c3b 8fe5 08bd fbe2 0a3e
000001a0: 0d0b e03a d1fc 053d 44b0 053e 7968 31be
000001b0: 9c1b 573e 24d4 a93d 37ff 0b3e 8bf7 87bc
000001c0: cb2e 563d 4230 d8bb 1704 1abe d12d 51bc
000001d0: a56a 2dbe 0d10 51bc 21f8 d43e 2966 ecbd
000001e0: a0c2 1c3c db48 1b3c 5f6d d6bb 8433 003d
000001f0: 9094 b1bd e502 3bbe 76ab 03bd fbfa b2bd
00000200: 10a1 a4bc d715 56bd 4ab3 2dbc b18c 48bd
00000210: ebca 17be 95e4 48be fa83 573d f880 a8bc

rnn.weight_ih_l1 f4 [136, 34]
0.053412203 0.24398966 0.17449668 0.08384716 -0.12346779 0.10039078 -0.21283013 0.07341459
-0.10044031 -0.070636496 -0.3318795 0.19878706 0.088722125 -0.061285757 -0.07380689 -0.1487935
0.07118882 -0.00686184 0.10509268 0.018076198 -0.11779775 0.2257502 -0.11104249 -0.18129653
-0.22904567 -0.19721134 -0.05364807 0.075668514 0.24091682 0.19691074 -0.26993978 0.090251535
0.09726171 -0.21579856 0.10590866 -0.22156969 0.1096137 -0.06429275 0.106838994 -0.11655411
0.15841421 -0.19389243 0.0939523 0.19344871 0.19286644 -0.0028602357 -0.06697447 0.0140551645
-0.05812541 -0.019429224 -0.15009321 -0.03143864 0.12367318 -0.12512128 -0.013391732 -0.031432226
-0.019663911 -0.16476335 -0.14009263 -0.16532406 0.054622997 -0.10458395 -0.07457252 -0.15839563
-0.09651697 0.07359585 -0.15339883 0.0017655933 -0.13937068 0.2853563 0.057365764 0.009584293
-0.29186907 0.10630427 -0.13384517 0.023093242 0.10575358 -0.08924832 0.18555066 0.2734424
-0.039325386 0.04016209 -0.06799803 -0.21282911 0.07877571 0.0048816507 0.087110415 0.14798772
0.12147962 0.09336302 -0.260891 -0.15320745 0.048641033 0.052307524 -0.18454547 -0.09426806
0.4364041 -0.02521296 -0.07983432 0.12460385 -0.18821894 -0.056516927 0.3094359 -0.47355327
0.39484343 -0.17867634 0.3078392 -0.14728148 0.041725628 -0.10448576 0.118649654 -0.142314
0.25724456 -0.28375494 0.005733238 0.20735547 -0.25613633 0.025891628 -0.18332395 -0.043250766
0.18570812 -0.08746429 -0.3180098 -0.14354773 -0.28372392 -0.14867175 -0.14547141 -0.055312723
0.13439329 -0.3045853 -0.27079165 0.045553863 -0.08421703 -0.19746064 -0.1152382 0.15847999
-0.031291276 0.9509326 0.1326678 -0.05469856 -0.0011651603 0.11631496 0.35923803 -0.12557362
-0.11859538 0.07403573 0.18380782 -0.009582769 0.17103729 -0.03344047 0.11963685 -0.17682987
0.28278676 0.1416847 -0.14345409 -0.48189223 0.15651937 -0.15033342 0.37408188 -0.07590319
0.00504325 0.15978739 -0.08578624 0.17678733 -0.17564584 -0.14083748 0.11896232 -0.029127885
-0.14183596 0.08140732 0.050241902 -0.10761542 -0.11503505 0.04569331 -0.19534427 0.047182217
-0.2675633 0.122205585 0.09179331 0.19719271 0.09601246 0.022376955 0.41643998 0.3461419
-0.062479004 -0.10668706 -0.037300408 -0.0004032817 0.031423304 0.25617373 0.08886634 0.20441283
-0.14940597 -0.23010077 0.099272594 -0.12717937 -0.17759119 -0.02745271 0.203053 0.29781076
0.045445576 -0.025661513 0.026951095 -0.047194667 -0.11054125 -0.025143893 -0.011227448 -0.16155641
-0.054307435 -0.08716088 -0.047338013 -0.18584028 -0.017851911 0.17889298 0.40878424 0.1085885
0.041488685 0.031651292 0.2506777 -0.42553836 -0.37033752 0.15611328 0.15346304 0.008844771
-0.061991993 -0.04064607 0.18291526 -0.09794675 -0.09694461 -0.14366715 0.1815804 -0.07545458
-0.24843292 0.037452362 0.011496053 -0.02117221 -0.118578255 -0.13102837 -0.018701043 -0.13000779
0.11001202 -0.27937955 -0.18871358 -0.117692105 0.098996505 -0.10337676 0.18278736 0.11837513
0.27214393 0.20315209 0.09253952 0.07473783 -0.010097076 -0.23225284 -0.37788364 -0.16996126
00000000: c1c6 5a3d 6dd8 793e 42af 323e 0fb8 ab3d
00000010: aedc fcbd ae99 cd3d 24f0 59be 635a 963d
00000020: a6b3 cdbd dea9 90bd 1cec a9be d68e 4b3e
00000030: f2b3 b53d c606 7bbd 1128 97bd 535d 18be
00000040: 72cb 913d 49d9 e0bb d53a d73d 8914 943c
00000050: f23f f1bd 0f2b 673e 3f6a e3bd cca5 39be
00000060: f38a 6abe c5f1 49be 14be 5bbd 18f8 9a3d
00000070: e6b2 763e f8a2 493e 8c35 8abe ccd5 b83d
00000080: 2631 c73d 4cfa 5cbe a4e6 d83d 2ae3 62be
00000090: 267d e03d ebab 83bd 67ce da3d ecb3 eebd
000000a0: 5637 223e bd8b 46be 106a c03d 6b17 463e
000000b0: c87e 453e cb72 3bbb e929 89bd a247 663c
000000c0: e914 6ebd 092a 9fbc 09b2 19be cec5 00bd
000000d0: 5d48 fd3d cb1f 00be ff68 5bbc 14bf 00bd
000000e0: 3616 a1bc b9b7 28be 7174 0fbe b64a 29be
000000f0: 5dbc 5f3d 1c30 d6bd 7ab9 98bd 7732 22be
00000100: b0aa c5bd 6cb9 963d 9514 1dbe 7b6b e73a
00000110: 30b7 0ebe 391a 923e 5df8 6a3d 7007 1d3c
00000120: dd6f 95be 0eb6 d93d b50e 09be 0a2e bd3c
00000130: 5595 d83d d3c7 b6bd fe00 3e3e a400 8c3e
00000140: a813 21bd 0181 243d 8d42 8bbd e0ef 59be
00000150: 2955 a13d 41f6 9f3b f266 b23d 188a 173e
00000160: 4fca f83d 1c35 bf3d 8193 85be 6ae2 1cbe
00000170: d23b 473d 6a40 563d 7df9 3cbe 9d0f c1bd
00000180: 5c70 df3e 698b cebc 2d80 a3bd 4e30 ff3d
00000190: 77bc 40be 4b7e 67bd 626e 9e3e 9375 f2be
000001a0: eb28 ca3e eef6 36be 1a9d 9d3e f5d0 16be
000001b0: 7ee8 2a3d a1fc d5bd 97fe f23d c3ba 11be
000001c0: 8fb5 833e 5448 91be e3dd bb3b fe54 543e
000001d0: 4d24 83be ae1a d43c 46b9 3bbe b727 31bd
000001e0: 452a 3e3e 7a20 b3bd 2ed2 a2be 2dfe 12be
000001f0: 4344 91be 683d 18be 75f6 14be 988f 62bd
00000200: 659e 093e 9bf2 9bbe 34a5 8abe b096 3a3d
00000210: fa79 acbd 1f33 4abe 0102 ecbd 9448 223e
00000220: 482b 00bd 5270 733f 11da 073e 990b 60bd
00000230: 4bb8 98ba 8a36 ee3d 0cee b73e 5f96 00be
00000240: 22e2 f2bd 0ba0 973d 1e38 3c3e 0c01 1dbc
00000250: 6624 2f3e e0f8 08bd 2a04 f53d e412 35be
00000260: 6dc9 903e cb15 113e a1e5 12be 94ba f6be
00000270: 9d46 203e 01f1 19be a987 bf3e 2273 9bbd
00000280: d941 a53b 4e9f 233e b2b0 afbd bd07 353e
00000290: 81dc 33be b337 10be 84a2 f33d 9a9d eebc
000002a0: 723d 11be e2b8 a63d 74ca 4d3d 7965 dcbd
000002b0: 7f97 ebbd e928 3b3d 5408 48be 2442 413d
000002c0: 0ffe 88be ec46 fa3d 22fe bb3d e3ec 493e
000002d0: 2ea2 c43d e04f b73c 9f37 d53e 8339 b13e
000002e0: fce9 7fbd bf7e dabd 50c8 18bd 8e6f d3b9
000002f0: b9b5 003d 3429 833e 8eff b53d 9951 513e
00000300: e1fd 18be 899f 6bbe 6e4f cb3d 4f3b 02be
00000310: 77da 35be 81e4 e0bc 20ed 4f3e a77a 983e
00000320: 2425 3a3d 1838 d2bc 8bc8 dc3c 324f 41bd
00000330: 7363 e2bd 91fa cdbc 54f3 37bc 0b6f 25be
00000340: 7971 5ebd 6781 b2bd 81e5 41bd ea4c 3ebe
00000350: 2c3e 92bc b92f 373e 2b4c d13e a663 de3d
00000360: 0af0 293d c9a4 013d d458 803e 2ae0 d9be
00000370: e19c bdbe 29dc 1f3e 6a25 1d3e a9e9 103c
00000380: 51eb 7dbd 7e7c 26bd 234e 3b3e 4e98 c8bd
00000390: e58a c6bd 7b1d 13be 36f0 393e ee87 9abd
000003a0: 3365 7ebe a667 193d f159 3c3c 5871 adbc
000003b0: 28d9 f2bd 4d2c 06be ee32 99bc c320 05be
000003c0: fb4d e13d d60a 8fbe 223e 41be 8f08 f1bd
000003d0: aebe ca3d 32b7 d3bd 9c2c 3b3e a96e f23d
000003e0: 7356 8b3e 1a07 503e 5c85 bd3d 2610 993d
000003f0: 356e 25bc b0d3 6dbe f779 c1be 530a 2ebe

rnn.weight_hh_l1 f4 [136, 34]
-0.010766869 -0.1074391 -0.09394117 0.16490881 0.036309365 -0.11014983 -0.36346042 0.18472752
-0.09870215 -0.21189778 -0.13350084 0.04807184 -0.15316036 -0.13061473 0.0121478615 -0.10214068
0.094498016 -0.23446923 -0.019403454 -0.18521762 0.018262109 0.04457405 0.0053979377 0.081845425
0.024916384 -0.08405225 -0.0018043189 0.19453952 0.12142973 -0.1589185 0.0015690323 0.24131238
-0.06001364 -0.28730676 -0.10694763 0.20323808 0.27288717 -0.07475291 0.16646074 0.054610953
0.15511517 -0.12887342 0.13843764 0.09180497 -0.101632364 -0.046239093 0.18421566 0.15181924
-0.08761335 0.15406066 -0.14822558 0.089826725 0.081611454 0.09859616 -0.11837532 -0.020979052
0.024535649 0.15026492 -0.11077978 0.004934754 -0.288671 0.0004248101 -0.14458293 -0.17367893
0.013131632 -0.003294675 0.14872515 0.19043227 -0.113962 0.13292572 -0.40204433 -0.06524775
-0.12716834 0.24844947 -0.08422089 -0.12694664 -0.28885245 -0.1920841 -0.05374167 -0.016543565
-0.045835905 -0.008716011 -0.050384868 0.28773513 -0.22928208 -0.12746993 -0.23310058 -0.14772817
-0.29287767 -0.08960555 -0.3921852 -0.11358222 -0.18394697 0.28091344 -0.065864556 0.04772247
0.10473652 0.15323831 -0.09855563 0.12919936 0.21321046 0.005604727 0.26118216 0.15840204
0.14160748 -0.28138524 0.027550485 -0.08663809 0.11201254 -0.14601885 0.09571385 0.022080718
0.08284017 -0.13137378 -0.0855737 0.035436645 -0.14990684 0.029883852 -0.046028547 0.17052253
0.08495343 -0.101777576 -0.13611965 0.11018776 -0.13805157 0.15815979 0.03926174 -0.12583943
-0.033079702 -0.011874204 -0.19998018 0.1717797 -0.021603277 -0.18934433 0.13265474 0.3135748
-0.18112768 0.48690948 -0.38329455 -0.3177036 0.20568992 0.36002788 0.34089515 -0.4200151
0.05619624 0.17450193 0.19455716 -0.11751268 0.4681253 0.013088134 -0.42214867 -0.14928024
0.09817365 0.02178089 -0.09443673 -0.074442625 -0.2864161 0.009229574 0.31263822 0.07775957
-0.120832816 -0.124522604 -0.24576843 -0.14165565 0.44662833 -0.28734934 -0.31170714 -0.31794965
0.11997416 0.6665956 -0.028621573 0.23332359 -0.009106882 -0.11575059 -0.2173905 0.10676304
0.06033931 -0.21674554 -0.23022887 0.16792054 -0.0079339985 0.112942435 0.06954194 0.22175053
-0.16266438 0.15057597 -0.21873888 0.009358617 0.047836907 0.00035742437 -0.26448905 -0.11707311
-0.24515194 -0.15553375 -0.1388067 0.31716305 -0.15486157 -0.011663914 0.055531953 -0.20954685
0.020156227 0.23653826 0.28600025 -0.10923556 -0.19161257 0.30706936 0.040203094 -0.15050283
0.024184857 -0.17389993 0.42324954 -0.2926694 -0.124860056 0.39170143 0.046974987 -0.1067221
0.24815203 0.06769716 -0.29883704 -0.018665843 -0.06901671 0.10448131 0.0056923646 -0.24024005
0.08611909 -0.014905482 -0.13344741 0.13700938 0.13594635 -0.056133833 -0.30223182 0.27176985
0.143817 0.035398796 -0.06550592 -0.18133973 -0.001480987 0.11472414 -0.25105172 0.26218373
0.014491445 -0.37490958 0.13076474 0.1211335 0.2863863 -0.49080217 -0.09184559 0.18963616
0.02949763 0.09235613 0.053485613 0.032642346 -0.089891054 0.07507092 0.14033447 -0.13457598
00000000: 8667 30bc 0809 dcbd 3a64 c0bd dbdd 283e
00000010: 21b9 143d 3c96 e1bd 7c17 babe 3629 3d3e
00000020: 5a24 cabd bbfb 58be 72b4 08be fae6 443d
00000030: 12d6 1cbe debf 05be d307 473c 222f d1bd
00000040: 2d88 c13d b418 70be fef3 9ebc b0a9 3dbe
00000050: 6b9a 953c 4793 363d 2fe1 b03b 939e a73d
00000060: 721d cc3c 9623 acbd e57e ecba 5e35 473e
00000070: 26b0 f83d 88bb 22be fda7 cd3a 981a 773e
00000080: ddd0 75bd df19 93be 5c07 dbbd a51d 503e
00000090: deb7 8b3e 0e18 99bd af74 2a3e bcaf 5f3d
000000a0: 83d6 1e3e 65f7 03be 99c2 0d3e 3e04 bc3d
000000b0: a124 d0bd 3465 3dbd 08a3 3c3e 8176 1b3e
000000c0: a16e b3bd 14c2 1d3e 72c8 17be 13f7 b73d
000000d0: e823 a73d c9ec c93d c36e f2bd 43dc abbc
000000e0: fcfe c83c 0cdf 193e 82e0 e2bd b8b3 a13b
000000f0: afcc 93be 0cb9 de39 8c0d 14be e4d8 31be
00000100: 0e26 573c 79eb 57bb 684b 183e ad00 433e
00000110: e964 e9bd ae1d 083e c1d8 cdbe 9da0 85bd
00000120: 6b38 02be 8a69 7e3e 017c acbd 4dfe 01be
00000130: 78e4 93be b2b1 44be 3a20 5cbd 5f86 87bc
00000140: 6ebe 3bbd 9acd 0ebc 5d60 4ebd 0552 933e
00000150: ecc8 6abe 7a87 02be ebb1 6ebe 0e46 17be
00000160: 10f4 95be 1d83 b7bd 80cc c8be cc9d e8bd
00000170: 985c 3cbe e3d3 8f3e ffe3 86bd a378 433d
00000180: 1a80 d63d 81ea 1c3e 89d7 c9bd d64c 043e
00000190: d853 5a3e dca7 b73b abb9 853e 2534 223e
000001a0: 8d01 113e ba11 90be 8eb1 e13c 506f b1bd
000001b0: d566 e53d f785 15be 9f05 c43d 9fe2 b43c
000001c0: 1ba8 a93d d986 06be 4441 afbd 0426 113d
000001d0: 2e81 19be fbce f43c 6e88 3cbd 759d 2e3e
000001e0: 10fc ad3d c370 d0bd f362 0bbe 1faa e13d
000001f0: 645d 0dbe a4f4 213e ebd0 203d 0ddc 00be
00000200: 957e 07bd 058c 42bc 9bc7 4cbe 05e7 2f3e
00000210: 5bf9 b0bc 7be3 41be a5d6 073e e08c a03e
00000220: 8979 39be 334c f93e 2f3f c4be 0caa a2be
00000230: 61a0 523e 9355 b83e cf89 ae3e 380c d7be
00000240: 072e 663d a2b0 323e fe39 473e 7daa f0bd
00000250: 1fae ef3e 9d6f 563c df23 d8be ebdc 18be
00000260: 440f c93d d66d b23c 0b68 c1bd 6075 98bd
00000270: 22a5 92be a437 173c 1e12 a03e 6940 9f3d
00000280: 3277 f7bd b505 ffbd b8aa 7bbe 2e0e 11be
00000290: 78ac e43e 741f 93be 1498 9fbe 4cca a2be
000002a0: 03b5 f53d 02a6 2a3f ca77 eabc 61ec 6e3e
000002b0: 0835 15bc a50e edbd 9d9b 5ebe 95a6 da3d
000002c0: 5a26 773d 8bf2 5dbe 1ec1 6bbe 5df3 2b3e
000002d0: 9afd 01bc 5d4e e73d 016c 8e3d 9212 633e
000002e0: 7e91 26be 9630 1a3e 16fd 5fbe e254 193c
000002f0: a2f0 433d b064 bb39 1c6b 87be 07c4 efbd
00000300: 1c09 7bbe 3d44 1fbe 5823 0ebe 3263 a23e
00000310: 0894 1ebe 001a 3fbc 7975 633d 7393 56be
00000320: ac1e a53c 1637 723e a06e 923e e5b6 dfbd
00000330: 1636 44be 3238 9d3e 00ac 243d 6a1d 1abe
00000340: 521f c63c d312 32be 2ab4 d83e c3d8 95be
00000350: a1b6 ffbd 178d c83e d868 403d 1e91 dabd
00000360: 911b 7e3e cfa4 8a3d 2b01 99be 1ce9 98bc
00000370: a258 8dbd 4cfa d53d 0487 ba3b 7d01 76be
00000380: 355f b03d 1f36 74bc 70a6 08be 304c 0c3e
00000390: 8535 0b3e 97ec 65bd 21be 9abe 6b25 8b3e
000003a0: c344 133e 54fe 103d f827 86bd 1fb1 39be
000003b0: ad1d c2ba 7df4 ea3d da89 80be f23c 863e
000003c0: 876d 6d3c 26f4 bfbe 31e7 053e d714 f83d
000003d0: 3aa1 923e 6c4a fbbe 8a19 bcbd fb2f 423e
000003e0: 04a5 f13c 3625 bd3d bb13 5b3d fbb3 053d
000003f0: cd18 b8bd c8be 993d d7b3 0f3e 49ce 09be

rnn.bias_ih_l1 f4 [136]
-0.19646497 -0.07127392 -0.27553004 -0.12572567 0.31661975 -0.031773396 0.12536629 0.16424043
-0.059433106 -0.016195934 -0.106706716 0.077987835 -0.06141799 -0.048814785 0.12577635 0.04501283
-0.07936972 0.03364695 -0.11087111 -0.1492049 -0.22255976 0.067432605 0.21762109 -0.06934708
-0.04706887 -0.16853774 0.08019185 -0.09549006 0.023951566 -0.20765004 -0.061935116 0.015519346
-0.1716877 -0.18104926 -0.21705297 0.14182028 -0.18009007 0.3167819 0.14714193 -0.05939992
0.3841111 0.0060781683 -0.059969574 0.115038306 0.045053333 -0.05050834 0.20233722 -0.12920819
0.06678467 0.07300505 0.18611433 -0.14112742 -0.0045843585 -0.17276765 -0.16119221 -0.047111012
0.20524998 0.035951514 0.012717767 -0.1823648 -0.07013629 -0.16723944 -0.06221524 -0.1244147
0.06287921 0.08866977 0.026628748 0.15923162 0.025068328 -0.022230366 -0.079307266 -0.044604346
0.08895202 0.09382894 0.1362223 -0.05895315 0.14416453 -0.01507416 -0.08911078 -0.020896932
0.21042176 -0.15188105 0.061831366 -0.068259865 0.11809986 0.084784925 -0.17398675 -0.06537318
0.05647518 -0.107798 0.23313084 -0.14364588 -0.04869467 -0.088243455 0.091749236 -0.14484705
-0.027987655 0.00093993044 -0.1179868 -0.10153968 -0.12939318 0.100867756 -0.0039564525 -0.023973668
-0.19357352 0.122611776 0.19270101 -0.120063595 0.14782777 -0.10465556 0.158549 -0.043301877
0.043112885 -0.15545179 -0.025678605 -0.05562705 0.020657059 -0.1755562 0.11412475 0.10709553
0.1128199 -0.108310685 -0.17407152 -0.031004326 0.09574264 0.033598565 -0.06220806 -0.18001358
-0.13303572 -0.28124294 -0.14068301 -0.11881617 -0.08011823 0.01953869 -0.033887405 0.107842185
00000000: 1d2e 49be 10f8 91bd 4612 8dbe 3bbe 00be
00000010: fc1b a23e d224 02bd 0560 003e a52e 283e
00000020: 2170 73bd 56ad 84bc 0d89 dabd 16b8 9f3d
00000030: 6e91 7bbd 03f2 47bd 84cb 003e 605f 383d
00000040: 978c a2bd 62d1 093d 6410 e3bd 2bc9 18be
00000050: b5e6 63be 1b1a 8a3d 10d8 5e3e d805 8ebd
00000060: 4acb 40bd 2895 2cbe a03b a43d 4b90 c3bd
00000070: 1336 c43c 36a2 54be adaf 7dbd db44 7e3c
00000080: e7ce 2fbe fa64 39be 2243 5ebe 5639 113e
00000090: 8869 38be 3d31 a23e 60ac 163e 554d 73bd
000000a0: 36aa c43e 5f2b c73b a8a2 75bd 3499 eb3d
000000b0: d889 383d d5e1 4ebd 7d31 4f3e 274f 04be
000000c0: 67c6 883d ac83 953d c194 3e3e b583 10be
000000d0: 6338 96bb 01ea 30be 920f 25be 7af7 40bd
000000e0: 0d2d 523e e541 133d 2e5e 503c d7bd 3abe
000000f0: 9da3 8fbd d140 2bbe 68d5 7ebd 22cd febd
00000100: d1c6 803d 7f98 b53d 8824 da3c 9d0d 233e
00000110: 185c cd3c 751c b6bc d96b a2bd 0cb3 36bd
00000120: 7a2c b63d 6329 c03d dc7d 0b3e dc78 71bd
00000130: de9f 133e 9cf9 76bc b67f b6bd 0b30 abbc
00000140: cd78 573e b586 1bbe e342 7d3d d4cb 8bbd
00000150: 57de f13d b8a3 ad3d 9529 32be 60e2 85bd
00000160: 8552 673d 33c5 dcbd dab9 6e3e e817 13be
00000170: 1074 47bd fcb8 b4bd 06e7 bb3d c952 14be
00000180: 5e46 e5bc aa65 763a 10a3 f1bd 09f4 cfbd
00000190: a57f 04be c193 ce3d 21a5 81bb 6d64 c4bc
000001a0: 2338 46be e21b fb3d 6a53 453e e7e3 f5bd
000001b0: 2a60 173e a755 d6bd ab5a 223e 4f5d 31bd
000001c0: 2397 303d c12e 1fbe f05b d2bc 31d9 63bd
000001d0: fe38 a93c 01c5 33be 3dba e93d e754 db3d
000001e0: 1f0e e73d fed1 ddbd ce3f 32be c9fc fdbc
000001f0: b814 c43d a69e 093d e1cd 7ebd 7b55 38be
00000200: 843a 08be 13ff 8fbe 350f 10be e455 f3bd
00000210: 0715 a4bd 9a0f a03c 85cd 0abd 5ddc dc3d

rnn.bias_hh_l1 f4 [136]
-0.0785522 -0.06662676 -0.27039853 -0.007601942 0.24868642 -0.23289868 0.20872915 -0.15397935
0.07899088 -0.035342902 0.027969882 0.029882627 -0.18261084 0.061083164 0.16175549 0.07884083
0.21835311 -0.1216263 -0.010424568 -0.15074748 0.05749046 -0.20606034 0.2092366 -0.121868
0.094125636 -0.086187206 -0.091426976 -0.24424379 0.04873554 -0.19744273 0.016966155 -0.036128484
-0.11736969 0.062021974 -0.16226737 0.05157196 0.0023481362 0.19929647 0.35025397 -0.024667298
0.30747736 0.3014641 0.020640915 0.13073836 -0.12753423 0.0836648 0.07948714 -0.18297453
-0.029255725 0.10486864 0.20307429 -0.037793513 0.056088522 0.13667318 -0.011908236 -0.102903016
0.17652562 -0.13998468 -0.08532332 0.041439574 0.22250395 0.02537212 -0.08750022 -0.19933885
-0.17397258 0.14632258 -0.056435667 0.17050806 0.06457582 0.02113724 -0.012337662 -0.020337647
0.17651106 -0.07680917 -0.05029712 -0.034872957 0.03204647 0.068230465 -0.03381874 -0.094458796
-0.055705097 0.07655447 -0.04067288 -0.14053264 0.12782507 0.1622503 0.12616444 0.027950399
-0.019261919 0.12792775 0.22255817 0.13772781 0.11315578 0.09884407 -0.08198138 0.0024518522
0.07971225 -0.13291845 0.08788043 9.663248e-05 -0.049361236 0.14088778 -0.15222448 -0.098664746
0.0035569717 0.21833563 0.13924332 -0.07027426 0.008638908 0.021155063 0.17739598 0.07013681
0.007942746 -0.056633666 -0.16363303 -0.14377609 0.1514682 0.04407441 0.17330788 0.02378366
-0.13977839 -0.0050628483 0.048605446 -0.051377878 0.15676732 -0.086204804 -0.1259919 0.10157803
0.04611108 -0.18928884 -0.17118359 -0.14520563 -0.13579653 -0.011655699 0.031086896 -0.13856457
00000000: fadf a0bd 9c73 88bd ad71 8abe b619 f9bb
00000010: a7a7 7e3e fe7c 6ebe 18bd 553e c3ac 1dbe
00000020: f8c5 a13d b8c3 10bd 1821 e53c 69cc f43c
00000030: 56fe 3abe 5732 7a3d 3ba3 253e 4d77 a13d
00000040: f597 5f3e 3617 f9bd cfcb 2abc 8c5d 1abe
00000050: 1e7b 6b3d 7b01 53be 1f42 563e ee95 f9bd
00000060: f1c4 c03d eb82 b0bd 113e bbbd 0b1b 7abe
00000070: eb9e 473d 6d2e 4abe 9bfc 8a3c 76fb 13bd
00000080: 855f f0bd c10a 7e3d 6b29 26be 1f3d 533d
00000090: 30e3 193b 6014 4c3e 7d54 b33e 1313 cabc
000000a0: ac6d 9d3e 8159 9a3e 2317 a93c 47e0 053e
000000b0: 5598 02be 7358 ab3d 27ca a23d ad5d 3bbe
000000c0: b4a9 efbc 5fc5 d63d b5f2 4f3e 5fcd 1abd
000000d0: 14bd 653d 0ef4 0b3e c31a 43bc d1be d2bd
000000e0: 22c3 343e 2558 0fbe febd aebd 8bbc 293d
000000f0: 13d8 633e 31d9 cf3c 5133 b3bd 7c1f 4cbe
00000100: de25 32be 96d5 153e 1629 67bd aa99 2e3e
00000110: 5440 843d 0128 ad3c e823 4abc 239b a6bc
00000120: 51bf 343e 204e 9dbd 5a04 4ebd f2d6 0ebd
00000130: 2943 033d 6abc 8b3d 8585 0abd 9d73 c1bd
00000140: 072b 64bd 97c8 9c3d 9b98 26bd cae7 0fbe
00000150: 93e4 023e f124 263e 4031 013e 3cf8 e43c
00000160: 2ccb 9dbc 7eff 023e 4ae6 633e 8508 0d3e
00000170: 38be e73d c36e ca3d dbe5 a7bd 41af 203b
00000180: 2d40 a33d c61b 08be a8fa b33d 2ba7 ca38
00000190: 022f 4abd e344 103e bce0 1bbe be10 cabd
000001a0: 151c 693b 6093 5f3e cd95 0e3e f4eb 8fbd
000001b0: 358a 0d3c 624d ad3c 4ba7 353e e3a3 8f3d
000001c0: 4b22 023c b4f8 67bd 6b8f 27be 0a3a 13be
000001d0: 7b1a 1b3e 5e87 343d 9f77 313e f3d5 c23c
000001e0: 1122 0fbe 40e6 a5bb 8116 473d 9c71 52bd
000001f0: 9d87 203e 258c b0bd 0504 01be 2408 d03d
00000200: f9de 3c3d efd4 41be c04a 2fbe c9b0 14be
00000210: 3f0e 0bbe 8cf7 3ebc f2a9 fe3c dfe3 0dbe

rnn.weight_ih_l2 f4 [136, 34]
-0.08388629 0.20387495 0.004808235 -0.22964528 -0.24291688 0.12513652 0.1911123 -0.10709096
0.03219278 0.106733985 0.21060576 0.1346762 0.0053018057 -0.08313875 -0.22193791 -0.094442435
-0.11543481 -0.12905857 0.1123382 -0.05321728 -0.10094933 -0.10446078 -0.046207782 -0.06135048
-0.06167607 0.17413256 -0.14332825 0.12699781 9.4983334e-05 -0.052696213 0.08644563 0.01652633
-0.01786958 -0.10099061 -0.17475669 0.08488169 0.03833523 -0.25689283 0.09445172 0.053401716
0.123912 -0.27484405 0.032096498 0.25252047 -0.044020932 0.0015133618 -0.01811624 0.21223184
-0.13085909 0.10768024 0.09411089 -0.15066198 0.03883015 -0.16938609 -0.099160336 0.008140857
0.087173074 -0.15114509 0.043310106 0.21850857 -0.032373693 -0.039348315 0.06746443 0.09261561
-0.08324308 0.14285773 0.2072898 0.1163861 0.1423878 -0.12723544 -0.3754068 -0.023006987
-0.02974944 0.23697384 0.17532063 0.06010067 -0.28010842 -0.12972683 0.11722992 0.0016830049
0.13125342 0.03156977 0.03874482 -0.10201627 -0.1278659 0.027464269 0.02333844 0.16851428
-0.16070963 -0.10403056 -0.102890536 0.03211909 0.08073786 0.011693105 -0.07080553 0.00085709983
-0.05535667 -0.01861339 -0.0818212 -0.012023535 -0.04826746 -0.0959522 -0.00075727433 -0.008164035
-0.10076742 0.000120527664 -0.21042421 0.12004303 -0.0483802 0.20942758 -0.061473224 0.007100191
0.09948868 0.076424226 0.0055931406 0.112108834 -0.1749817 0.030273126 -0.062669046 0.026105765
-0.0550317 0.08757723 -0.021326864 -0.15678805 0.045149397 0.050382696 0.0417783 0.072775766
0.12028255 0.14997292 0.16413118 0.022701694 -0.105551735 -0.034736544 0.09969657 -0.16408421
0.041392587 -0.07211117 0.20017485 0.06587547 -0.09437124 0.06988697 -0.031184636 -0.14604545
0.012531426 0.018805863 -0.114654414 0.00024446932 0.05101842 0.08399046 -0.14816146 0.17613567
-0.072597116 0.021039968 -0.07662097 0.14482765 -0.013159574 -0.036631018 0.052851506 -0.106647484
0.01953657 -0.12735164 -0.140414 -0.14758545 -0.13794298 0.007894713 -0.16798593 -0.013835527
-0.020531608 -0.040718105 0.00047715203 0.0300587 -0.29820475 -0.22773676 -0.35207364 -0.048546933
0.1674635 -0.15053897 -0.20434676 -0.09050769 -0.11447762 0.09034705 0.21861412 0.06373694
-0.1272603 0.012734187 -0.06775368 -0.12565129 -0.11384624 -0.13092561 -0.06940887 -0.095136605
-0.28458443 -0.2036801 -0.20573813 0.23547666 -0.33842054 -0.29442188 0.06164706 0.117715314
-0.22250658 -0.03516217 0.20028201 -0.1560072 0.008886722 0.036995914 -0.25792852 0.10962345
0.20885718 0.04286039 0.14051022 -0.06896161 -0.14654855 0.27109662 0.044451006 0.14258866
0.20743605 0.15351515 -0.06367435 -0.1776504 -0.0073199742 -0.008917029 -0.11614872 0.022786748
0.17766942 0.16221759 -0.062273193 0.16455428 -0.083745375 0.08553591 -0.11018232 0.011112141
-0.03648751 -0.036251724 -0.1602666 -0.14681178 0.09180445 0.11923611 0.014200045 -0.04389653
0.018242644 -0.060725108 0.05998299 0.22864385 -0.07383209 -0.13279332 -0.16032636 -0.015930155
0.016289454 -0.031837802 -0.047433756 0.19626059 0.009638381 0.1304649 -0.07055727 0.08855397
00000000: 93cc abbd 98c4 503e 668e 9d3b 2228 6bbe
00000010: 34bf 78be ca23 003e f1b2 433e 8152 dbbd
00000020: 94dc 033d 5997 da3d 09a9 573e 8fe8 093e
00000030: c5ba ad3b a644 aabd b143 63be 096b c1bd
00000040: 1669 ecbd ee27 04be 9211 e63d 5dfa 59bd
00000050: 86be cebd 89ef d5bd 5f44 3dbd a44a 7bbd
00000060: 0ca0 7cbd ce4f 323e a4c4 12be b70b 023e
00000070: ca31 c738 fcd7 57bd 680a b13d 3a62 873c
00000080: 3a63 92bc 2ad4 cebd 6bf3 32be 74d6 ad3d
00000090: 6705 1d3d 7587 83be e76f c13d c2bb 5a3d
000000a0: 93c5 fd3d 5cb8 8cbe 9e77 033d 5d4a 813e
000000b0: 4b4f 34bd ff5b c63a 8268 94bc 4e53 593e
000000c0: edff 05be 7587 dc3d 36bd c03d 2247 1abe
000000d0: 5d0c 1f3d 8c73 2dbe 9314 cbbd 3b61 053c
000000e0: cc87 b23d c7c5 1abe f065 313d b6c0 5f3e
000000f0: 479a 04bd b32b 21bd cb2a 8a3d 41ad bd3d
00000100: 597b aabd 4c49 123e c743 543e d65b ee3d
00000110: 1cce 113e 024a 02be 5235 c0be 2679 bcbc
00000120: 19b5 f3bc 45a9 723e 4087 333e 1f2c 763d
00000130: 5f6a 8fbe 1cd7 04be 3e16 f03d 4698 dc3a
00000140: 4c67 063e 4e4f 013d e3b2 1e3d e8ed d0bd
00000150: 47ef 02be bffc e03c 4230 bf3c 028f 2c3e
00000160: 1191 24be f90d d5bd 46b8 d2bd 4f8f 033d
00000170: e459 a53d 7094 3f3c 7d02 91bd ffae 603a
00000180: adbd 62bd 1c7b 98bc e091 a7bd 5cfe 44bc
00000190: 1ab4 45bd 9682 c4bd d283 46ba 72c2 05bc
000001a0: 265f cebd ccc3 fc38 7279 57be 1fd9 f53d
000001b0: 512a 46bd 2f74 563e 59cb 7bbd b8a8 e83b
000001c0: b9c0 cb3d 4e84 9c3d aa46 b73b 5199 e53d
000001d0: 672e 33be 59ff f73c a158 80bd c2db d53c
000001e0: eb68 61bd b15b b33d adb5 aebc 0c8d 20be
000001f0: 93ee 383d 165e 4e3d b91f 2b3d 760b 953d
00000200: b356 f63d 8092 193e 0112 283e e7f8 b93c
00000210: 822b d8bd e847 0ebd b72d cc3d b105 28be
00000220: 468b 293d 05af 93bd a3fa 4c3e b8e9 863d
00000230: b545 c1bd e620 8f3d ec76 ffbc f08c 15be
00000240: 9c50 4d3c c10e 9a3c efcf eabd 1e2c 8039
00000250: b1f8 503d 3103 ac3d a3b7 17be e95c 343e
00000260: ccad 94bd 035c ac3c 75eb 9cbd b34d 143e
00000270: 419b 57bc 680a 16bd d27a 583d ff69 dabd
00000280: 280b a03c 7868 02be b0c8 0fbe a420 17be
00000290: ed40 0dbe d458 013c 8104 2cbe 68ae 62bc
000002a0: e731 a8bc 07c8 26bd 432a fa39 aa3d f63c
000002b0: 4bae 98be d333 69be ff42 b4be 26d9 46bd
000002c0: 8d7b 2b3e e326 1abe 4740 51be 195c b9bd
000002d0: 3e73 eabd e007 b93d 61dc 5f3e 8388 823d
000002e0: 8650 02be 0da3 503c 71c2 8abd bbaa 00be
000002f0: 3828 e9bd 5d11 06be 3d26 8ebd fbd6 c2bd
00000300: 0db5 91be 8491 50be 04ad 52be cb20 713e
00000310: 7545 adbe 77be 96be a181 7c3d ba14 f13d
00000320: c4d8 63be 3506 10bd ba16 4d3e 5ac0 1fbe
00000330: 9d99 113c 0789 173d 350f 84be 4282 e03d
00000340: a8de 553e 608e 2f3d e9e1 0f3e bf3b 8dbd
00000350: d310 16be 2dcd 8a3e 4212 363d c302 123e
00000360: 1e6a 543e 1333 1d3e b367 82bd fde9 35be
00000370: 65dc efbb bb18 12bc 61df edbd 46ab ba3c
00000380: f9ee 353e 5e1c 263e 2d12 7fbd eb80 283e
00000390: b282 abbd 742d af3d 45a7 e1bd b30f 363c
000003a0: ed73 15bd b07c 14bd ed1c 24be d455 16be
000003b0: f903 bc3d 1032 f43d 4ea7 683c d9cc 33bd
000003c0: 9971 953c e4ba 78bd b9b0 753d 9d21 6a3e
000003d0: 4735 97bd f9fa 07be 982c 24be f57f 82bc
000003e0: 7671 853c 5b68 02bd e649 42bd 89f8 483e
000003f0: 4dea 1d3c 9798 053e 5480 90bd c95b b53d
