notebooks/best_model_part_hs.pth (torch, 747098 bytes, 25 tensors)

rnn.weight_ih_l0 f4 [256, 10]
0	0x3e0f0bd6	0.13969359
1	0xbdf96258	-0.12176961
2	0x3d1027e3	0.03519429
3	0x3d2a63c4	0.04159905
4	0x3d41ecbb	0.047344904
5	0xbbba7c62	-0.005691097
6	0xbd104a41	-0.035227064
7	0x3c895343	0.016763335
8	0x3db0658b	0.08613118
9	0xbd2561e9	-0.040376578
10	0x3cb880d3	0.022522366
11	0x3e205946	0.15659055
12	0x3df05fce	0.11737023
13	0xbd262d4b	-0.04057054
14	0x3cd9a686	0.026568662
15	0x3db031fb	0.08603283
16	0xbcf44693	-0.029818809
17	0xbbac5977	-0.0052596885
18	0xbbaeaa09	-0.0053303284
19	0x3c4fe711	0.012689368
20	0xbde3b454	-0.11118379
21	0xbd25fadd	-0.040522445
22	0xbde163c6	-0.110053584
23	0x3dd03e65	0.10168151
24	0x3d95ac2f	0.07308232
25	0x3cd20665	0.025637815
26	0x3d9f1bc7	0.0776897
27	0x3cb15c79	0.02165054
28	0x3e19b88f	0.1501181
29	0x3d2e694a	0.04258088
30	0x3be6efcb	0.0070476285
31	0xbd49884d	-0.049202252
32	0xbc7662ab	-0.015038173
33	0x3d9c2b17	0.07625406
34	0xbbb30dc6	-0.0054642884
35	0xbcb7018e	-0.022339609
36	0xbe09bd23	-0.13451056
37	0x3e064534	0.13112336
38	0xbd867fda	-0.065673545
39	0x3b31ee1d	0.0027149983
40	0x3d25e6b5	0.040503222
41	0xbe23ed5c	-0.16008514
42	0x3e995c14	0.29953063
43	0xbbcc3d82	-0.0062329182
44	0x3d4a8e7b	0.049452286
45	0x3e004cfa	0.12529364
46	0xbe0a3e53	-0.13500337
47	0xbce93de2	-0.02847189
48	0xbccfbce5	-0.025358627
49	0xbe184c2a	-0.14872804
50	0xbcb92c45	-0.022604117
51	0xbdcd90da	-0.10037394
52	0xbd728309	-0.059206996
53	0x3cf13a61	0.029446783
54	0xbd23d4e1	-0.03999794
55	0x3e0ca735	0.1373566
56	0xbdb8cea2	-0.09023787
57	0xbdcd9fe9	-0.10040266
58	0x3c569269	0.01309643
59	0xbccc22da	-0.024918962
60	0x3cb9656f	0.022631375
61	0xbd86739d	-0.0656502
62	0x3c9465df	0.018114982
63	0x3c8be933	0.017078971
64	0xbc9423a2	-0.018083397
65	0x3da10a9c	0.07863352
66	0xbcd6f5b2	-0.026240204
67	0xbdc5f1ae	-0.09665237
68	0x3d5654b3	0.05232687
69	0x3d65a314	0.056063727
70	0xbdf9152f	-0.121622436
71	0xbbdf9513	-0.006823191
72	0x3c3a9057	0.011386952
73	0x3dab32d8	0.08359307
74	0x3dcc1519	0.099649616
75	0x3d687088	0.056747943
76	0x3d0e056f	0.03467315
77	0x3e40e295	0.18836434
78	0x3bcbd2ac	0.0062201824
79	0x3d8b29a2	0.0679505
80	0x3d776c1c	0.060405836
81	0x3df6a998	0.12044066
82	0x3e6c6a8f	0.23087524
83	0xbccd7ef5	-0.025084952
84	0x3db9acef	0.090661876
85	0x3df98e27	0.121853165
86	0x3c7fcb6b	0.0156124635
87	0xbda58b03	-0.08083155
88	0x3d50b43c	0.050953135
89	0x3e0e1521	0.13875248
90	0x3d1c4e45	0.03816058
91	0x3d03af1e	0.032149427
92	0xbde71536	-0.112833425
93	0x3d8542ec	0.06506905
94	0x3d6ed454	0.05830796
95	0xbc932fea	-0.017967183
96	0xbdb41c75	-0.0879449
97	0x3e0f65db	0.14003699
98	0x3dfe4870	0.1241616
99	0x3d67cb6f	0.056590494
100	0xbda5e95c	-0.081011504
101	0xbcbeb77c	-0.023280852
102	0xbded1aa4	-0.11577347
103	0x3dc66f99	0.09689254
104	0xbe13fe62	-0.14452508
105	0xbdafb472	-0.08579339
106	0x3d453e03	0.048154842
107	0xbd79d57b	-0.060994606
108	0x3d03555a	0.03206382
109	0x3b3357f2	0.0027365652
110	0xbdb6156f	-0.08890807
111	0xbdb9744a	-0.090553835
112	0xbd001f7d	-0.03128003
113	0x3cc4802d	0.0239869
114	0xbdb4549b	-0.088052
115	0x3d61a026	0.05508437
116	0x3da9b28f	0.082860105
117	0x3d11e950	0.035622895
118	0x3e6cfbb8	0.23142898
119	0xbce27315	-0.027642766
120	0x3da4d977	0.080492906
121	0xbd1a0f0d	-0.03761201
122	0xbd292de7	-0.04130354
123	0xbc268867	-0.010164357
124	0x3df38a90	0.11891663
125	0x3d373619	0.044729326
126	0x3de46672	0.111523524
127	0xbaaa8168	-0.0013008537
128	0xbc26c240	-0.010178149
129	0x3d833ec5	0.06408457
130	0x3d0aacea	0.03385631
131	0x3c80e175	0.015732506
132	0x3d10de5c	0.03536831
133	0xbbd4fac2	-0.006499619
134	0xbe28e63b	-0.16494076
135	0xbb398da0	-0.0028313175
136	0x3e14ff91	0.14550616
137	0xbe108d6e	-0.14116451
138	0xbb39ff1d	-0.002838082
139	0x3d7600af	0.060059246
140	0x3e66ddae	0.22545502
141	0xbb1c2473	-0.0023825436
142	0x3dc625f1	0.096752055
143	0x3d10a8e7	0.035317328
144	0xbdd04bd7	-0.10170715
145	0x3e1b6d17	0.15178333
146	0x3cbdeca0	0.02318412
147	0x3d713591	0.058888976
148	0xbe0e51d5	-0.13898404
149	0xbccc8d5e	-0.024969753
150	0xbd7e350e	-0.062062316
151	0x3e4615ef	0.19344305
152	0x3d9addf7	0.07561868
153	0x3b9ca87f	0.0047808285
154	0x3e22a1a6	0.15881976
155	0x3d2533f7	0.04033276
156	0x3d0a88cc	0.033821866
157	0xbd27bca1	-0.040951375
158	0x3e1cf5a6	0.15328082
159	0x3d79784c	0.06090574
160	0xbde47640	-0.11155367
161	0xbdfb3053	-0.122650765
162	0xbda1d813	-0.07902541
163	0x3c2ee5b2	0.010674881
164	0xbd54326f	-0.05180591
165	0x3b9fe5cf	0.0048796902
166	0xbcd22d21	-0.025656285
167	0x3d05baec	0.032648966
168	0x3de75695	0.11295811
169	0x3d85f892	0.06541552
170	0x3d7c38a3	0.06157745
171	0x3dbe3703	0.092878364
172	0x3c8da296	0.017289441
173	0xbd90b355	-0.07065455
174	0x3d27cb63	0.04096545
175	0x3e17c637	0.14821707
176	0x3d87ad2a	0.06624825
177	0xbdf2a5f9	-0.11848063
178	0x3d786761	0.060645465
179	0x3db2363f	0.08701753
180	0x3e13ac3d	0.14421172
181	0xbdb17f89	-0.086669035
182	0x3d4c0342	0.049807794
183	0x3d3f4ea7	0.046705868
184	0x3d9d4891	0.076798566
185	0x3c15e46b	0.009148697
186	0xbe0356f1	-0.12826134
187	0xbca10700	-0.019656658
188	0xbe26054e	-0.16212961
189	0x3e2a41cf	0.16626666
190	0x3dc5530b	0.0963498
191	0x3e01a2f8	0.12659824
192	0xbda7214b	-0.08160647
193	0x3d33354a	0.043751992
194	0xbca6bc28	-0.020353392
195	0x3c8064ae	0.015673008
196	0xbd08ea13	-0.033426356
197	0xbc357b6f	-0.011076792
198	0x3d8ac26d	0.06775365
199	0x3cffde0c	0.03123381
200	0xbc93f577	-0.018061383
201	0xbd73e046	-0.059540056
202	0xbd6e7cde	-0.05822455
203	0xbd77e0b5	-0.06051703
204	0x3d61406a	0.05499307
205	0xbafe6ef4	-0.0019411729
206	0xbdf13676	-0.11777966
207	0xbcdc17b8	-0.026866779
208	0xbdfc534f	-0.12320577
209	0x3dcc609e	0.09979366
210	0x3e4d0a8c	0.20023555
211	0x3cbca4d9	0.023027824
212	0xbcaadfb3	-0.020858621
213	0x3db2bf5c	0.08727905
214	0x3d0143ba	0.03155873
215	0x3e1630ba	0.14667025
216	0x3d54192b	0.051781815
217	0x3da393ef	0.079872005
218	0xbdaa0b5f	-0.0830295
219	0xbd588ee4	-0.052870646
220	0xbde99fd7	-0.1140744
221	0xbc9d2d29	-0.019186573
222	0xbe20f6f9	-0.15719213
223	0x3db7942e	0.0896381
224	0xbb7a5f6f	-0.0038203856
225	0xbdd6ce5a	-0.10488577
226	0xbc9da45b	-0.01924341
227	0x3ddb5976	0.10710423
228	0xbd10370f	-0.035208758
229	0x3e156b90	0.14591813
230	0x3db8cb2f	0.09023129
231	0xbdbd78af	-0.09251534
232	0xbce916ad	-0.028453195
233	0xbdeae6d9	-0.11469812
234	0xbd3df5d7	-0.04637703
235	0xbd180dca	-0.037122525
236	0xbe089375	-0.133375
237	0x3e2bf4ae	0.16792557
238	0x3d940cf8	0.07229036
239	0xbc17f379	-0.009274357
240	0xbd84eeb6	-0.06490843
241	0x3d41ca0f	0.04731184
242	0x3dcdf0cc	0.10055694
243	0x3dd2434b	0.10266741
244	0x3ca30dbf	0.019904016
245	0x3da35a65	0.07976226
246	0x3b8927a3	0.0041856333
247	0xbdb7111c	-0.0893881
248	0xbd549f33	-0.051909637
249	0x3d4b4e82	0.049635418
250	0xbd58f233	-0.052965354
251	0xbc9736b6	-0.018458705
252	0x3de68a32	0.112568274
253	0xbd5faf30	-0.05461043
254	0x3d45961d	0.048238862
255	0x3dfb2ef7	0.12264817

rnn.weight_hh_l0 f4 [256, 64]
0	0xbd8072b9	-0.062718816
1	0x3d81edd9	0.06344194
2	0xbc6f845a	-0.014618957
3	0x3d470c77	0.04859587
4	0x3d95dbbb	0.07317301
5	0xbda70d6a	-0.081568554
6	0x3c27ad6e	0.01023422
7	0x3d8e8e47	0.06960731
8	0x3a62dd09	0.00086541526
9	0xbddc8fb3	-0.10769596
10	0x3c7ee6d7	0.015557966
11	0x3d408f28	0.047011524
12	0x3daf74ca	0.085671976
13	0xbdb0cab0	-0.086324096
14	0x3e0eea44	0.13956553
15	0xbe2d4bb2	-0.16923407
16	0x3e03cf13	0.12871961
17	0x3d28f5a2	0.04124988
18	0xbd5446ef	-0.05182546
19	0x3e26debf	0.16295908
20	0xbd7486b5	-0.05969878
21	0xbe09cd62	-0.13457254
22	0xbd538472	-0.05163998
23	0xbe26cc88	-0.1628896
24	0xbde1c6df	-0.1102426
25	0x3d816b65	0.06319312
26	0x3d7cc61f	0.06171238
27	0xbdd6f828	-0.10496551
28	0xbe1161eb	-0.14197509
29	0xbcb02159	-0.021500276
30	0xbcdd53be	-0.02701747
31	0xbdefc334	-0.11707154
32	0xbdcd5c38	-0.10027355
33	0x3c83e12c	0.016098581
34	0xbe10c956	-0.14139304
35	0x3d8f7beb	0.07006057
36	0xbc287582	-0.010281922
37	0xbd95511d	-0.07290862
38	0x3ca6fe00	0.020384789
39	0xbd9a66b2	-0.07539119
40	0x3dd85faf	0.10565125
41	0xbbd26eef	-0.0064219157
42	0x3c708043	0.0146790175
43	0x3d847cb2	0.06469096
44	0x3d9a3630	0.07529867
45	0x3d45135b	0.048114162
46	0xbd52a803	-0.05142976
47	0x3d7da0c6	0.061920904
48	0x3db7b90d	0.089708425
49	0x3d9de99e	0.077105746
50	0x3e1d1087	0.15338336
51	0xbdc57d06	-0.09642987
52	0xbd88000a	-0.066406325
53	0x3deebb24	0.11656788
54	0x3d4f8a66	0.050669096
55	0x3e1fb51b	0.1559643
56	0x3dd47111	0.10373128
57	0x3d98ee83	0.074673675
58	0x3d747b44	0.059687868
59	0x3d9fe4d6	0.07807319
60	0xbde0453c	-0.109507054
61	0x3dd3b91e	0.10338043
62	0xbc9e2c15	-0.01930813
63	0x3e510f92	0.20416096
64	0x3d1ec77e	0.03876447
65	0xbdd2a962	-0.102862135
66	0xbda83345	-0.08212904
67	0xbd5db59e	-0.05412828
68	0xbd77d65c	-0.060507163
69	0xbd84f5d9	-0.06492204
70	0x3dd6d68d	0.10490141
71	0xbc289b87	-0.010290987
72	0x3df05fc1	0.117370136
73	0x3db7e2c2	0.089787975
74	0x3d8bacc1	0.068200596
75	0xbdee7180	-0.11642742
76	0x3d5e8090	0.054321826
77	0x3ce7cbaa	0.028295357
78	0x3df75242	0.12076236
79	0xbd361d8a	-0.044461764
80	0xbdcdeffb	-0.10055538
81	0x3c4b305d	0.012401667
82	0xbd79406a	-0.060852446
83	0x3deea1bc	0.11651942
84	0x3d1d76ea	0.038443483
85	0xbbd7825d	-0.00657682
86	0xbd021f01	-0.03176785
87	0x3d55249a	0.05203686
88	0xbdf5e3c5	-0.12006334
89	0xbba9451e	-0.00516571
90	0x3cf07171	0.029350968
91	0xbc8b6ce4	-0.017019697
92	0xbe0cff01	-0.13769151
93	0xbd5a15c6	-0.05324342
94	0xbd2553c3	-0.040363085
95	0x3cc32213	0.023819959
96	0xbdafdde2	-0.08587243
97	0xbde79b11	-0.113088734
98	0xbc814822	-0.015781466
99	0x3da15202	0.0787697
100	0x3d006a8f	0.031351622
101	0x3dd082c9	0.10181195
102	0x3bbb3d69	0.005714108
103	0xbdd6fb8c	-0.104971975
104	0x3c80ade8	0.015707925
105	0xbd848e9f	-0.06472515
106	0x3d225bbd	0.03963827
107	0xbd0893f3	-0.03334422
108	0x3d0f2247	0.0349448
109	0x3d80fa62	0.06297757
110	0xbd80527a	-0.06265731
111	0xbdb00ea0	-0.085965395
112	0xbd8551b1	-0.06509722
113	0xbda1372b	-0.078718506
114	0x3baa5828	0.0051984973
115	0xbd8e4242	-0.069462314
116	0xbce4d683	-0.027934318
117	0x3dadd699	0.08488197
118	0xbb7bba9e	-0.0038410793
119	0x3c68e48d	0.014214647
120	0x3dc28b20	0.09499192
121	0x3dcfb9dc	0.10142872
122	0xbd8e16ee	-0.06937967
123	0x39686b76	0.00022165276
124	0xbd40a658	-0.047033638
125	0xbcccca61	-0.024998846
126	0xbd47ed32	-0.04881019
127	0x3b258cca	0.0025260919
128	0x3df08f09	0.11746032
129	0xbde8d4f9	-0.11368746
130	0x3dec36ae	0.11533867
131	0xbda02b99	-0.078208156
132	0x3e12e251	0.14344145
133	0xbcc97bad	-0.024595106
134	0x3d26e934	0.040749744
135	0x3de44cb7	0.11147445
136	0x3dfba1ac	0.12286696
137	0xbd77ac95	-0.06046732
138	0xbd6f351b	-0.058400255
139	0xbcba38f9	-0.022732245
140	0x3dc548d7	0.09633034
141	0x3d01dced	0.031704832
142	0xbe0c2dea	-0.1368939
143	0x3dba4de3	0.09096887
144	0x3d65cd98	0.056104273
145	0xbcc9f99a	-0.024655152
146	0xbdd87d0f	-0.10570728
147	0xbb4d2c90	-0.003130708
148	0x3d900ee7	0.070340924
149	0xbd5e5aa4	-0.05428566
150	0xbdce8319	-0.10083599
151	0x3d68ef6f	0.056868967
152	0x3c77c8e3	0.015123579
153	0xbd156820	-0.036476254
154	0x3c46178e	0.012090577
155	0x3d787d83	0.060666572
156	0x3d30a3c5	0.043124933
157	0xbdb5f96e	-0.088854656
158	0x3cc9e585	0.024645576
159	0xbdb6e41d	-0.08930228
160	0x3dc8ae24	0.0979884
161	0xbdf56da1	-0.11983801
162	0xbcda3dc9	-0.02664079
163	0xbdb91264	-0.09036711
164	0x3de99ac7	0.114064746
165	0x3da8e6c9	0.08247144
166	0x3d8c00f3	0.068361185
167	0xbdea3317	-0.11435526
168	0xbd902177	-0.07037633
169	0xbd94f752	-0.07273735
170	0xbc9b3f98	-0.018951222
171	0x3d52347f	0.051319595
172	0x3dbfc717	0.09364145
173	0x3dea4952	0.11439766
174	0xbc1e1f01	-0.009650947
175	0xbddaa0c4	-0.10675195
176	0x3d7a678d	0.06113391
177	0x3d6bd4f5	0.05757614
178	0xbdbed325	-0.093176164
179	0xbe0c978e	-0.13729689
180	0x3dacabb3	0.084311865
181	0x3c6ed9a5	0.014578258
182	0xbe14f682	-0.1454716
183	0x3d2da747	0.042395856
184	0xbdbdb7b7	-0.092635565
185	0x3d6d3cd6	0.057919346
186	0xbda2bb70	-0.07945907
187	0xbca1194f	-0.019665388
188	0x3c1cec90	0.009577885
189	0x3b985bbf	0.004649609
190	0xbc1e7874	-0.009672273
191	0x3e0685ea	0.13137022
192	0x3b996ede	0.004682406
193	0x3db27f7b	0.08715721
194	0x3db761ed	0.08954225
195	0xbd85fe36	-0.065426275
196	0x3d2aaf98	0.041671365
197	0xbd6f9a20	-0.058496594
198	0xbdc99219	-0.09842319
199	0xbdd042f3	-0.101690196
200	0xbd89ba0c	-0.06724939
201	0xbd36773b	-0.0445473
202	0xbd518636	-0.051153384
203	0x3deae1f5	0.11468879
204	0x3d04e89e	0.032448404
205	0xbc8f1136	-0.017464262
206	0x3d0b2cce	0.033978276
207	0xbbd25b0f	-0.0064195464
208	0xbdf915c8	-0.121623576
209	0xbd976f9c	-0.07394335
210	0xbd869ca6	-0.06572847
211	0x3a6306a1	0.00086603506
212	0x3dbe4ac9	0.09291608
213	0xbae0a2e6	-0.0017138391
214	0x3daff2a9	0.085912056
215	0xbe01ba08	-0.12668622
216	0x3d8cf68c	0.068829626
217	0xbdb93cfb	-0.09044834
218	0xbe052112	-0.13000897
219	0x3ccfaa8e	0.025349882
220	0x3dc4b475	0.09604732
221	0xbcb670b8	-0.022270545
222	0x3df6e4e6	0.12055378
223	0x3e081e44	0.13292795
224	0xbd309dda	-0.04311929
225	0x3dca7ae9	0.098867245
226	0x3dac4929	0.08412392
227	0xbdc16137	-0.094423704
228	0xbdeeae42	-0.11654331
229	0xbdbe9dc9	-0.09307439
230	0x3dc0be0f	0.09411251
231	0xbde7a698	-0.11311072
232	0x3d1d588b	0.03841452
233	0xbd6d0d8b	-0.057874244
234	0xbd82c8b5	-0.06385938
235	0xbcad651f	-0.021166382
236	0xbbfc3567	-0.0076967957
237	0x3c6f7822	0.014616044
238	0xbd9d484a	-0.07679804
239	0x3b86fb02	0.004119278
240	0x3d8d189d	0.0688946
241	0x3d9e2d8a	0.0772353
242	0xbdd4204b	-0.10357722
243	0x3dcfce99	0.10146827
244	0x3d2204ba	0.03955529
245	0x3c9d6c30	0.019216627
246	0x3ce3bbb5	0.027799467
247	0xbdce9bea	-0.10088332
248	0x3cf1c7a0	0.029514134
249	0xbd6b96b1	-0.057516757
250	0xbe06f469	-0.13179173
251	0x3da0b08a	0.07846172
252	0xbc4bb523	-0.012433323
253	0x3e12be0c	0.1433031
254	0x3dc6794c	0.09691104
255	0x3de05d9a	0.10955353

rnn.bias_ih_l0 f4 [256]
0	0x3db4a54f	0.088205926
1	0xbd16510f	-0.036698397
2	0x3e112c63	0.14177088
3	0x3e137222	0.14399007
4	0x3d9336bb	0.071881734
5	0x3da41fc5	0.08013872
6	0x3dc0c4f3	0.09412565
7	0x3cd20a10	0.025639564
8	0x3d024019	0.03179941
9	0xbc4eb4be	-0.0126163345
10	0x3dc94168	0.098269284
11	0x3de19e2b	0.11016496
12	0x3d964b69	0.07338602
13	0xbd51a4ec	-0.051182672
14	0x3ce1ed8a	0.027579088
15	0x3dad810b	0.084718786
16	0xbc0ddbc1	-0.00865835
17	0xbdda345c	-0.10654518
18	0x3e02b228	0.12763274
19	0x3dc0e726	0.09419088
20	0x3d4b929a	0.049700357
21	0x3e0dd064	0.13849026
22	0x3d63dae3	0.05562867
23	0xbcae9748	-0.02131237
24	0x3d159142	0.03651548
25	0x3df29076	0.1184396
26	0x3da0c939	0.0785088
27	0x3d29c6e3	0.04144944
28	0xbdb99646	-0.090618655
29	0xbd21cefc	-0.039504036
30	0xbd842a6f	-0.06453406
31	0x3cd8779d	0.026424224
32	0xbdcd0bf2	-0.10012044
33	0x3cbff70f	0.023433236
34	0xbc941f36	-0.018081289
35	0xbd0c6dcc	-0.034284398
36	0x3e0d967e	0.1382694
37	0x3b754c12	0.0037429375
38	0x3da84cba	0.082177594
39	0x3db02a42	0.0860181
40	0xbdbd0f98	-0.0923149
41	0x3e03d5aa	0.12874475
42	0xbb83f308	-0.0040267743
43	0x3ddca14c	0.107729524
44	0x3d912b6b	0.070883594
45	0xbd84a51b	-0.06476804
46	0xbc070c26	-0.0082426425
47	0x3d801db1	0.06255663
48	0xbacd69b9	-0.0015671767
49	0x38106606	3.4427292e-05
50	0x3d100a99	0.035166357
51	0x3dac9978	0.08427709
52	0x3dca6ee2	0.098844305
53	0x3dcd2594	0.10016933
54	0x3df6b9bb	0.12047144
55	0x3d600213	0.054689478
56	0x3dde8779	0.10865683
57	0x3bc09f59	0.0058783707
58	0x3e1d713e	0.1537523
59	0xbd5ae8e2	-0.05344475
60	0x3ca8df3b	0.020614257
61	0x3b3c518b	0.0028735127
62	0xbda768ef	-0.08174311
63	0xbdca1301	-0.09866906
64	0xbd2ff0bb	-0.042954188
65	0xbc30e116	-0.010795852
66	0xbd1b7582	-0.03795386
67	0xbdb104de	-0.086435065
68	0xbd8165aa	-0.06318219
69	0x3db2eaac	0.08736166
70	0x3da2d0ae	0.07949959
71	0x3d48ef6b	0.04905645
72	0x3dece982	0.115679756
73	0x3b31d805	0.0027136814
74	0x3d489e95	0.04897936
75	0x3d88669a	0.06660195
76	0x3d7431f0	0.059617937
77	0x3d019e0d	0.03164487
78	0xbe08f0a5	-0.13373049
79	0x3dff6ad5	0.124715485
80	0x3de211f3	0.1103858
81	0xbdd3dd52	-0.10344948
82	0xbcccde8b	-0.02500846
83	0x3d38cc73	0.045116853
84	0xbca071b2	-0.019585464
85	0x3dccdb55	0.10002772
86	0x3de81515	0.11332146
87	0x3cef10cd	0.029182816
88	0x3d8f74c7	0.070046954
89	0xbc880698	-0.016604707
90	0xbcfc4377	-0.030793888
91	0xbca25b63	-0.019818967
92	0xbdc1fde0	-0.09472251
93	0xbd9f27fe	-0.077713
94	0x3cb61ce0	0.022230566
95	0x3b985f9a	0.0046500685
96	0xbc117a45	-0.008879249
97	0x3dd952f2	0.10611524
98	0xbcd144f0	-0.025545567
99	0xbdb90f76	-0.09036152
100	0xbd36c9ac	-0.044625923
101	0xbde3c7c9	-0.1112209
102	0x3c215e97	0.009849212
103	0x3dfbaace	0.12288438
104	0x3dc4c742	0.09608318
105	0xbd7b9ea3	-0.061430585
106	0xbd9e26d5	-0.0772225
107	0xbda5ba84	-0.08092216
108	0x3e01f5ba	0.12691393
109	0x3dc67644	0.09690526
110	0x3e009445	0.1255656
111	0xbbc3f844	-0.0059805233
112	0xbdaa4a6d	-0.08314977
113	0x3c8c4d00	0.01712656
114	0xbdd847c5	-0.10560564
115	0xbd2ba1b1	-0.041902248
116	0xbd531e7f	-0.051542755
117	0x3cb8c170	0.022553176
118	0x3d157b85	0.03649475
119	0x3c804260	0.01565665
120	0x3de31c93	0.110894345
121	0x3dee1206	0.116245314
122	0x3ccee885	0.025257358
123	0x3b8ef30d	0.00436247
124	0xbca29585	-0.019846687
125	0xbdcd1540	-0.10013819
126	0xbcd1aed8	-0.025596067
127	0xbc68b119	-0.01420238
128	0x3c6dd50c	0.014516126
129	0x3dc24e2e	0.09487568
130	0xbc5a9609	-0.013341435
131	0x3d309a16	0.043115698
132	0x3bb8168e	0.005617923
133	0x3d30caf7	0.043162312
134	0xbd160130	-0.036622226
135	0xbd2f1a81	-0.042749885
136	0x3d09183a	0.03347037
137	0x3cafc98e	0.021458413
138	0xbda71455	-0.08158175
139	0xbde03b9c	-0.109488696
140	0xbcff59ac	-0.031170689
141	0xbdabe816	-0.08393876
142	0xb986aa8c	-0.0002568554
143	0xbd829b33	-0.06377258
144	0xbd1c35b4	-0.038137153
145	0xbdc10bc0	-0.09426069
146	0x3b43e781	0.0029892626
147	0x3d476bfc	0.048686966
148	0xbdee6303	-0.11639979
149	0xbde3bcfd	-0.11120031
150	0x3d99c5e3	0.07508447
151	0x3d8b1c15	0.067924656
152	0x3dd5c2a7	0.104375176
153	0x3d98bde9	0.074580975
154	0x3deaffbb	0.11474558
155	0xbdc60b10	-0.09670079
156	0xbbf137a4	-0.007361369
157	0xbde07b95	-0.109610714
158	0x3d6f1fde	0.05838
159	0xbd491042	-0.04908777
160	0x3d3b3069	0.045700464
161	0x3d6e4deb	0.058179777
162	0x3ddd3a99	0.10802192
163	0xbd47e1c8	-0.048799306
164	0xbd85a948	-0.065264285
165	0x3d82d927	0.06389075
166	0xbd913989	-0.07091052
167	0xbdf98cb1	-0.12185038
168	0x3c89c94f	0.016819624
169	0xbcfe5ffa	-0.031051625
170	0xbe09607e	-0.13415715
171	0x3dfc4ee3	0.12319734
172	0x3ddbf15e	0.107393965
173	0xbdfa9b0d	-0.12236605
174	0x3d9e8910	0.07740986
175	0x3d4376fd	0.047720898
176	0xbcd1d3bf	-0.025613664
177	0xbd6685dc	-0.056280002
178	0x3cd2406b	0.025665483
179	0xbde2e58e	-0.1107894
180	0x3cafdfca	0.021469016
181	0xbded5a70	-0.11589515
182	0xbdf4ea05	-0.11958698
183	0xbd278646	-0.040899538
184	0xbb814ecc	-0.003946161
185	0xbd6ee587	-0.058324363
186	0xbd9cd6a8	-0.0765813
187	0x3d045b4a	0.032313623
188	0x3dd7955e	0.105265364
189	0x3db43e04	0.08800891
190	0x3d1fa209	0.03897289
191	0x3d04a26d	0.032381464
192	0x3dacf91e	0.08445953
193	0x3cbd5666	0.023112487
194	0x3d58fdfb	0.05297659
195	0x3dd0ce59	0.10195608
196	0xbcb01437	-0.021494014
197	0x3dcbf07a	0.09957977
198	0xbd2ee950	-0.042702973
199	0x3e131f6d	0.14367457
200	0x3cd1af87	0.025596393
201	0xbdcf687a	-0.10127349
202	0x3c97f858	0.018551037
203	0xbccdef01	-0.02513838
204	0xbdd33367	-0.103125386
205	0xbcfa328f	-0.030541686
206	0x3bf47fc3	0.0074615194
207	0x3db0b2d1	0.086278565
208	0xbba918a0	-0.005160406
209	0x3d17fa50	0.03710395
210	0xbd1cf210	-0.038316786
211	0xbdb58b0e	-0.08864413
212	0xbdc51693	-0.09623446
213	0x3db39d93	0.08770289
214	0xbda0019a	-0.078128055
215	0x3ba37412	0.004988202
216	0xbd984785	-0.07435516
217	0xbdc51e13	-0.09624877
218	0x3da1ae42	0.07894565
219	0xbdbbff7d	-0.0917959
220	0xbc122da0	-0.008922011
221	0xbdb86dd0	-0.0900532
222	0xbc93318e	-0.017967965
223	0xbcafd742	-0.021464948
224	0x3d9e446c	0.07727894
225	0xbdb9f00a	-0.09078987
226	0xbdb18e39	-0.08669705
227	0x3c1451d2	0.009052711
228	0x3e0c5eae	0.13707992
229	0x3bcb3a51	0.00620202
230	0xbd9603ea	-0.07324965
231	0x3cac1fa0	0.021011174
232	0x3d357c66	0.04430809
233	0x3c19eb3b	0.009394462
234	0x3e0d0d6b	0.1377465
235	0xbc222850	-0.009897307
236	0xbde24fcb	-0.110503756
237	0x3e025cb1	0.12730671
238	0x3c26b99a	0.010176087
239	0x3d85ac44	0.06526998
240	0x3bef0e11	0.007295378
241	0xbd30f2cc	-0.0432003
242	0x3d54b367	0.051928904
243	0x3d3e76f0	0.046500146
244	0xbdbe0d45	-0.09279875
245	0x3d09e33c	0.033663973
246	0x3dcb67cf	0.09931909
247	0x3dfd1790	0.1235801
248	0xbcd2e52b	-0.025744041
249	0x3dbe1ce3	0.092828535
250	0xbd9ae199	-0.075625606
251	0xbd968dcd	-0.07351265
252	0xbd6c2072	-0.05764813
253	0x3e28d1c9	0.16486277
254	0x3cdf1a5b	0.027234247
255	0xbc95f818	-0.018306777

rnn.bias_hh_l0 f4 [256]
0	0xbdba3871	-0.090927966
1	0x3cd622fd	0.02613973
2	0x3d92d793	0.07170024
3	0x3d8c7d30	0.06859815
4	0xbd39b8f9	-0.04534242
5	0x3d5c97fc	0.05385588
6	0x3d83c157	0.06433361
7	0x3df75947	0.12077575
8	0x3e2465e4	0.16054493
9	0x3d3f25ac	0.046666786
10	0xbd8e9cfd	-0.06963537
11	0x3d363c41	0.044491056
12	0x3da50671	0.08057869
13	0x3e21004a	0.15722767
14	0x3d5d4932	0.054024883
15	0x3b309b94	0.00269482
16	0x3cf74641	0.030184867
17	0x3d83b861	0.06431652
18	0xbd56bd35	-0.052426536
19	0xbd9f4932	-0.07777633
20	0xbd34760e	-0.0440579
21	0x3d61c78c	0.055121943
22	0x3e0da8de	0.13833949
23	0x3d572249	0.05252293
24	0xbd3db0c7	-0.046311166
25	0x3d04b71e	0.032401197
26	0x3d88ff6b	0.06689342
27	0xbbd902f5	-0.006622667
28	0xbdf27eb5	-0.11840574
29	0x3aef8c8a	0.0018276137
30	0xbd849f1b	-0.064756595
31	0xbb63edf8	-0.0034779292
32	0xbb9c56b5	-0.0047710785
33	0x3de840f5	0.113405146
34	0x3c23f257	0.010006509
35	0x3d219ae3	0.039454352
36	0x3d6e5d13	0.05819423
37	0x3d0cb29a	0.034350015
38	0x3d7a63a5	0.061130185
39	0xbdd79af4	-0.10527602
40	0xbd82b1dc	-0.0638158
41	0x3c6083d6	0.013703307
42	0x3d5d7f98	0.05407676
43	0xbd4283f9	-0.04748914
44	0xbdad15c9	-0.08451421
45	0x3d8b149d	0.06791041
46	0x3d576394	0.0525852
47	0x3de8260e	0.11335383
48	0xbd8718e2	-0.06596543
49	0x3d990a8f	0.07472717
50	0x3dd50b6a	0.10402568
51	0x3e02721d	0.12738843
52	0x3e02d39e	0.12776038
53	0x3dc90012	0.098144665
54	0x3e08d526	0.1336256
55	0x3cc23315	0.023705998
56	0x3e1d828c	0.15381831
57	0xbda3554a	-0.07975252
58	0x3caf6438	0.021410093
59	0x3dd0e4e5	0.10199908
60	0xbcce5fee	-0.025192227
61	0x3de729c6	0.112872645
62	0xbd8727b7	-0.06599372
63	0x3d86f1c3	0.06589081
64	0x3d999567	0.07499199
65	0x3acba59d	0.0015537028
66	0x3cc6600c	0.02421572
67	0x3dfa6610	0.12226498
68	0xbda2b0c1	-0.079438694
69	0x3cac5dc2	0.021040801
70	0x3dc297e4	0.09501627
71	0xbd076c7b	-0.03306244
72	0x3e1acd79	0.15117444
73	0xbcc4407f	-0.023956535
74	0x3d830da6	0.063990876
75	0xbddeee6c	-0.10885319
76	0x3dd3f4b1	0.103494056
77	0x3e1dd08e	0.15411589
78	0x3dac5150	0.08413947
79	0xbd007f25	-0.031371254
80	0x3d6368a5	0.05551972
81	0xbd8cc9fb	-0.06874462
82	0x3d3e8864	0.04651679
83	0x3da11e8f	0.07867157
84	0x3dbe32d0	0.092870355
85	0x3ce2da18	0.027691886
86	0x3d163beb	0.036678236
87	0x3da513f7	0.080604486
88	0x3d955fc5	0.07293657
89	0x3d522f55	0.05131467
90	0x3d2e6dde	0.042585246
91	0xbd4efa8e	-0.050531916
92	0xbd101af1	-0.035181943
93	0xbd8b4afb	-0.06801411
94	0x3dc7f0e6	0.097627446
95	0xbd662527	-0.056187775
96	0xbdf616eb	-0.1201609
97	0x3db27a20	0.087147
98	0xbd9ae522	-0.07563235
99	0xbcaa2f10	-0.020774394
100	0xbd4b48e8	-0.049630076
101	0x3ca89956	0.020580929
102	0xbbe3ff52	-0.006957927
103	0xbd5baf4d	-0.053633977
104	0x3c2b1f91	0.010444538
105	0x3e062153	0.1309865
106	0x3cc79b0d	0.024365926
107	0x3cd34959	0.02579181
108	0x3bbee786	0.0058259396
109	0xbd9b80d2	-0.0759293
110	0xbd89bd00	-0.06725502
111	0x3cab83ba	0.020936836
112	0x3e0ae6f6	0.13564667
113	0x3dc3b111	0.09555257
114	0xbaaba701	-0.0013096036
115	0x3d068545	0.03284194
116	0x3dec78fe	0.11546515
117	0x3da8b89a	0.08238335
118	0x3db75e9c	0.08953592
119	0x3d9c0bd5	0.07619444
120	0x3dd9d8b7	0.10637038
121	0x3e13a4e3	0.14418368
122	0xbd2995b3	-0.04140253
123	0xbcbf1161	-0.023323717
124	0xbe11108c	-0.14166468
125	0x3e019bce	0.12657091
126	0x3e037e33	0.1284111
127	0x3cef9e1b	0.029250195
128	0x3d32158c	0.04347758
129	0x3d3300dd	0.043701995
130	0xbde515aa	-0.11185773
131	0xbd4360a6	-0.047699593
132	0x3d1e67de	0.038673274
133	0xbcfe945d	-0.031076605
134	0xbdccd5d2	-0.100017205
135	0x3e0fd39c	0.14045566
136	0x3c5d7fd4	0.013519246
137	0xbdcd3739	-0.100202985
138	0x3d833487	0.06406503
139	0xbdb0c594	-0.08631435
140	0xbd893e07	-0.06701284
141	0x3d516fa1	0.05113185
142	0xbd476f37	-0.048690047
143	0xbc250582	-0.010072114
144	0xbd79c187	-0.060975578
145	0xbd8bf514	-0.06833854
146	0x3d28d083	0.041214477
147	0xbc55b647	-0.013043947
148	0xbd9384d5	-0.0720307
149	0xbd6e54b2	-0.05818624
150	0xbda24ba3	-0.07924583
151	0xbcf93705	-0.030421743
152	0x3d473ff2	0.048644967
153	0x3cb3595c	0.021893196
154	0x3db92fbf	0.0904231
155	0x3dcab07e	0.098969445
156	0xbc6ef527	-0.014584816
157	0xbcd23d01	-0.025663855
158	0x3c4b229e	0.01239839
159	0xbb592938	-0.003313614
160	0x3da095ea	0.07841094
161	0xbd3ad880	-0.045616627
162	0xbcfbeda2	-0.03075296
163	0xbdb7a809	-0.08967597
164	0xbbf36cc9	-0.0074287397
165	0x3ddbbae0	0.10729003
166	0x3d5ccc9a	0.05390606
167	0xbd9fc4b1	-0.07801188
168	0x39b58ab6	0.00034626358
169	0xbba8fa36	-0.0051567806
170	0x3daa2335	0.083074965
171	0xbd497bc1	-0.049190287
172	0x3d1cd07b	0.03828476
173	0x3cc1d853	0.023662722
174	0x3d525483	0.051350128
175	0xbda3e09e	-0.08001827
176	0x3d59ee21	0.053205613
177	0xbe055ed2	-0.13024452
178	0xbab3a985	-0.0013707137
179	0xbd113238	-0.035448283
180	0x3dab144d	0.083534814
181	0xb9e81a49	-0.00044270072
182	0xbca63b91	-0.020292075
183	0x3d949b5b	0.07256194
184	0xbd2db5ba	-0.042409636
185	0xbd63c3ed	-0.05560677
186	0x3db7cafa	0.089742616
187	0x3d455ea6	0.048185967
188	0xbd631538	-0.055440158
189	0xbd2360d3	-0.03988726
190	0x3d0003ec	0.03125374
191	0x3e0606cd	0.13088532
192	0x3d9d3387	0.07675844
193	0x3cad15d6	0.021128576
194	0x3da4a396	0.08039014
195	0x3cd722ab	0.026261648
196	0xbd75d640	-0.060018778
197	0x3dfe07ec	0.12403855
198	0xbdc230f1	-0.09481991
199	0x3e119d5f	0.14220189
200	0x3bd75467	0.006571341
201	0x3dded773	0.108809374
202	0x3d0e55bf	0.034749743
203	0xbba62080	-0.0050697923
204	0x3c3fb532	0.011700915
205	0xbbec6a29	-0.0072148037
206	0xbced2056	-0.028946083
207	0x3e1b5ba9	0.15171684
208	0xbd908ff4	-0.07058707
209	0x3c61050f	0.013734116
210	0xbcc65949	-0.024212496
211	0x3d813fbb	0.06310984
212	0xbd8c2a69	-0.068440266
213	0x3c9bde1d	0.01902681
214	0x3e0b8ade	0.13627192
215	0x3db8307b	0.08993622
216	0x3dd4b3e9	0.10385878
217	0x3dbc1c61	0.091851
218	0x3dfb1de5	0.12261561
219	0x3d80c8f3	0.06288328
220	0x3d24d528	0.040242344
221	0xbca392a9	-0.019967394
222	0x3d5c1b4e	0.053736977
223	0xbc920be5	-0.017827937
224	0xbcf14966	-0.029453944
225	0xbd26f2f8	-0.040759057
226	0x3e063f61	0.13110115
227	0xbd838da5	-0.06423501
228	0xbca38481	-0.019960644
229	0x3df95b2b	0.12175592
230	0x3c3f26e9	0.011666992
231	0xbd7334f3	-0.05937667
232	0x3d1fb6c6	0.038992666
233	0x3d3dc823	0.046333443
234	0x3d38b2e5	0.045092482
235	0x3ca1a04b	0.019729754
236	0xbdb6275f	-0.08894228
237	0x3de275fb	0.11057659
238	0x3e0b3ea4	0.13598114
239	0x3c48a38d	0.012246025
240	0xbce2b6f8	-0.027675137
241	0x3cb9e519	0.02269225
242	0x3c17840e	0.009247793
243	0x3df5c90b	0.120012365
244	0xbca416c6	-0.02003039
245	0x3df4432b	0.11926874
246	0x3e27d99b	0.16391604
247	0x3dc9b9ff	0.09849929
248	0x3cba1a20	0.022717535
249	0xbdb95ac1	-0.09050513
250	0xbd3afb5b	-0.045649868
251	0x3d217bc5	0.039424676
252	0xbda1769b	-0.0788395
253	0x3d081f7e	0.03323316
254	0x3e0c8018	0.13720739
255	0x3ddd54aa	0.10807164

rnn.weight_ih_l1 f4 [256, 64]
0	0xbd517363	-0.051135432
1	0xbd829551	-0.06376136
2	0xbd12e3ae	-0.035861664
3	0x3d5ff805	0.05467989
4	0x3d4e0e65	0.050306696
5	0x3d5f5d20	0.05453217
6	0xbe181eae	-0.14855453
7	0xbc8b7a35	-0.017026046
8	0x3e0b5209	0.13605513
9	0x3d441d7b	0.047879677
10	0xbe09ff9a	-0.1347641
11	0xbc468ec6	-0.012119001
12	0xbd73e90f	-0.059548434
13	0x3cee8646	0.029116761
14	0x3c112886	0.008859759
15	0x3deb3a4d	0.11485729
16	0x3da991d6	0.08279769
17	0xbcc0a536	-0.023516279
18	0xbdc3142c	-0.09525332
19	0x3d17a71c	0.037024602
20	0x3c29c8e0	0.010362834
21	0x3d4895a6	0.04897084
22	0x3d572f59	0.05253539
23	0x3db9488c	0.0904704
24	0x3d0fe6cf	0.035132226
25	0xbd06809d	-0.0328375
26	0xbd1a1086	-0.037613414
27	0xbd8bde32	-0.0682949
28	0x3d360ec5	0.04444768
29	0xbd477cd2	-0.048703022
30	0xbd35e4e9	-0.04440776
31	0xbdaa8c2f	-0.08327519
32	0xbd911f55	-0.07086054
33	0xbd790d4c	-0.060803697
34	0xbe1c0e8a	-0.15239921
35	0x3cd72e2e	0.026267137
36	0x3dee1bd6	0.11626403
37	0xbc351fe3	-0.011054966
38	0x3d5e518f	0.054277
39	0x3cc6707f	0.024223564
40	0x3d492881	0.049110893
41	0xbdc34b24	-0.09535816
42	0x3d9ec5fa	0.07752605
43	0x3d0325b2	0.03201837
44	0x3d892912	0.06697287
45	0xbd025b78	-0.031825513
46	0x3d4210b8	0.047379225
47	0xbdf10e97	-0.11770361
48	0x3c4070ee	0.011745675
49	0x3c81fa3d	0.015866393
50	0x3dfb28dd	0.122636534
51	0xbdb8399f	-0.08995365
52	0x3c97b4ce	0.018518832
53	0xbd92d791	-0.07170022
54	0xbd447cdf	-0.04797065
55	0x3da97791	0.082747586
56	0x3d0b3877	0.033989396
57	0xbb1230ab	-0.002230684
58	0x3d567947	0.052361753
59	0x3ce8e019	0.02842717
60	0x3d507487	0.05089238
61	0x3dd2dff1	0.1029662
62	0x3cd8f793	0.02648524
63	0x3de569fd	0.11201856
64	0x3d2aebc0	0.041728735
65	0x3b9b1a31	0.004733347
66	0xbe12dbd5	-0.14341672
67	0xbd289b40	-0.041163683
68	0x3ddf5786	0.10905366
69	0x3dcd87d7	0.10035675
70	0xbdb42abd	-0.08797214
71	0x3cd8a265	0.026444623
72	0x3d28439d	0.041080106
73	0xbd1c21eb	-0.038118284
74	0x3c85c570	0.016329497
75	0x3d7f299d	0.062295545
76	0xbd831143	-0.06399777
77	0xbdb823d1	-0.089912064
78	0xbd04a014	-0.032379225
79	0xbc9fc11f	-0.019501267
80	0x3d8a5097	0.067536525
81	0xbdb9619d	-0.090518214
82	0xbdbb5700	-0.09147453
83	0xbc6a2b00	-0.014292479
84	0xbdde7bc7	-0.108634524
85	0x3d1f3b23	0.038874757
86	0x3cff9fde	0.03120416
87	0x3d9af3ab	0.07566007
88	0x3dde8f98	0.10867232
89	0x3e087dc7	0.1332923
90	0x3d7095ab	0.058736484
91	0x3d1c28df	0.038124915
92	0xbceca3ed	-0.02888676
93	0xbddca99e	-0.107745394
94	0x3d0514f5	0.03249069
95	0x3d60854a	0.054814614
96	0x3d916192	0.07098688
97	0x3c9622e7	0.01832719
98	0x3d07f6a2	0.03319419
99	0xbd865398	-0.06558913
100	0xbd08fa20	-0.033441663
101	0x3cbad86b	0.022808274
102	0xbd96d98a	-0.07365711
103	0x3d79f9bc	0.06102918
104	0xbd80d173	-0.06289949
105	0x3d740c9b	0.059582334
106	0x3e140b9e	0.14457557
107	0xbc20de7e	-0.009818671
108	0x3de6537b	0.112463914
109	0xbd0832a6	-0.033251427
110	0x3b8bb4af	0.0042634825
111	0xbdd48339	-0.10376591
112	0x3dc402e3	0.09570863
113	0x3d7ddb75	0.06197687
114	0xbdab1335	-0.08353273
115	0xbdd306e1	-0.103040464
116	0xbcd2ddba	-0.025740493
117	0xbdcd440b	-0.10022744
118	0xbd857ae2	-0.06517579
119	0xbd7aa2eb	-0.061190527
120	0x3b87f31d	0.0041488544
121	0x3c696a08	0.014246471
122	0xbd816e53	-0.06319871
123	0xbcdb204d	-0.0267488
124	0x3d847ed9	0.06469507
125	0xbcfc5e5a	-0.03080671
126	0x3d4bf16b	0.04979078
127	0x3ce1b546	0.027552258
128	0x3d592a0f	0.053018626
129	0xbd2ab9c5	-0.04168107
130	0x3cecd3a8	0.02890952
131	0x3d7b6aa4	0.061380997
132	0xbd9301aa	-0.07178052
133	0x3cd930ab	0.026512465
134	0xbd92f168	-0.07174951
135	0xbddf4534	-0.10901871
136	0xbc5b5681	-0.013387323
137	0x3d89cad5	0.0672814
138	0xbdb103fa	-0.086433366
139	0xbcbdfbe0	-0.023191392
140	0xbd8def01	-0.06930352
141	0x3dd89424	0.105751306
142	0x3deac5a0	0.11463475
143	0x3e1548da	0.14578572
144	0xbbe305fc	-0.0069282036
145	0x3e01a785	0.1266156
146	0xbd966d2b	-0.07345041
147	0x3d8b04c8	0.06788021
148	0xbdb6c6c8	-0.08924633
149	0xbd4da9cb	-0.050210755
150	0x3d422ed5	0.047407944
151	0xbd9f3bbe	-0.07775067
152	0xbcf16681	-0.029467823
153	0xbd88f385	-0.06687073
154	0x3e164260	0.14673758
155	0xbd52b59a	-0.05144272
156	0x3e09641f	0.134171
157	0xbd649765	-0.055808444
158	0x3cbb7a2a	0.0228854
159	0x3d5683ca	0.052371778
160	0xbd2e80c3	-0.042603265
161	0x3cb69588	0.022288099
162	0x3d78c203	0.0607319
163	0xbd944e4d	-0.07241497
164	0xbca071fd	-0.019585604
165	0x3da16d33	0.07882156
166	0x3df1700a	0.11788948
167	0x3e49c566	0.19704208
168	0x3c86e14a	0.016464848
169	0xbcd6c502	-0.026216988
170	0xbe118a22	-0.1421285
171	0xbbe87a7f	-0.007094681
172	0x3d689e5c	0.05679165
173	0xbe0b1f14	-0.13586074
174	0xbd6ab3f2	-0.057300515
175	0x3cc3098c	0.023808263
176	0x3dab9600	0.083782196
177	0xbd9098d5	-0.070604004
178	0x3e0c4dd3	0.13701563
179	0xbe071b46	-0.13193998
180	0xbbb42228	-0.005497236
181	0xbcc3dc68	-0.023908809
182	0x3d59a631	0.053137008
183	0xbb685cea	-0.0035455772
184	0x3de69190	0.112582326
185	0x3c87e9f7	0.016591055
186	0x3c43887f	0.011934399
187	0x3e039250	0.12848783
188	0xbb0b4658	-0.0021251645
189	0xbe0bc44d	-0.13649102
190	0xbcebe88b	-0.028797409
191	0xbd913cab	-0.070916496
192	0x3d64a8f6	0.055825196
193	0xbd8a9153	-0.06766
194	0xbb2a4f47	-0.0025987194
195	0xbca608bc	-0.020267837
196	0xbd0b58b5	-0.034020144
197	0xbd5fbe26	-0.0546247
198	0xbcebee6c	-0.028800212
199	0x3d17ab17	0.0370284
200	0x3d812fc4	0.06307939
201	0x3d02f2cd	0.031969834
202	0xbcc79c8d	-0.024366641
203	0xbe0a1465	-0.13484342
204	0x3ce918a4	0.028454132
205	0xbe036042	-0.12829688
206	0xbcdc8182	-0.026917223
207	0xbd034aa2	-0.032053597
208	0xbcea726c	-0.028619014
209	0xbd831fa0	-0.06402516
210	0x3d59f103	0.053208362
211	0x3d516946	0.051125787
212	0xbd9e82dc	-0.07739803
213	0x3d9d6a85	0.076863326
214	0xbd20185b	-0.039085727
215	0xbd852213	-0.0650064
216	0xbd9fa914	-0.07795921
217	0xbde49d5e	-0.11162828
218	0xbccbc9de	-0.024876531
219	0xbc119032	-0.0088844765
220	0xbe06f157	-0.13178001
221	0x3de15095	0.11001698
222	0xbda94775	-0.082655825
223	0x3d702b90	0.058635294
224	0x3dd553c3	0.10416367
225	0xbdb94a0c	-0.090473264
226	0xbcdd3c3a	-0.027006257
227	0x3dbade7a	0.09124465
228	0xbc260ce4	-0.010134909
229	0x3da81f16	0.08209054
230	0xbd94ed55	-0.0727183
231	0x3de50278	0.111821115
232	0x3d2967c1	0.041358713
233	0x3d892eb2	0.066983595
234	0x3bd4d653	0.006495276
235	0x3cefff22	0.029296461
236	0xbd44bcc1	-0.048031572
237	0x3dadc2cb	0.084844194
238	0x3d05742c	0.032581493
239	0xbd4e9c51	-0.050442044
240	0x3da030e5	0.07821826
241	0xbbd1b6cd	-0.0063999654
242	0x3d614956	0.05500158
243	0x3d8e9b2d	0.06963191
244	0x3d0316ab	0.03200404
245	0xbd31986a	-0.043358244
246	0x3da70cca	0.08156736
247	0xbdb7df47	-0.08978134
248	0x3c1191c7	0.008884854
249	0x3ddddf6c	0.1083363
250	0x3d35f205	0.04442026
251	0x3d86b06c	0.065766186
252	0x3c18a77d	0.009317276
253	0x3d914b8a	0.07094486
254	0x3de87b8c	0.1135169
255	0x3d9c434e	0.07630025

rnn.weight_hh_l1 f4 [256, 64]
0	0x3d484d91	0.048902098
1	0xbcb6acc5	-0.02229918
2	0x3dbeac90	0.093102574
3	0xbda625fb	-0.08112713
4	0x3c775ea9	0.015098252
5	0xbc3fa169	-0.011696198
6	0x3ce6818b	0.028137943
7	0x3dd53fea	0.10412581
8	0x3d8c58f8	0.06852907
9	0xbdf88c86	-0.12136178
10	0x3dcd25c8	0.10016972
11	0x3d903f4e	0.070433244
12	0x3c0d6881	0.008630873
13	0xbda566dc	-0.080762595
14	0xbddac609	-0.106823035
15	0xbdfc0e67	-0.123074345
16	0xbd6a5034	-0.057205394
17	0xbd924287	-0.07141595
18	0xbd9a9098	-0.0754711
19	0xbdafdbe2	-0.08586861
20	0x3d29c6e5	0.041449446
21	0xbd3cf9b9	-0.04613659
22	0xbd807dd7	-0.06274002
23	0xbdbceb49	-0.092245646
24	0xbdc3b96b	-0.0955685
25	0xbccb9cea	-0.024855096
26	0x3e033a7f	0.12815283
27	0xbdd04d4a	-0.10170992
28	0x3d85fdd1	0.06542552
29	0x3d013014	0.03153999
30	0xbcac5de2	-0.02104086
31	0xbcba2dc9	-0.02272691
32	0xbd42d069	-0.047562037
33	0x3ce81c6e	0.028333869
34	0xbda9631c	-0.08270857
35	0x3df6fff1	0.12060536
36	0x3e08b1e7	0.13349114
37	0xbd95ea46	-0.07320075
38	0xbdbde3aa	-0.09271939
39	0x3d9eff0f	0.07763492
40	0xbdaa0ef2	-0.08303632
41	0xbdb2256d	-0.08698545
42	0xbdbb780f	-0.09153759
43	0xbcd6d0ee	-0.026222672
44	0x3dcd9826	0.10038786
45	0xbd0a56a5	-0.033774037
46	0x3da8da5e	0.08244775
47	0x3dd12bb0	0.10213411
48	0x3de6e72e	0.11274563
49	0x3b850432	0.004059338
50	0x3dc83a87	0.09776788
51	0x3d996550	0.07490027
52	0x3de6606e	0.11248861
53	0xbdb1a4a4	-0.08673981
54	0xbdca58bf	-0.09880208
55	0xbd8f542a	-0.06998475
56	0xbdbf3c64	-0.093376905
57	0x3da453ad	0.080237724
58	0xbd5e2239	-0.054231856
59	0xbdb82ec5	-0.089932956
60	0xbdba5a1c	-0.09099218
61	0xbd990a5c	-0.07472679
62	0x3d0cc057	0.034363117
63	0xbdb5a389	-0.088690825
64	0xbd618e9c	-0.055067644
65	0xbda57301	-0.08078576
66	0xbe0d273f	-0.13784502
67	0x3d2f98f4	0.042870477
68	0xbe0a8206	-0.13526163
69	0x3d210d18	0.039319128
70	0xbda34ea1	-0.07973982
71	0x3cd561c7	0.0260476
72	0x3cc4c89b	0.024021437
73	0x3c5b195e	0.013372747
74	0xbb8b3263	-0.00424795
75	0xbdb17eec	-0.086667866
76	0xbdd89212	-0.10574736
77	0xbdcdd0e7	-0.100496106
78	0x3dbfc458	0.093636215
79	0xbd83e66c	-0.06440434
80	0xbdfe7d89	-0.12426288
81	0x3d8c217a	0.06842323
82	0x3dfa52c8	0.122228205
83	0x3c4610b2	0.012088941
84	0xbe196f9e	-0.14983985
85	0x3d03ba96	0.032160364
86	0x3dcdb333	0.10043945
87	0xbe57e6d0	-0.21084142
88	0x3cb08399	0.021547126
89	0xbc9e865b	-0.019351175
90	0xbdd4e0d7	-0.10394447
91	0xbd738b4a	-0.05945901
92	0x3ddbf864	0.10740736
93	0xbdcf9481	-0.10135747
94	0xbcb0d428	-0.021585539
95	0x3d3efe45	0.04662921
96	0xbbf2914b	-0.007402574
97	0x3d6190fd	0.055069912
98	0xbba4cce9	-0.00502931
99	0x3db4982d	0.08818088
100	0xbdca002a	-0.098633125
101	0xbdc6639b	-0.09686967
102	0x3d568ff8	0.052383393
103	0xbe23d641	-0.159997
104	0xba97d930	-0.0011585113
105	0xbd48a96f	-0.04898971
106	0xbd48f0a2	-0.04905761
107	0x3de513ce	0.11185418
108	0xbdffecea	-0.1249636
109	0x3e117fb8	0.14208877
110	0x3db2672b	0.08711084
111	0xbdb4418b	-0.08801564
112	0xbd8f73ce	-0.0700451
113	0x3e129154	0.14313251
114	0xbddc2244	-0.10748723
115	0x3ce432ec	0.027856313
116	0x3d723e11	0.059141222
117	0xbdb0ed5a	-0.08639021
118	0x3d74b8ae	0.059746437
119	0x3c54b894	0.01298346
120	0x3dcc3357	0.0997073
121	0xbe0b90d0	-0.1362946
122	0xbdd210bd	-0.10257099
123	0x3c661e70	0.014045343
124	0x3cb488e1	0.022037925
125	0x3dd72cc8	0.10506588
126	0x3cb30b49	0.021855967
127	0xbde872fc	-0.113500565
128	0xbd5bb187	-0.0536361
129	0xbe795ed6	-0.24352583
130	0x3d761f8b	0.060088675
131	0x3c22d88e	0.009939326
132	0xbd8c9868	-0.06865007
133	0x3dac6f35	0.084196486
134	0x3d8eca15	0.06972138
135	0xbe2d95b9	-0.16951646
136	0xbdba4c3b	-0.09096571
137	0xbcdfbb0f	-0.027310876
138	0x3d6d3f42	0.057921655
139	0x3d96c83f	0.07362413
140	0xbdb3fe35	-0.087887205
141	0x3cb69fd7	0.022293014
142	0x3d1cd26e	0.03828662
143	0xbda89129	-0.08230812
144	0x3d4de001	0.050262455
145	0xbe0fc1a4	-0.14038712
146	0xbda7596d	-0.081713535
147	0xbe313076	-0.17303643
148	0x3d23a669	0.039953623
149	0x3e0e56fd	0.13900371
150	0xbc75ab90	-0.014994517
151	0xbe329776	-0.1744059
152	0x3dd43fe5	0.103637494
153	0x3cc33c54	0.023832478
154	0xbd825e59	-0.06365652
155	0x3cb93651	0.022608908
156	0x3dc81d27	0.09771185
157	0xbd9f18ca	-0.077684
158	0xbe4df99a	-0.20114747
159	0xbdb17544	-0.08664945
160	0x3c8b17f2	0.016979191
161	0x3c698251	0.014252261
162	0x3e0f150a	0.1397287
163	0xbdbf6b99	-0.093466945
164	0x3d1fb0f9	0.038987134
165	0xbe036bfb	-0.1283416
166	0xbcfe7d9a	-0.03106575
167	0x3dc00813	0.0937654
168	0xbcc6c270	-0.024262637
169	0xbe1b370e	-0.1515772
170	0x3dc011d5	0.09378401
171	0x3dd1709f	0.10226559
172	0xbca6e35d	-0.020372087
173	0xbe0e0dd4	-0.13872463
174	0x3db8647a	0.090035394
175	0xbe014caa	-0.12626901
176	0x383bfd9c	4.4820466e-05
177	0x3e184bb2	0.14872625
178	0x3d0c349f	0.03422987
179	0x3e2d7bb4	0.1694172
180	0x3dc254f4	0.0948886
181	0xbd1b6e97	-0.037947264
182	0xbc87750d	-0.016535306
183	0xbdb35e43	-0.08758213
184	0x3e062c1e	0.13102767
185	0xbdf53109	-0.11972243
186	0x3dee0c74	0.11623469
187	0xbe23f0ee	-0.16009876
188	0x3ddc48e9	0.10756094
189	0xbbd6aa75	-0.006551082
190	0xbce2689b	-0.02763777
191	0xbdfc9c53	-0.12334504
192	0x3cf7cf82	0.030250315
193	0xbdbc0fa9	-0.091826744
194	0x3d4e038b	0.050296348
195	0x3d800d35	0.06252519
196	0x3ddcd1c8	0.107822
197	0xbc8086a8	-0.01568921
198	0x3d0e5f8d	0.034759093
199	0xbde3982c	-0.11113009
200	0x3db625fb	0.08893963
201	0xbd9ddd52	-0.07708229
202	0x3bbd0eba	0.005769578
203	0x3c81007a	0.015747298
204	0x3dd52765	0.104079045
205	0xbd320ffa	-0.043472268
206	0xbda3b8b7	-0.07994216
207	0xbb9cd8e9	-0.0047866
208	0xbd924679	-0.07142348
209	0x3d2f925b	0.042864185
210	0x3e007014	0.12542754
211	0xbdc22271	-0.094792254
212	0xbd09467f	-0.033514496
213	0xbc7aceb8	-0.015308075
214	0x3d17a263	0.0370201
215	0xbd6c7ef3	-0.057738256
216	0x3c836a09	0.016041772
217	0x3d957847	0.07298332
218	0xbcfb111d	-0.030647809
219	0xbd99b658	-0.075054824
220	0xbde69e4d	-0.11260662
221	0x3b3690d5	0.0027857323
222	0x3da872b3	0.08225002
223	0x3dbd411a	0.09240933
224	0xbda6b097	-0.081391506
225	0x3d8f2344	0.06989148
226	0x3d46d8d3	0.048546623
227	0xbd68d377	-0.056842294
228	0xbdce1d46	-0.10064177
229	0x3da719bf	0.081592076
230	0xbd237114	-0.03990276
231	0x3dcdfd81	0.10058118
232	0x3de5f4d1	0.11228336
233	0x3ddaf8ec	0.10692009
234	0xbde6371b	-0.11240979
235	0x3dd7f3a8	0.105445206
236	0xbe011c80	-0.12608528
237	0x3d9d6e45	0.07687048
238	0xbca75b86	-0.020429384
239	0xbdddd8eb	-0.108323894
240	0xbe1564b2	-0.14589193
241	0x3dbaa731	0.091139205
242	0xbdcdb3ca	-0.10044058
243	0xbda6ccce	-0.08144532
244	0x3d87493e	0.06605767
245	0xbda348e1	-0.07972885
246	0x3d584f01	0.05280972
247	0x3dddc9fa	0.108295396
248	0x3b9716c0	0.0046108663
249	0x3dc3347e	0.095314965
250	0x3d65e83b	0.056129675
251	0x3d4014ea	0.046894945
252	0xbd2f885c	-0.04285465
253	0x3de4aa5c	0.11165306
254	0xbc7d00af	-0.0154420575
255	0x3d1a45e8	0.037664324

rnn.bias_ih_l1 f4 [256]
0	0x3d830a5f	0.063984625
1	0xbbfb7504	-0.0076738615
2	0xbcc23008	-0.023704544
3	0xbd0cd425	-0.034382004
4	0x3bfe87ab	0.0077676377
5	0x3da472ae	0.08029686
6	0xbdbc6844	-0.091995746
7	0x3d8f1f16	0.06988351
8	0x3c9a32bf	0.018823026
9	0xbc7fbd57	-0.015609107
10	0x3c530962	0.012880655
11	0x3d9fe6b8	0.07807678
12	0x3d9aa4d8	0.07550973
13	0x3d12471c	0.035712346
14	0xbd944d2f	-0.07241284
15	0xbcc0e967	-0.023548795
16	0x3da4122c	0.080112785
17	0xbbbe58c4	-0.0058089215
18	0x3d49057d	0.0490775
19	0x3d8cf2b1	0.06882227
20	0x3df14626	0.11780958
21	0x3d81ec57	0.063439064
22	0x3da8ddd2	0.08245434
23	0x3d974a06	0.07387166
24	0x3dfb7772	0.12278642
25	0xbd83c547	-0.06434112
26	0x3cdc322e	0.026879396
27	0xbdd4b470	-0.10385978
28	0x3dc214d9	0.094766326
29	0xbc164877	-0.00917255
30	0x3dd4253c	0.103586644
31	0x3e06bba6	0.1315752
32	0xbdc07415	-0.09397141
33	0x3dbb945f	0.09159159
34	0xbdb09605	-0.08622364
35	0xbd908c58	-0.070580184
36	0xbcf2d54d	-0.029642725
37	0xbdbc10ce	-0.09182893
38	0x3dcfea42	0.10152103
39	0x3dd60b94	0.10451427
40	0xbd9c8319	-0.076421924
41	0x3cacbc62	0.021085922
42	0x3d932e50	0.07186568
43	0x3d8cee3f	0.06881379
44	0xbd434936	-0.04767724
45	0xbd129346	-0.035784982
46	0x3d705462	0.058674224
47	0x3d36fd51	0.044675175
48	0xbd3a9942	-0.045556314
49	0xbd104250	-0.03521949
50	0x3d8d65e0	0.06904197
51	0xbd80309e	-0.06259273
52	0xbcd8c66a	-0.026461799
53	0xbcf3bb4c	-0.029752396
54	0x3ca365fe	0.019946095
55	0x3db2217e	0.086977944
56	0xbdc2aa5c	-0.0950515
57	0x3ddb74d2	0.10715641
58	0x3dfa9af3	0.122365855
59	0xbda7a609	-0.081859656
60	0x3ca6ed94	0.020376958
61	0xbd13843b	-0.036014777
62	0x3c89eb1a	0.016835738
63	0x3bc35f62	0.0059622983
64	0xbd5c83c9	-0.053836618
65	0xbbc017a1	-0.005862192
66	0xbdc3599f	-0.09538578
67	0xbc5490e3	-0.012973997
68	0x3ce81a86	0.02833296
69	0x3ce16192	0.027512345
70	0x3d987cfa	0.074457124
71	0x3deb465e	0.11488031
72	0x3ae3be5c	0.0017375457
73	0xbdf39e37	-0.118954115
74	0x3db7dd09	0.08977706
75	0xbd52db1f	-0.0514785
76	0x3dfdeba1	0.12398458
77	0x3cc1eed9	0.023673462
78	0xbe0b5f9b	-0.1361069
79	0x3d5efb0f	0.054438647
80	0xbd195661	-0.037435893
81	0x3e067b4d	0.13132973
82	0x3cd9e1b6	0.026596885
83	0xbd1847c5	-0.03717782
84	0xbd85e98f	-0.065386884
85	0x3d199d5b	0.03750358
86	0x3d90b3de	0.07065557
87	0x3c7d4c67	0.01546011
88	0x3c7347f6	0.0148487
89	0x3bf20379	0.007385668
90	0xbc7ab340	-0.015301526
91	0xbdff466c	-0.12464604
92	0x3d310b7b	0.04322384
93	0x3d286d5f	0.04111993
94	0x3d84b4ad	0.06479774
95	0xbd82e4a7	-0.06391268
96	0x3b2c6375	0.0026304398
97	0xbd22528a	-0.039629497
98	0x3da87375	0.08225147
99	0xbd6ba96f	-0.05753463
100	0x3dd7335e	0.105078444
101	0x3da527cd	0.08064232
102	0x3dd70729	0.104994126
103	0x3d2143f7	0.039371457
104	0xbd4ca8c8	-0.04996565
105	0x3d8af776	0.06785481
106	0x3d16772b	0.03673474
107	0x3d06f390	0.032947123
108	0x3d20d27c	0.039263234
109	0xbc1031de	-0.008800952
110	0x3d54ebfb	0.05198286
111	0xbc7e763c	-0.015531119
112	0x3d9346aa	0.071912125
113	0xbda501c0	-0.080569744
114	0xbd4b48b1	-0.04962987
115	0xbd96e223	-0.07367351
116	0x3d8af4e9	0.06784994
117	0xbd24eb08	-0.040263206
118	0x3cd818a8	0.026378945
119	0x3d24795f	0.04015481
120	0xbde22830	-0.110428214
121	0x3bcd7ab7	0.0062707323
122	0x3d838568	0.064219296
123	0xbd00c13a	-0.031434275
124	0xbd0f2777	-0.034949746
125	0x3c142860	0.009042829
126	0x3de707cf	0.11280786
127	0xbd180aba	-0.037119605
128	0xbc01ea9a	-0.0079294685
129	0x3d58ba0b	0.0529118
130	0x3c1ce816	0.009576818
131	0xbd9ea246	-0.07745795
132	0x3cc69a3a	0.024243463
133	0x3d03df67	0.032195475
134	0xbd8160a4	-0.06317261
135	0xbdbd2ae2	-0.09236695
136	0x3cdf4e5d	0.027259046
137	0xbde43e17	-0.11144655
138	0x3d733ed5	0.059386093
139	0x3d9e4050	0.077271104
140	0xbd428ff7	-0.047500577
141	0xbde6f83b	-0.11277815
142	0xbc23c9ad	-0.009996814
143	0xbd96f08a	-0.07370098
144	0xbdb1209b	-0.08648797
145	0xbdd51c82	-0.10405828
146	0x3c0d2228	0.0086141005
147	0xb8dadef8	-0.00010436581
148	0x3cb1f868	0.021724895
149	0x3d5589e9	0.052133474
150	0x3d1ddb7e	0.038539402
151	0xbd9fb82d	-0.077988006
152	0xbd7097bf	-0.058738466
153	0xbb1a7f5a	-0.0023574443
154	0x3dc2eb50	0.095175385
155	0x3d9c7389	0.07639224
156	0x3de67478	0.112526834
157	0xbdd3054f	-0.10303747
158	0x3db7d9ff	0.08977126
159	0x3d9b2474	0.07575312
160	0xbd839822	-0.064255014
161	0xbdb94749	-0.090468
162	0x3dc90b85	0.0981665
163	0x3c4be588	0.012444861
164	0x3d69d1d7	0.057084884
165	0x3d7d35d1	0.0618189
166	0xbda5f81d	-0.081039645
167	0x3d70f00c	0.058822677
168	0x3dfc873d	0.12330482
169	0x3c4169fc	0.011805054
170	0xbdb3ec5b	-0.087853156
171	0xbd3621e6	-0.04446592
172	0xbdf4114e	-0.11917363
173	0xbd58f67a	-0.052969433
174	0xbdd8c194	-0.10583797
175	0x3aa2bfed	0.0012416817
176	0xbd9b9c9a	-0.07598229
177	0x3d818032	0.063232794
178	0x3c8e0ec6	0.017341029
179	0xbcd6bf22	-0.026214186
180	0xbd87f2fc	-0.066381425
181	0x3db50a59	0.08839864
182	0xbddf52f0	-0.10904491
183	0x3c5a4fb6	0.013324669
184	0x3dd657f2	0.10465993
185	0xbd7f8955	-0.06238683
186	0x3cf64de7	0.030066444
187	0xbddaf316	-0.10690896
188	0x3c28dea6	0.01030699
189	0x3d89285e	0.066971526
190	0x3da65560	0.08121753
191	0xbd99a635	-0.075024046
192	0x3d71e1f0	0.05905336
193	0xbd9b45ac	-0.07581648
194	0x3d332372	0.043734975
195	0xbce74eb3	-0.028235769
196	0x3d15bf5a	0.03655944
197	0xbdb686ba	-0.08912416
198	0x3d950975	0.072771944
199	0xbda77e53	-0.08178391
200	0x3d4f7fbb	0.050658923
201	0xbe0bdbb5	-0.1365803
202	0x3d2d3031	0.042282287
203	0x3ce2a963	0.02766866
204	0xbdd92207	-0.10602193
205	0xbca148c8	-0.019688025
206	0xbd1bd31c	-0.038043126
207	0xbd67c309	-0.056582484
208	0x3db18975	0.08668796
209	0xbd159847	-0.036522176
210	0x3d44d83e	0.048057787
211	0x3e045224	0.12921959
212	0x38b351d2	8.550625e-05
213	0xbceeffb7	-0.029174669
214	0x3d6bc4ca	0.05756072
215	0x3df6405d	0.12023995
216	0x3d82ab50	0.063803315
217	0x3c643e1e	0.0139308255
218	0xbded2e0d	-0.11581049
219	0xbdccbddc	-0.0999715
220	0x3d531f3c	0.05154346
221	0x3d7efce7	0.062252905
222	0x3cb80a90	0.022465974
223	0x3d36a0a3	0.04458679
224	0xbb91225e	-0.0044291457
225	0xbb6d089a	-0.0036168457
226	0xbd5d7441	-0.054065946
227	0x3d23653f	0.039891478
228	0xbd8c6c1c	-0.06856558
229	0xbd9f3de1	-0.07775474
230	0xbdb04fa7	-0.086089425
231	0xbd85c40d	-0.06531534
232	0x3e03215b	0.12805693
233	0x3dc6319c	0.09677431
234	0xbdc7c187	-0.09753709
235	0x3da75664	0.081707746
236	0xbc900c70	-0.017584056
237	0x3e10f923	0.14157538
238	0x3db8453f	0.08997583
239	0x3c750624	0.014955077
240	0x3df93cb0	0.12169778
241	0x3d756e7f	0.05991983
242	0xbd08b19f	-0.033372518
243	0x3d845aec	0.064626545
244	0xbdb8749e	-0.09006618
245	0x3d6a6ff7	0.057235684
246	0x3dc0ab15	0.09407631
247	0xbc824d9d	-0.01590615
248	0x3d9513bd	0.072791554
249	0xbd944083	-0.07238867
250	0x3a8423ec	0.0010081506
251	0x3d9538c3	0.07286217
252	0x3cbf02a8	0.023316696
253	0xbdd1b14e	-0.10238896
254	0x3d83a44e	0.06427823
255	0x3e11b607	0.14229594
