notebooks/best_model_part_dp.pth (torch, 748378 bytes, 26 tensors)

rnn.weight_ih_l0 f4 [256, 11]
000000 94 4e 06 3e 87 c7 10 be 2b fb 9a 3a d0 7b 09 3e
       0.13115913 -0.14138614 0.0011824121 0.13426137
000010 c5 01 01 3d 9f 18 8d bd 54 8f 4d bc 9b 6d 5e bd
       0.03149583 -0.06889462 -0.012546379 -0.054303747
000020 1e bc cf bc e7 20 8b 3d 09 75 b6 3b 04 f9 b7 bd
       -0.025358256 0.06793385 0.005568151 -0.08983043
000030 9a 1e d5 bd dc ec d8 bc cc c1 ba bd fc 62 cf bd
       -0.104062274 -0.02648013 -0.09118995 -0.10126302
000040 70 f3 4d 3c da dd 0a 3d a0 df 99 3b 96 9a a1 bd
       0.012570247 0.03390298 0.0046958476 -0.07890813
000050 4f da 8d 3d 74 bb 31 bd 98 99 24 3d d0 cb 60 3b
       0.06926405 -0.04339166 0.04018554 0.003430117
000060 f8 8e d2 3c fb 2e 99 3d 33 05 74 3d b5 2a 32 be
       0.025702938 0.07479664 0.05957527 -0.17399104
000070 5a 33 1b be da 9f 70 be 31 a9 68 be af 6d 27 be
       -0.15156308 -0.23498479 -0.22720791 -0.16350435
000080 d1 d7 7c be 2b 20 2e 3d 1c 13 47 be 00 29 00 be
       -0.24691702 0.042511147 -0.19440883 -0.1251564
000090 e9 7c 40 3a cc f8 25 3d aa 99 c7 3c 54 b2 3b bd
       0.0007342832 0.040520474 0.024365265 -0.045824364
0000a0 2c 83 b5 3d 1e d9 e3 bd 19 5a c4 3c 00 0b 62 3c
       0.0886291 -0.11125396 0.023968743 0.013796568
0000b0 e5 71 1e 3e 45 bf 88 bd a8 90 d4 3c a2 2b 81 3d
       0.15473135 -0.06677107 0.025947884 0.063071504
0000c0 ae 0b 20 3d 31 8f be 3c 66 d5 a3 bd a8 2e 25 3e
       0.03907364 0.023261638 -0.07999687 0.16131079
0000d0 ae 90 b8 3d 5c 73 18 be 2c b9 68 3d 36 de 39 3d
       0.090119705 -0.14887756 0.05681722 0.045377932
0000e0 b0 82 99 bd 96 f8 17 3d e2 73 21 bd 01 bd d9 3d
       -0.0749563 0.037102304 -0.039417155 0.10631753
0000f0 40 02 91 bc c1 95 2c 3c a2 71 08 bc 46 bf 37 3d
       -0.017701268 0.010533751 -0.008327873 0.044860147
000100 b6 26 e1 bd 8b b3 20 3b 64 4b 86 3c 18 41 da bd
       -0.10993712 0.0024521078 0.01639337 -0.10656947
000110 43 d8 b5 bd 67 85 aa bd f4 8a d6 bd 68 d3 5e bd
       -0.08879139 -0.08326226 -0.10475722 -0.05440083
000120 94 cd 26 bd 81 a1 c1 3d bb f7 24 3d 42 35 fe 3d
       -0.0407234 0.094546326 0.040275317 0.12412502
000130 a6 d6 c4 bc 67 47 b5 3d 20 41 8f 3c f1 33 c0 3d
       -0.024028134 0.088515095 0.017487109 0.09384907
000140 4b 1b 40 bd 5d a4 39 bd a5 59 60 bc d1 78 79 3d
       -0.04690103 -0.045322765 -0.013693248 0.060906235
000150 8e 3f d3 3c 1a ad 91 bd a1 20 45 bd d7 e9 3f bd
       0.025787141 -0.07113095 -0.04812682 -0.046853866
000160 47 52 9b 3d f7 06 63 bd 25 74 f1 bd 7f 3f 49 bd
       0.075840525 -0.055426564 -0.11789731 -0.04913282
000170 06 5d da 3d cf c6 03 be b3 c3 4c bc 9f bb b5 bd
       0.10662274 -0.12868808 -0.01249783 -0.088736765
000180 52 0c 15 bb ef ae c3 3d 96 18 06 bd 8c 45 02 be
       -0.002274294 0.0955485 -0.03273829 -0.12721843
000190 6b db e1 bc d6 29 31 bd 16 2b 0e 3d 26 a4 95 3c
       -0.027570447 -0.04325279 0.03470906 0.018266749
0001a0 db 50 b0 bc 73 71 80 3d 91 9b c8 3d 0a 73 bf bd
       -0.02152293 0.06271639 0.09795297 -0.09348114
0001b0 37 b9 0e 3d 49 e4 d9 bd b5 16 dc bd 99 3e 11 be
       0.034844603 -0.10639245 -0.107465185 -0.14184035
0001c0 1a 25 04 be 1e e1 0f 3d a2 41 84 bd a2 5d 1f 3b
       -0.12904778 0.035126798 -0.06457831 0.0024317284
0001d0 08 99 ce bd 7d 7e 1c bc 5d b6 15 3d 60 93 a8 3d
       -0.10087782 -0.0095516415 0.03655087 0.082312346
0001e0 f4 d9 4d 3c 5a 6a 34 3d 0e d6 43 3d 91 c9 f9 bd
       0.012564171 0.044046737 0.04781156 -0.12196649
0001f0 10 9e 54 bd ea 9b 9f 3c cb 40 4d 3b 53 ae f0 3c
       -0.051908553 0.019483525 0.0031319137 0.02938
000200 70 e0 1f be 87 21 5e be 48 bb ad 3d cb 99 e5 bd
       -0.1561296 -0.21692477 0.08482987 -0.11210974
000210 a5 54 d0 3c ec 00 17 bd f3 fe 18 bd 53 0f 96 bd
       0.025430987 -0.036866114 -0.037352514 -0.073271416
000220 6b 93 8a bd 22 e0 d2 3d 4a 2d 43 bd aa d6 ea 3d
       -0.06766399 0.10296656 -0.047650613 0.11466725
000230 3b 9e c9 bb 49 01 ec bc 09 eb ea bd 21 de 47 bd
       -0.0061528957 -0.028809207 -0.11470611 -0.048795823
000240 a2 87 35 bc e2 57 01 3d 5d 69 9f 3d 00 84 06 3e
       -0.011079701 0.031577952 0.07783768 0.13136292
000250 64 ab cc 3c aa 01 7f 3b cc 87 28 bc a1 6b 21 be
       0.02498407 0.0038910904 -0.010286283 -0.15763713
000260 63 1b 1a bd 39 b0 dc bd 10 8d 9c bd 57 59 0d be
       -0.037623774 -0.10775799 -0.07644093 -0.13803612
000270 27 d4 d4 bd f3 11 3d 3d 49 e7 02 3e 61 0d 04 bd
       -0.10392027 0.046159696 0.12783541 -0.03223932
000280 bc 73 7c be 60 55 54 bb b2 26 1d 3e 44 a0 94 3c
       -0.24653524 -0.003239952 0.15346792 0.018142827
000290 ff 65 bc bd 3c 7e d4 3d f1 a5 f0 bd fd f5 e9 3c
       -0.09199142 0.1037564 -0.11750401 0.02855968
0002a0 ce a9 bb 3d 56 ff 11 3e dd 7d 13 bd a0 9f d4 3d
       0.09163247 0.14257559 -0.036008704 0.103820086
0002b0 18 6f b9 3c d8 f3 9f 3b 5b 35 6d 3d 9a e6 b1 bd
       0.022635981 0.0048813634 0.057912212 -0.08686562
0002c0 96 ab 49 3d a9 c8 cf bd 83 39 71 3d 12 0c 32 3e
       0.049235903 -0.10145695 0.058892738 0.17387417
0002d0 91 f3 8c bd 56 74 0e be 69 e7 ba bd 01 56 44 3d
       -0.06882394 -0.13911566 -0.09126169 0.047933582
0002e0 53 e8 3a bd 49 d0 db bd 62 f0 a2 3c ec 1a 0c 3d
       -0.045631718 -0.107330866 0.019890014 0.034205362
0002f0 b9 eb 3a be 9b 77 a5 3c b3 02 6e 3d d8 73 53 ba
       -0.18253984 0.020198634 0.058108043 -0.00080662733
000300 fa c2 31 be b2 8d 62 3d 11 c7 34 3d a3 61 bd 3c
       -0.17359534 0.055310912 0.044135157 0.023117846
000310 3d b5 b5 3d 75 c9 a9 3d 63 37 78 3d b2 bc 10 bd
       0.08872459 0.08290378 0.060599696 -0.035336204
000320 eb d5 de bd db 4a 58 3d 96 f8 1d be 01 34 a2 bd
       -0.10880645 0.052805763 -0.1542686 -0.07920075
000330 3d 18 f9 3c 44 b7 01 bc 63 26 56 3e b1 74 5e 3d
       0.030407066 -0.007917229 0.20913081 0.054310504
000340 e1 e0 e0 3d 5c 6e 92 3d 32 34 1d 3c 11 e8 c2 bd
       0.10980392 0.07149956 0.009594964 -0.095169194
000350 96 0a 34 bc 63 41 0b be 1f fe cb bb 2b b5 37 be
       -0.010988852 -0.13599162 -0.006225362 -0.17940204
000360 f8 b2 51 bd 96 d6 83 bd 54 b1 e1 3d 10 5c ca 3d
       -0.05119607 -0.064374134 0.11020151 0.09880841
000370 5e 66 e4 bd 46 fb ae bd 65 be fe 3c d0 06 a1 bd
       -0.111523375 -0.0854402 0.031096647 -0.078626275
000380 9f 18 88 39 e9 c2 ac 3d 72 56 a8 bd ce be c2 3d
       0.00025958286 0.08435614 -0.08219613 0.09509049
000390 05 f1 41 bd 15 e4 0d 3d d9 7a c9 bd 8e 6e 01 3d
       -0.047348995 0.034641344 -0.098378845 0.031599574
0003a0 df 5b b8 3b 5a 89 cb 3d da ec 1d 3c 0c 41 09 3e
       0.0056261863 0.09938307 0.009638989 0.1340372
0003b0 cd bb 3a 3d 76 ef d5 3b 3c a6 2e 3e 7b f6 5e bd
       0.045589257 0.00652879 0.17055601 -0.05443428
0003c0 22 2c a7 3d 60 ae 99 bd 05 c0 b1 3d fd e9 b6 3d
       0.081627145 -0.075039625 0.08679203 0.089313485
0003d0 b8 a4 8e bc 45 61 67 3e 90 6d da bc ea e6 f1 bd
       -0.017412528 0.22595699 -0.026663572 -0.118116215
0003e0 70 56 93 3c 8c 4e 1b 3e 92 27 f3 bb 94 eb 2a be
       0.017985553 0.15166682 -0.0074204886 -0.16691428
0003f0 b5 82 0a be df 15 06 bd a1 4b a9 bd cc 53 a8 3d
       -0.13526423 -0.0327357 -0.08266378 0.08219108

rnn.weight_hh_l0 f4 [256, 64]
000000 9b 85 37 3d 9e e8 e4 bd ab ca 6a 3c 15 eb 95 3d
       0.04480515 -0.11177181 0.014330546 0.07320229
000010 e9 54 97 3d e1 74 53 3d 24 6b 7e 3d b1 81 8b 3d
       0.07389242 0.051625136 0.062113896 0.06811846
000020 af d3 05 bd 26 7e 1f 3d eb 93 17 3d a8 65 1f bd
       -0.03267258 0.038938664 0.0370063 -0.038915306
000030 b3 c5 cd bc f6 4c bc bc 56 63 72 3d 4c d8 6c 3d
       -0.025118684 -0.022985917 0.059176765 0.057823464
000040 13 ea 99 3d d4 81 b7 bd b3 67 a4 3d 50 0d e7 3d
       0.07515349 -0.089603096 0.080275916 0.11281836
000050 ae f4 8f bd d9 9a 3d 3d cb 5d 22 bc d0 57 b9 3d
       -0.07029091 0.046290252 -0.009910057 0.09049952
000060 2b 9e 6a bd e2 a5 fb bd fc d0 01 3e 5d 0d 08 be
       -0.057279747 -0.12287499 0.12677377 -0.13286348
000070 44 87 81 ba c0 c5 d9 3d f7 32 3e bd d3 5e 01 be
       -0.0009882231 0.10633421 -0.046435323 -0.12633829
000080 ae 94 8e 3d e2 a0 a1 3d ab b1 05 3e bb 19 6a bd
       0.06961952 0.07892014 0.13056056 -0.057153445
000090 85 3c 13 be 39 3f 80 bd 79 e5 10 3e 03 f1 3e be
       -0.14378555 -0.06262059 0.14150037 -0.18646626
0000a0 1e 1f a7 3d 05 1c f5 3d 6f a5 1c 3d 5c 51 55 bd
       0.08160232 0.11968235 0.038243707 -0.052079543
0000b0 de 44 ad 3c b9 f3 ad bd 9d fc 65 3d ca 1d 97 3d
       0.021151002 -0.08493752 0.056149114 0.07378729
0000c0 6e e2 14 3e 31 e8 8c 3d 03 67 9d bc 79 5e 7f bd
       0.14539501 0.068802245 -0.019214159 -0.062345956
0000d0 09 ad ae bc 1f 99 fa 3b 12 c7 0b bc f8 7b 2f bd
       -0.021322744 0.007647648 -0.008531349 -0.042842835
0000e0 f4 85 3f 3d e7 90 f3 3d 5f cb 41 be 4b cf 7d 3e
       0.046758607 0.11892872 -0.18925236 0.24786107
0000f0 7e 1b 0f bb c3 14 1a bd f6 16 9d 3d bf 4c 28 3e
       -0.0021836455 -0.037617456 0.07670395 0.16435526
000100 59 b0 25 3e ff 11 8c 3d 73 7c 15 be ef 8a ae bd
       0.16180553 0.0683937 -0.14598255 -0.08522593
000110 36 76 45 bd 68 61 c5 3c a3 a5 06 3d 01 5e f7 3d
       -0.048208438 0.024094298 0.032872807 0.12078477
000120 40 3d ae bd 3f 10 66 3c 3e 19 49 3c ed d2 db 3d
       -0.08507776 0.014041959 0.012274085 0.1073359
000130 03 cc bc bc 80 9b 0e bd 71 4c 5d 3d 4a c1 fb 3d
       -0.0230465 -0.034816265 0.05402798 0.12292726
000140 ac 41 9b 3c b6 c5 f7 bd da 77 8e 3d 88 5e 01 3c
       0.018952213 -0.12098257 0.069564536 0.007896073
000150 78 7f 98 bd 9a 45 f8 bd e6 aa e6 3d fa 89 0d bd
       -0.07446188 -0.121226504 0.11263065 -0.034555413
000160 50 18 e9 3d e2 2d ec bd cd 37 da bc aa 59 20 3c
       0.1138159 -0.11532189 -0.026637936 0.009787003
000170 e5 fd 05 3c d3 1f 3d 3e 2a 1c c7 3c b8 e8 13 bd
       0.008178209 0.18469171 0.024305422 -0.03611061
000180 51 28 6c 3d 9a 60 94 bd e3 66 40 3d 73 d6 b3 3d
       0.057655636 -0.07244988 0.04697312 0.08781137
000190 ae 17 2c bd 24 78 b1 ba b2 39 c6 bb 19 9e eb bd
       -0.04201477 -0.0013539833 -0.0060493583 -0.11504764
0001a0 5b 7c 9a bc e7 7a d1 3d 82 bb 16 3d dd 9e ca 3b
       -0.018858125 0.1022852 0.036799915 0.0061834888
0001b0 cd 60 31 3d 36 13 ba bd 35 50 1d bd c4 ba 93 3c
       0.043305207 -0.090856954 -0.03840657 0.018033393
0001c0 c6 b7 57 3d 80 13 0a 3e f5 37 d1 bc 5c d2 e0 bd
       0.052665494 0.13484001 -0.025539378 -0.10977623
0001d0 49 f1 28 3d 53 37 8c bd 27 18 ad bd 0a 1d 32 3d
       0.041245732 -0.0684649 -0.08451872 0.043484725
0001e0 26 eb e9 3d e2 98 e7 bd 5c a0 37 3d aa 35 96 bc
       0.11421804 -0.11308457 0.044830665 -0.018336136
0001f0 de 18 12 3d 41 b2 8c bd 11 8b 2f 3b 67 90 3e 3d
       0.035668246 -0.06869937 0.002678577 0.04652443
000200 ce 85 a0 3d 9c 15 50 be b1 04 8c bd d2 52 5a be
       0.07838021 -0.20320743 -0.06836832 -0.21320656
000210 86 d2 68 3d f1 d2 26 3e 60 87 e6 bd 3c 15 08 3e
       0.056841396 0.16291405 -0.112562895 0.1328935
000220 20 4a 5c be b7 cc 52 3e 6a 54 9a bd 71 ac 49 bd
       -0.21512651 0.20585905 -0.07535632 -0.04923672
000230 a2 ae 41 3c 31 76 71 3e 5d 3a 8c bc 2b a4 08 bb
       0.011821421 0.23580243 -0.017117674 -0.0020849805
000240 26 df 97 3d 9a 2b 37 bb 64 94 42 3e ef 25 19 3c
       0.07415609 -0.0027949573 0.19001919 0.009347423
000250 59 8e 16 be ee f9 3a be 4c c8 1e 3e aa 1f d4 bd
       -0.14702739 -0.18259403 0.15506095 -0.10357602
000260 93 42 c6 3c 93 11 2e be df 14 cb 3d 1b 05 01 be
       0.024201667 -0.16998892 0.0991609 -0.12599604
000270 ef b3 f1 bd a0 9a 8e 3c da b9 1b 3e 5f 04 18 3e
       -0.11801898 0.017407715 0.15207615 0.14845417
000280 ad 36 f3 bd 41 5f 57 bc 3a 83 4a 3c 06 b6 e3 bd
       -0.11875663 -0.013145269 0.012360388 -0.111187026
000290 aa 73 ac 3d 4a fe 44 be 32 02 93 bd e3 3a 05 be
       0.08420499 -0.19237629 -0.07178153 -0.13010745
0002a0 a7 2e 6d 3e c0 ca bb bd 9a fb 9f 3e f2 1c 12 be
       0.23162328 -0.09169531 0.31246644 -0.14268854
0002b0 65 78 5e bd e4 a3 80 bc 81 89 60 bd c3 8b eb 3c
       -0.054314036 -0.01570315 -0.054818634 0.028753167
0002c0 05 2c c9 bc 01 85 1a 3e ab 79 76 be ef b7 d0 bc
       -0.024557123 0.150898 -0.2406985 -0.025478331
0002d0 e2 a9 15 3d f1 09 90 3d 5a 45 6b 3e b9 7d 86 3c
       0.036538966 0.07033146 0.22975674 0.016417371
0002e0 42 1c 93 bd cb d2 85 bd 45 89 40 3c f5 f6 04 be
       -0.07183124 -0.06534346 0.011751478 -0.12984832
0002f0 6c b5 6f 3c 75 af 94 3c 6f de 43 be 22 9d 0a 3e
       0.014630657 0.01815007 -0.1912782 0.13536504
000300 e1 f4 14 3d 67 fc d3 bd 83 d6 ea 3d 41 27 7d bc
       0.036366347 -0.10350876 0.11466696 -0.015451253
000310 cb 99 23 3d 69 db 37 be 6b b4 18 3d 18 8c 5e bb
       0.03994159 -0.17954792 0.037281435 -0.0033958014
000320 75 ea e8 bd 71 90 76 bd 73 9f 04 be bb f9 57 bd
       -0.11372844 -0.060196344 -0.1295145 -0.052728396
000330 04 d2 80 3d 70 5b 4c 3e e6 68 ec bd 55 d2 d7 3d
       0.06290057 0.19956756 -0.11543445 0.105381645
000340 a7 9e a0 3d 0f 2f b4 bd 8b 07 b5 bb 63 d6 05 3e
       0.078427605 -0.08798038 -0.005524581 0.13070063
000350 3e cc 8f bd 7f c3 27 bc 7b a8 9c bd 27 3e 56 bd
       -0.07021378 -0.010239481 -0.076493226 -0.052305367
000360 27 20 f7 3c a5 07 a7 3d 9d 50 e2 3d 10 ce bf bd
       0.030166699 0.08155755 0.11050532 -0.09365475
000370 61 90 0f be 0e 15 f1 3d 03 81 e7 3d 05 1f 38 3e
       -0.1401992 0.11771594 0.11303904 0.17980583
000380 18 b4 19 3c d3 8d 10 3e 66 c5 d7 3d 6b c2 5e bc
       0.009381317 0.14116602 0.10535698 -0.013596158
000390 9b 24 ea 3c 0f d9 21 be 49 fe cc 3c 8f 71 3a bd
       0.028581908 -0.15805458 0.025023596 -0.045518454
0003a0 80 55 f8 3d 0d a6 1b 3d 63 e4 2f 3d 3d 1c 77 3d
       0.12125683 0.038000155 0.042942416 0.060329664
0003b0 dc 0b 82 bd ef fb c9 bd 89 d5 5d 3c ce f0 d3 bd
       -0.06349918 -0.09862506 0.01353968 -0.10348664
0003c0 3e bd 88 3d 19 c8 8d 3e fd 6a 7a bb be f4 ac bd
       0.0667672 0.27691725 -0.0038210743 -0.08445118
0003d0 cd 74 f4 3c 3f 1f 31 3e aa 7f 02 3e ec 25 ef bd
       0.029840851 0.17297076 0.12744012 -0.11677155
0003e0 f8 f9 1d be 30 92 cd bd a2 96 83 bc 02 62 77 3e
       -0.15427387 -0.10037649 -0.016063038 0.24158481
0003f0 3b 7b 46 bd 60 06 2c bd d0 da 93 3d 0a 37 d6 3d
       -0.048457365 -0.041998267 0.072194695 0.104597166

rnn.bias_ih_l0 f4 [256]
000000 52 a1 08 3d fa d2 0c 3c c9 79 bf 3d c4 ab 97 3d
       0.033356972 0.008595223 0.093494006 0.074058086
000010 8c 6e 3a 3c d3 b1 e8 3d 11 c3 ad 3d af e0 2c 3d
       0.0113788955 0.11362042 0.084844716 0.042206462
000020 16 6e 01 3e 2f a1 a1 bd 57 72 cb bc ab eb 81 3d
       0.1263965 -0.078920715 -0.024834795 0.06343778
000030 b4 33 6f 3d ba bd 1c 3e f3 a6 c8 3c 42 5d 88 3d
       0.058398917 0.1530675 0.02449367 0.066584125
000040 d1 89 e0 3d 65 03 4b 3d 54 6c 2a 3e ab cb cc 3d
       0.109637864 0.049563784 0.16642886 0.09999784
000050 13 71 e8 3d 99 a3 65 bd 84 1e 15 3d 2a 83 0f bd
       0.11349692 -0.056064222 0.036406055 -0.035037197
000060 15 38 08 3e 2f fb 71 3d 90 a4 3b 3d af 18 eb 3d
       0.13302644 0.059077438 0.045811236 0.114793174
000070 3b da 37 bd a8 76 a3 3d 79 13 13 bd 4f ec b2 3d
       -0.044885855 0.07981616 -0.035907242 0.087364785
000080 11 23 f5 3d 82 b1 ac 3d e7 88 c6 3d 4d f1 2c bd
       0.11969579 0.084322944 0.09694081 -0.04222231
000090 90 fc 8d 3d d7 a6 56 bd 2b 9b cf bd 44 82 c2 39
       0.06932938 -0.052405205 -0.10137018 0.0003709962
0000a0 d9 80 0f bb a7 3a 13 3e 21 81 1a bd 58 fa 83 3d
       -0.0021896868 0.14377843 -0.037720803 0.06444234
0000b0 cf a2 63 bc 7c b3 49 bd 36 28 02 3e 9c 9d f8 3d
       -0.013893797 -0.049243435 0.12710652 0.121394366
0000c0 fa c7 0e 3d d9 e1 3f 3c 11 37 0d 3b dd 2d dd 3d
       0.03485868 0.011711561 0.0021547715 0.10799763
0000d0 69 ae 54 bd 34 a1 41 3d 29 49 2d bd 8a fb 87 3d
       -0.051924143 0.047272876 -0.0423061 0.06639774
0000e0 ba 6c ca 3d 32 30 fa 3b 91 a1 35 3c 9d e8 c3 3d
       0.09884019 0.00763514 0.011085884 0.09565852
0000f0 8f 64 a0 bd ae e4 13 bd 02 4a 64 bd 05 6e 42 3e
       -0.0783168 -0.036106758 -0.05573464 0.18987282
000100 19 93 34 bd e0 d9 77 3d 55 e6 08 3d b5 16 be 3c
       -0.044085596 0.060510516 0.033422787 0.023204187
000110 45 0a 0e 3c 7d 7b 69 bd e6 19 9d bd 15 e4 97 bd
       0.008669441 -0.057002533 -0.07670955 -0.0741655
000120 a2 9a 81 bc 99 01 76 3b 05 46 0d bd bd 52 a1 3c
       -0.015820805 0.0037537573 -0.034490604 0.019692773
000130 1b bd 5c 3c de 44 ac bb 83 2a b5 bc f9 a7 0f bd
       0.013472821 -0.005257233 -0.022114998 -0.0350723
000140 46 f4 a1 3d 04 a8 c0 bd 94 11 eb 3d dd 7d 17 3d
       0.079079196 -0.094070464 0.11477962 0.036985267
000150 60 3b ac bd c0 fc bc 3d b7 34 16 bd 6c 47 84 bd
       -0.084097624 0.09227896 -0.036671367 -0.06458935
000160 99 5a 1e 3d 39 0d 46 3d 0e e9 ab 3c 7b 5f 8a bd
       0.03866062 0.048352454 0.020985153 -0.06756493
000170 dc 7e 13 3e 10 f0 f4 3d 16 ef fa 3d 06 fc 26 3e
       0.14403862 0.11959851 0.12252633 0.16307077
000180 be c5 98 3d ad 8c b3 bd a8 2e fb 3d 13 ce 56 3d
       0.07459591 -0.08767066 0.12264758 0.05244262
000190 de 3d 07 3e 32 c2 27 bd 6f c6 fd 3d 40 6d 8d 3d
       0.13207194 -0.040956683 0.12391364 0.069056034
0001a0 73 40 16 3c 92 35 d0 bc bf 84 a5 3c b4 b9 af 3d
       0.009170639 -0.02541617 0.0202049 0.08580342
0001b0 cc bf cd 3d 83 41 3b bc df 0c 05 b9 af 0d b8 bd
       0.10046348 -0.011429193 -0.00012688663 -0.08986985
0001c0 a3 15 8a bd 10 4d 98 3d 6e 94 2a 3c 1b 70 13 bd
       -0.06742408 0.074365735 0.010411365 -0.035995584
0001d0 6f a9 95 bc d0 2e f1 3d 93 d1 22 3e cd 1f d6 bd
       -0.018269269 0.11776507 0.15900259 -0.10455284
0001e0 62 a2 e0 bd 7a 7d 63 3c 6b e6 9d bd 61 37 10 3d
       -0.10968472 0.013884896 -0.07709964 0.035209063
0001f0 ff b9 36 bb 55 b8 fa bd ac e3 1b 3d 0c 05 74 3a
       -0.0027881858 -0.1224219 0.03805892 0.00093086134
000200 5e 9a 9c 3d 79 22 ae bd 57 b1 37 3d 4f a2 92 bd
       0.07646631 -0.08502669 0.04484686 -0.07159864
000210 0f 16 1f 3c b2 2a e2 bd 71 74 d1 3d 8e b4 9a bd
       0.009709849 -0.110433 0.102272876 -0.07553969
000220 5a 86 a3 bd 8b ac 94 3d 81 66 ec 3d 8a 74 b0 3d
       -0.0798461 0.072594725 0.115429886 0.08615978
000230 67 66 c2 bd d7 1c ac 3d 8d d2 47 3d 77 35 92 bd
       -0.09492188 0.08403938 0.04878478 -0.07139104
000240 18 1f d7 3d 7e f3 5e 3d 64 80 6f bd cd 85 de bd
       0.105039775 0.05443143 -0.058472052 -0.10865364
000250 5e 96 0d bd 2e a5 3a bd 59 8e 88 3d 7b 55 ec 3d
       -0.03456723 -0.045567684 0.06667776 0.115397416
000260 4d 69 80 bc b3 94 f0 bd 1b a3 52 bd 5e 20 ba bd
       -0.015675211 -0.11747112 -0.05142508 -0.09088205
000270 85 e1 e7 3d 4a 8d 8a 3d 6c 5b 0a be 5a aa 41 3d
       0.11322311 0.0676523 -0.13511437 0.0472816
000280 2e a6 2a bd eb 78 e8 3c 86 5c db 3d 6b 13 8f bd
       -0.041662388 0.02837797 0.10711007 -0.069861256
000290 f1 8f 2d bd 8f cb bf 3d ac c9 d2 3d 91 d1 0e 39
       -0.0423736 0.093649976 0.10292372 0.00013620245
0002a0 84 3e 2d 3d 56 97 94 3d 6c 17 4d bd f2 67 db bd
       0.042295948 0.072554275 -0.050071165 -0.10713185
0002b0 24 a5 01 3e 4d fa 11 3d 33 4e 08 3c 90 d0 e3 ba
       0.12660652 0.035639096 0.008319425 -0.0017380882
0002c0 55 57 8a 3d 5d 42 02 be 0b 11 2b 3d ce 09 17 3d
       0.067549385 -0.12720628 0.0417643 0.036874585
0002d0 09 64 c2 3d 63 2f e5 bd 74 34 bb bd 6c 41 a7 3d
       0.094917364 -0.11190679 -0.09140864 0.08166775
0002e0 21 9c b1 bc 61 f8 1e 3d 02 42 ab 3d af 3f b8 bd
       -0.021680893 0.03881109 0.08362199 -0.08996522
0002f0 5c a7 f7 3c d1 68 c7 3d b1 43 3a bd 58 4e 2e bd
       0.03023117 0.09736789 -0.04547471 -0.042555183
000300 c3 f5 09 3e 28 99 34 bd 35 83 98 3d 35 a7 35 3e
       0.13472657 -0.044091374 0.07446901 0.17739566
000310 9d 93 13 3e f9 14 c7 3d 62 71 11 3d 27 15 a4 3d
       0.14411779 0.09720797 0.03550852 0.08011847
000320 f8 bb 26 3d 48 66 dc 3b f1 87 e1 bd 04 b8 41 bc
       0.040706605 0.00672606 -0.11012257 -0.011823658
000330 85 19 81 3c 3d f5 44 3c d7 af 06 bd d3 86 82 3d
       0.015759239 0.01202136 -0.032882538 0.06373372
000340 24 07 c0 bd c0 97 9b bd 4f 92 74 bc f0 d5 9d 3c
       -0.09376362 -0.075973034 -0.014927461 0.019267052
000350 e9 c6 0d 3e 3d 9f 3e 3c f4 64 89 bc 41 db a3 3d
       0.1384541 0.011634645 -0.016771771 0.08000804
000360 31 2b 1b 3d eb fb ca bc c4 c5 14 3e 41 da ae 3d
       0.037882987 -0.024778327 0.14528567 0.085377224
000370 8d 89 06 3e 43 39 00 3c 43 e7 74 bc be 25 33 bc
       0.13138409 0.007826152 -0.014947715 -0.010934291
000380 14 8b 82 3d 3d 23 cd bd 32 03 35 3b fb ba 95 bd
       0.06374183 -0.10016487 0.0027620313 -0.07311054
000390 57 c8 05 bd 40 12 3c 3d 97 bd 1a bd 7d d6 79 bd
       -0.032661762 0.045915842 -0.037778463 -0.060995568
0003a0 3f 1f 06 bd f5 13 98 bd 1a 90 2a 3e 59 d3 fb 3d
       -0.032744642 -0.074256815 0.16656533 0.12296171
0003b0 10 41 bf 3d b5 54 63 3d 0e 07 19 bd 58 aa bb bd
       0.093385816 0.055500705 -0.037360243 -0.0916335
0003c0 bb f7 ae bd 78 c1 85 bd 35 75 0d bd ce 12 eb 3d
       -0.085433446 -0.06531042 -0.034535605 0.11478196
0003d0 3e 50 3b bd b3 5a 28 ba 72 b8 c9 3d fd 0c 64 bd
       -0.04573082 -0.00064222066 0.09849633 -0.05567645
0003e0 98 f1 0f 3e f3 1a bf 3d 9b 39 82 3d 55 da bd bd
       0.14057004 0.09331312 0.063586436 -0.09270159
0003f0 05 82 82 3c a7 75 1f b7 61 df 65 3d 2f 40 02 3e
       0.015931139 -9.504532e-06 0.056121234 0.12719797

rnn.bias_hh_l0 f4 [256]
000000 ab b3 b5 3d 9b be f5 3d e4 02 83 3d 37 8a b0 bc
       0.088721596 0.11999246 0.06397036 -0.021550281
000010 87 df 5d 3e 34 e4 9b 3d 2b 7f cb bd 26 75 de bd
       0.216673 0.07611886 -0.09936365 -0.10862188
000020 a0 d3 b8 3d f6 e1 65 3d ee 07 3a bd 16 57 5d 3c
       0.09024739 0.056123696 -0.04541772 0.013509532
000030 ae 58 32 bc 1a dd 16 3e 94 48 cc bd 7f 30 c7 bd
       -0.010885401 0.14732781 -0.09974781 -0.09726047
000040 50 f7 6d 3c 37 a0 c4 3d 0c d0 7e bc 60 dc 5a 3d
       0.014524296 0.09600871 -0.015552532 0.053432822
000050 54 75 b4 3c 2a 3a e9 3d 0a ab 5a bd e8 76 e3 3b
       0.022028603 0.11388047 -0.05338577 0.006941665
000060 3a 61 08 bd 42 11 ba bc a1 41 54 3d 6f 2f d0 3d
       -0.033295847 -0.022713307 0.0518204 0.10165297
000070 ab 21 7f 3a 3d c2 1e bd e7 da 04 bd d0 f0 af bc
       0.0009732495 -0.03875946 -0.032435324 -0.021477133
000080 6b 3f 70 3d 8a 83 6d bd 55 83 b1 bd cc 55 b1 bd
       0.05865423 -0.057986774 -0.08667628 -0.086589426
000090 2a 3f 47 3d 79 e4 8e bd 15 ac 58 3d bf 65 c9 bd
       0.048644222 -0.069771715 0.052898485 -0.0983386
0000a0 0a d7 a4 3d 0c 6d 75 bc bc e7 bc 3d ac 57 b2 bd
       0.08048828 -0.014979612 0.09223887 -0.08708128
0000b0 79 ff 11 3e e1 69 60 ba 44 7a 7e 3d c8 e3 71 3d
       0.14257611 -0.0008560699 0.06212832 0.05905512
0000c0 21 c5 c0 3c 1d 52 bd bd 10 57 b9 3d 6b 23 ab 3c
       0.023531498 -0.092441775 0.09049809 0.020890912
0000d0 5e 7d 93 bc 90 98 a3 3d 28 03 3b 3e dd 2d 8f 3d
       -0.018004116 0.07988083 0.18262923 0.069911696
0000e0 6f d3 5e 3c 90 34 6e 3d 31 1b ba 3d 99 84 0d 3e
       0.013600214 0.058155596 0.090872176 0.13820113
0000f0 27 d3 f5 bc aa 63 63 3d 8d 1b d9 3d 31 ba 07 3d
       -0.030007912 0.05551497 0.10600958 0.03313655
000100 af 47 12 3d e6 31 a3 bd f2 15 aa 3d 76 fe 15 bd
       0.035712894 -0.07968502 0.08304967 -0.036619626
000110 31 cc 19 3d be 12 b6 bd cf 41 86 bd c6 e8 3f bd
       0.037548248 -0.088902935 -0.06555521 -0.04685285
000120 c4 d6 28 bc c8 a7 1f bd 54 76 84 3d 1d 7c a8 3c
       -0.01030511 -0.038978368 0.06467882 0.020566994
000130 bd 76 c3 bd 06 76 8c bb 59 ed 11 3e 02 e8 c4 3c
       -0.09544132 -0.0042865304 0.14250697 0.024036411
000140 7f 7f fe 3d 1e 67 7b 3d aa 5d 15 bd ed af b2 bd
       0.12426662 0.061377637 -0.036466278 -0.087249614
000150 13 56 a8 3b 81 dc f3 bc ae 7f dd bd 6e dd 9a 3d
       0.005137214 -0.02976823 -0.108153686 0.075617656
000160 80 e3 40 bd 58 c7 89 3d 04 54 72 bd c6 60 c5 3c
       -0.04709196 0.06727475 -0.059162155 0.024093997
000170 ca 12 2c 3d ee ea 8a bd af 65 c1 3c 29 bf 8f 3c
       0.042010106 -0.067830905 0.023608057 0.017547207
000180 c6 86 aa bd 5f 9c c1 bd 99 f4 71 3d 55 dd 07 3d
       -0.08326487 -0.094536535 0.059071157 0.033170063
000190 52 e0 a7 bd e6 c6 88 3c 57 5c e8 bd 50 04 8a bd
       -0.081970826 0.016696405 -0.113457374 -0.06739104
0001a0 e8 c9 de ba 23 ca 28 3c 8e 81 c3 bc 88 f2 a4 bd
       -0.0016997429 0.010302099 -0.023865487 -0.08054072
0001b0 db 33 c5 3d 2d cd 5f bd 93 49 33 3e 77 b6 88 bd
       0.09629031 -0.05463903 0.17508535 -0.066754274
0001c0 2d 07 51 3d 83 d5 3c bd 01 54 c9 3d 79 01 17 3e
       0.051032234 -0.04610206 0.098304756 0.14746656
0001d0 15 1e c7 3c 03 6a 95 bc a2 a9 05 bc bf 42 06 bd
       0.024306336 -0.018239027 -0.008158119 -0.032778498
0001e0 02 2b 4f bd f1 c2 40 3d 5e 11 77 bd f6 bb f3 3d
       -0.050578125 0.04706091 -0.060319297 0.11901085
0001f0 c6 13 65 bd 2b 2f 94 bb 92 22 0c 3e 12 4b 18 3d
       -0.05592706 -0.0045222244 0.13685063 0.037180968
000200 99 70 a0 bd c7 bd bc bd 64 9a 25 bd f5 1c 97 3d
       -0.07833976 -0.09215885 -0.04043044 0.0737857
000210 fa 4c b2 bd ca a1 c4 3d ed 3b 2b 3d c6 80 f9 bd
       -0.08706088 0.09601171 0.041805197 -0.12182765
000220 76 90 b8 bd c3 a3 9c 3d 12 c3 48 bb 14 67 89 bd
       -0.09011929 0.076484226 -0.003063385 -0.06709114
000230 91 fd d3 3d 68 55 0a bd 89 e1 dc 3d 38 dc 97 3d
       0.10351098 -0.033772856 0.10785205 0.0741505
000240 80 1a 88 bd 17 fc ac 3d 7c ae d9 3c e9 be 9f 3d
       -0.066456795 0.0844652 0.026572458 0.07800085
000250 c6 b7 c5 3d 3e ee e1 3d 9f a0 9b 3b d9 ed ff 3d
       0.096541926 0.11031769 0.004749372 0.12496538
000260 aa 3e ca 3d 76 12 c1 bd 3e 9e 42 bc e7 63 56 bd
       0.098752335 -0.09427349 -0.011878548 -0.052341368
000270 68 e1 9e 3d eb 2e 85 bd f6 54 b7 bd 6d 46 a6 bd
       0.077578366 -0.065030895 -0.08951752 -0.081189014
000280 d4 dd 84 bd 06 d6 2a bd a4 d8 23 3a 74 f4 c2 bc
       -0.06487623 -0.041708015 0.00062502385 -0.023798205
000290 ba cc ed bd 34 0d 1a bd 0f 67 82 3d 28 ae c4 bd
       -0.11611314 -0.037610248 0.06367313 -0.0960353
0002a0 08 5e 9c bd 26 42 bb 3d 72 e2 bb 3c 70 d3 86 bd
       -0.076351225 0.09143476 0.022935126 -0.06583297
0002b0 d6 3b 64 bd 74 dc f3 bd 32 4d 3a 3d e5 bd 0d 3d
       -0.055721126 -0.119072825 0.045483775 0.034604926
0002c0 db ae 84 bc 69 40 d9 3d 87 7a 8e bd 9a 1e a4 bc
       -0.016196659 0.106079884 -0.06956964 -0.020034123
0002d0 8d 39 f1 3d f5 7c cd bd fe 9e 39 bc 1d 73 15 bd
       0.11778555 -0.10033599 -0.011329411 -0.036486734
0002e0 52 6b 3f bd ff e0 3d bd fa 17 97 3c 60 e0 5c bd
       -0.046733208 -0.04635715 0.01844405 -0.05392492
0002f0 12 df 4d 3d a7 e7 86 3d 83 84 06 be cf f0 8e ba
       0.050261565 0.06587153 -0.13136487 -0.0010905507
000300 62 c8 d6 3d ae 6f 66 3c fd 23 3c 3d a6 67 17 3e
       0.10487439 0.014064712 0.04593276 0.14785632
000310 c8 c0 34 3e d0 b7 aa 3c 32 9b f7 bd 62 8b 90 bd
       0.17651665 0.020839602 -0.12090148 -0.07057835
000320 91 b0 02 3a 0c 14 f8 3d d8 5d b9 bb 2e e7 9d 3d
       0.0004985417 0.12113199 -0.005656939 0.0771011
000330 76 9e 0e bd ac 54 1d 3d 0f bb 09 bc 68 a7 18 3d
       -0.03481909 0.038410828 -0.008406415 0.037269026
000340 e8 4b dc 3c 68 d9 e1 3d 13 46 02 3b 60 32 b7 bc
       0.026891664 0.11027795 0.0019878193 -0.022362888
000350 78 89 9f 3d f7 e0 05 3e cb 56 ff 3d 57 73 d4 bc
       0.07789892 0.13074099 0.12467726 -0.025933905
000360 78 a9 b6 3a e5 a1 c7 3c 13 6b d0 bb 61 7c 9a bd
       0.0013936004 0.02436919 -0.0063604205 -0.07543255
000370 8b 07 cd 3d a1 58 d4 bc 2c 3b 03 bc 6e 81 3f 3e
       0.10011204 -0.025921168 -0.008009713 0.18701717
000380 80 a2 da 3d 79 95 44 3d 00 ff c4 3c b7 15 81 bc
       0.10675526 0.04799411 0.024047375 -0.015757425
000390 bf c1 d7 3d 02 af 11 bd c9 50 93 3d 90 da ba 3c
       0.10535001 -0.03556729 0.07193143 0.022809297
0003a0 15 df de 3d 31 cb c9 bd dd f8 1a 3e db 75 af 3d
       0.10882393 -0.09853209 0.15133996 0.08567401
0003b0 f7 12 17 3e 1e c8 88 bc a4 df 38 3d 17 4c 17 3e
       0.14753328 -0.016696986 0.045135155 0.1477512
0003c0 d4 35 2b bc 20 ef 90 bc 60 c8 5b bd 43 b0 89 3c
       -0.010449845 -0.017692149 -0.05365789 0.016807681
0003d0 80 3f 01 bd 89 f1 e2 bc ee 89 b5 3d 6c af d1 bd
       -0.0315547 -0.027703064 0.088641986 -0.10238537
0003e0 90 7b cb bb 5b e6 5a bc 4b 35 dd bc 0d 0b 96 bd
       -0.006209798 -0.013360585 -0.027002951 -0.073263265
0003f0 30 e7 00 3e 13 fe bb 3d d4 bb ff 3d bc 0a c9 3b
       0.12588191 0.0917932 0.12486997 0.006135313

rnn.weight_ih_l1 f4 [256, 64]
000000 26 0f ed 3d a2 9b 27 3d 5a 89 92 bd 11 b6 c9 bc
       0.11575155 0.040919907 -0.07155104 -0.024622949
000010 73 ef c9 3c b9 b0 84 bd 9c 40 ee bd 67 5f 79 bd
       0.024650311 -0.0647902 -0.11633417 -0.060882
000020 c8 c4 ee bd 1f 01 df bd 77 8c a7 3d ba 20 b2 3d
       -0.11658627 -0.10888886 0.081810884 0.08697648
000030 36 ee b9 bd 13 71 a3 bd b9 0d 00 3b 1d 0a d3 bc
       -0.09078638 -0.079805516 0.001953943 -0.025761658
000040 57 8d 00 3d 9b 09 a0 bd 3d bc 8a bc b2 0f 19 3c
       0.031384792 -0.07814332 -0.016935462 0.009342121
000050 36 04 5c 3c 30 b6 aa 3d be 96 12 3c 54 de 68 3d
       0.013428738 0.08335531 0.008947073 0.056852654
000060 2e fc aa 3d 21 5f d3 bd 4e ab f8 bc 0d d2 72 bd
       0.08348881 -0.10320879 -0.030355122 -0.05928235
000070 67 13 00 bc fe a5 5b bd 83 e9 c6 3d 77 45 12 3e
       -0.007817126 -0.0536251 0.097125076 0.14284311
000080 a9 71 6a 3d 3a 87 5e 3d ca 6f 92 3d 34 70 65 bd
       0.0572373 0.05432818 0.07150228 -0.05601521
000090 39 1b 3d 3c b9 72 4a 3c 61 a4 a4 bd ef 86 e8 3d
       0.011542135 0.012356454 -0.08039165 0.113538615
0000a0 25 1a a2 3d b9 93 74 3d 95 2d 9a bd 71 75 cc 3d
       0.07915143 0.05971119 -0.07528225 0.09983338
0000b0 56 81 0b 3d e1 ad 87 3c 46 9b 0a 3d 13 59 16 3d
       0.03405889 0.016562404 0.033839487 0.03670604
0000c0 18 a0 5d bd 3f 5e 5d 3d 01 68 e6 bd 5a eb d4 3d
       -0.054107755 0.05404496 -0.11250306 0.10396452
0000d0 02 9d d7 bd da 0a b9 3a 3e bb ad 3c 5f 39 f1 3a
       -0.10527994 0.0014117614 0.021207448 0.0018403939
0000e0 9f 78 bd 3d 61 c5 9a 3d 46 23 bf bd 73 ac 9e 3d
       0.09251522 0.07557178 -0.093329 0.07747736
0000f0 86 e1 a5 bc 2d a5 a2 ba e6 5e 30 3d 0e b1 af 3d
       -0.02024914 -0.0012408845 0.043059252 0.085786924
000100 a6 b4 b9 bd dd 94 f8 3d dd 5a ca 3d 72 61 c0 bc
       -0.09067659 0.121377684 0.09880612 -0.023483966
000110 db ac b4 3c e9 89 c2 bd bf b9 74 3d 41 33 78 3d
       0.02205508 -0.094989605 0.059747454 0.060595755
000120 d1 28 58 bd fd cb ae bd 70 fd dc 3c 73 e8 bf bd
       -0.0527733 -0.085350014 0.026976317 -0.09370508
000130 c4 0a 6d 3c 9d d7 02 3e dc fb 30 3c 0e 4d cd 3b
       0.014467899 0.12777562 0.010802235 0.006265289
000140 8e e4 b7 bd fb 16 68 3d d2 bb 81 bd 00 b2 90 3d
       -0.0897914 0.05666254 -0.06334652 0.07065201
000150 74 8d a6 bb 1e ef 81 3d e0 d2 06 3c 4c 02 b9 3d
       -0.0050827805 0.06344436 0.008228987 0.09033641
000160 d7 aa 5b 3d e8 f6 e2 3b 7e 3b 49 3d 83 5b 5f 3d
       0.053629722 0.006926406 0.049129 0.05453063
000170 12 0b 96 bc 9a a6 68 bd 0e 94 b4 bd d2 a9 21 3d
       -0.018315826 -0.05679951 -0.08817302 0.039468594
000180 47 8d cb 3d 80 68 c6 bd de f6 f5 bd 67 7a a2 3d
       0.09939056 -0.096879005 -0.12009977 0.07933503
000190 c3 3d d9 3d f2 f0 7d bd 07 57 72 3d ae 3f 76 bd
       0.10607483 -0.06199736 0.059165027 -0.060119323
0001a0 f2 0a e0 bc 1e 78 b3 bd 11 a8 d0 bd 01 33 ae 3d
       -0.02734897 -0.08763145 -0.10188306 0.08505822
0001b0 cf bd 24 3d 55 0d 12 3d ac 6a 85 bd a3 6a 2e 3c
       0.040220078 0.035657246 -0.06514487 0.010645541
0001c0 83 4d 2d bd 03 69 68 bd 99 f4 60 bd a6 09 90 bc
       -0.04231025 -0.056740772 -0.054920767 -0.017582726
0001d0 64 21 01 3e 94 11 dd 3c 3e 1c e4 ba ca 82 00 3e
       0.12610394 0.026985921 -0.0017403436 0.12549892
0001e0 eb 1b e0 3d b7 29 8a bd 40 cd 95 3d 66 fb ce bd
       0.10942825 -0.06746238 0.07314539 -0.10106544
0001f0 16 74 37 bd 54 f3 a6 bc 8b f4 7a bd 47 e0 a6 3d
       -0.044788443 -0.0203797 -0.06126837 0.08148246
000200 22 2a 8b 3d 0b 94 00 3c 99 ee a0 bc 85 22 ad 3d
       0.067951456 0.007847796 -0.019645022 0.0845385
000210 d7 b5 b3 3d 73 67 28 bd 42 0c cb bd 4e 56 b6 3d
       0.087749176 -0.041114282 -0.09914447 0.0890318
000220 c9 8d 04 be d1 83 3c 3d e2 70 d1 3d 31 cf ec bd
       -0.12944712 0.046024147 0.10226609 -0.11562956
000230 e6 db 0a 3d cf 2b c8 bc 68 47 cf 3d 8f b9 38 3d
       0.033901118 -0.024434952 0.101210415 0.045098837
000240 e5 4e 7f bb 32 3b b0 3d 30 36 85 bd 79 dd 06 ba
       -0.0038956937 0.086050406 -0.06504476 -0.00051446963
000250 05 b0 ab bd ef 94 f4 3d be 2f a8 3c 72 2c c3 3b
       -0.083831824 0.11942469 0.020530578 0.005956226
000260 c3 f9 f7 3d 31 72 a6 bd 37 06 36 be 24 0b 9b bb
       0.12108185 -0.08127249 -0.17775808 -0.0047315527
000270 fa 09 cd bc d8 7f 87 bd af 8d 02 be 14 e2 84 bd
       -0.025029171 -0.06616181 -0.1274936 -0.064884335
000280 ac 73 45 3d 68 55 5b bd ad 7a 8e 3d 0d 80 40 bd
       0.048206016 -0.053548247 0.06956992 -0.04699712
000290 2c a7 d5 3d ec 3e 82 bd 22 07 95 bd 3e 01 cb bc
       0.10432276 -0.06359658 -0.07276751 -0.024780866
0002a0 79 1a 06 3d ab ab e5 3c cf 4f fb bd 07 cf ab bd
       0.03274009 0.02803596 -0.12271082 -0.08389097
0002b0 f8 25 80 3d 54 1f d6 3c 30 4f 4a 3a 88 af dc 3d
       0.06257242 0.026137985 0.00077174883 0.107756674
0002c0 25 0f 04 3e a6 6f 63 3d c7 36 39 3d ff 3c c5 bc
       0.12896402 0.055526398 0.045218255 -0.024076937
0002d0 f5 ff c4 bd e3 85 aa bd a7 94 95 3d 84 e2 d9 3d
       -0.096191324 -0.08326318 0.07303744 0.106389076
0002e0 63 10 87 3c 1c 52 a9 3d f2 df a4 bd a6 d9 c3 3d
       0.016487306 0.08267614 -0.08050527 0.095629975
0002f0 0d b6 15 3c 32 bf 64 3d fb 73 a5 3d 14 ad e5 3d
       0.009137643 0.0558464 0.08078762 0.11214653
000300 94 7f 96 3d ef e7 d4 3d 52 d0 f3 3d 92 fc c1 3d
       0.07348552 0.103958 0.11904968 0.09472002
000310 31 a5 e7 3c 99 bb c3 bd e6 4a 2c 3b f4 9a e1 3d
       0.028277012 -0.09557266 0.002628976 0.11015883
000320 59 0e bc 3b d7 97 a2 3d 68 97 9f bd 3c 4f 29 3d
       0.005739015 0.079391174 -0.0779255 0.04133533
000330 0a c0 80 bd e5 db c7 bd 5b ad 8c bd d3 c1 54 3d
       -0.062866285 -0.097587384 -0.068690024 0.051942658
000340 ca cf 80 bd 50 6d df 3d 47 16 00 be 43 99 59 3d
       -0.062896326 0.109095216 -0.12508498 0.053124677
000350 81 48 c3 3d c1 16 d4 bd f1 ba ad bd 42 12 c4 3d
       0.095353134 -0.103559025 -0.08482922 0.09573795
000360 21 7c d9 bd c9 e9 1b 3a 92 84 f2 bd 70 86 37 bd
       -0.10619379 0.00059476175 -0.11841692 -0.044805944
000370 1c aa 97 bc de 10 4e bc fa 36 d9 bd 58 6f 75 3c
       -0.018513732 -0.012577264 -0.10606189 0.01498016
000380 80 e8 a9 bd bf 4c dd bd 62 e1 7a 3d 33 05 29 bd
       -0.08296299 -0.10805654 0.061250098 -0.041264724
000390 4d 87 dc bc 24 e7 74 3c e8 d9 90 bd 3b e8 d4 3c
       -0.026919985 0.014947686 -0.07072812 0.025989642
0003a0 25 85 a0 bd 5c 5c 69 3d c2 e8 8c 3d fe c8 c5 bc
       -0.07837895 0.056972846 0.068803325 -0.024143692
0003b0 2d 77 18 3e d1 09 07 be ce 2f 65 bd 47 d3 7a 3d
       0.14889212 -0.13187338 -0.055953793 0.061236646
0003c0 9b 2d 73 3c 97 f7 49 bd b0 93 1e bd 2e 33 92 3c
       0.014842416 -0.049308386 -0.038715065 0.01784667
0003d0 83 21 84 bd b5 54 ab 3d da 57 b9 3d 1c cf 0d 3d
       -0.06451704 0.08365766 0.090499595 0.034621343
0003e0 24 94 07 be 00 ba 77 3d 39 e1 ab 3d 89 65 c2 bd
       -0.13240105 0.060480118 0.08392567 -0.094920225
0003f0 d8 ca 01 3b 2f 14 c3 bb 58 38 9b bd a8 cd d6 3d
       0.0019804742 -0.005953334 -0.07579106 0.104884446

rnn.weight_hh_l1 f4 [256, 64]
000000 67 df 31 3d 7f 70 e3 3d 39 a8 6f 3c 50 c5 fb 3d
       0.043425944 0.11105441 0.01462751 0.12293494
000010 14 aa c3 bd ae d9 a5 bc 2e bd 0a be 95 9c e5 bd
       -0.09553924 -0.0202454 -0.13548729 -0.11211506
000020 c1 2e e0 3d 35 10 b8 bd 16 48 87 3d d7 0b e0 3d
       0.109464176 -0.08987466 0.06605546 0.10939758
000030 09 d9 b8 3d 4f 16 f8 3b 15 56 9b 3d bc d5 d2 3d
       0.09025771 0.0075710188 0.07584778 0.10294673
000040 7a 73 69 3d 6d c8 e7 bb b3 c5 c3 3d 06 fe 8e 3d
       0.056994893 -0.007073453 0.095591925 0.06982045
000050 16 13 b4 bd 58 c7 9c 3d 23 30 8b bb af 51 d0 3d
       -0.08792703 0.07655209 -0.0042476817 0.1017183
000060 4b 97 b7 3d a0 7a 77 3d f2 48 de 3d 08 95 e9 3c
       0.08964404 0.06041968 0.10853757 0.028513446
000070 55 22 e5 bd 82 98 c0 3d 96 7d 0f bc f6 be d9 bd
       -0.11188189 0.094040886 -0.008757969 -0.10632126
000080 4c 1b ce 3d 67 74 c6 bd 3c 0f 2b 3d ed 1b af bd
       0.100638 -0.09690171 0.041762576 -0.08550248
000090 0b 67 51 3c 94 68 0e bc 38 88 08 3e c1 d7 89 bc
       0.012780915 -0.008691926 0.13333213 -0.016826512
0000a0 03 90 86 3d e4 ab 97 3b 3e 90 05 3e c0 3a 74 bd
       0.06570437 0.0046286453 0.13043305 -0.05962634
0000b0 41 23 37 3d 66 3b a9 bd 26 80 2c 3d e7 c4 74 3d
       0.044711355 -0.082632825 0.0421144 0.059758093
0000c0 c8 8d 09 3e 51 98 97 3c c2 df f9 bc 4b 41 76 3d
       0.13432992 0.018505247 -0.030502204 0.060120862
0000d0 7e 3d b8 3c dd 11 a9 bd dd dc a5 3d 0f fd b9 3d
       0.02249026 -0.0825536 0.08098767 0.0908147
0000e0 62 82 56 bd f7 b9 1d 3d b2 0e 34 3c 4c 4b 3b bd
       -0.052370436 0.038507428 0.010989832 -0.045726106
0000f0 34 5e 39 bd 40 9f 7f bd 60 31 11 3d 28 fb e8 bc
       -0.045255855 -0.062407732 0.03544748 -0.028440073
000100 6a 51 4a bd cc 20 e4 bc e2 98 66 bd 06 6e f2 3d
       -0.04939405 -0.02784767 -0.056298144 0.118373916
000110 b3 2c 8b bd 2d 35 93 bd 5d 2e 9a 3d ca 10 e4 bd
       -0.06795635 -0.07187877 0.07528374 -0.11136015
000120 53 c8 f2 bc 3a 34 11 3d 9e eb 1b bd b7 d3 58 3d
       -0.029636538 0.035450198 -0.0380665 0.052936282
000130 af 63 7d 3c 87 3f ca bd a5 26 28 3c bd eb fa 3b
       0.015465661 -0.09875398 0.01026312 0.0076574967
000140 f7 15 eb 3d d9 cb a7 bc 5c 52 1f 3d 44 21 03 be
       0.11478799 -0.020482944 0.038896903 -0.12805659
000150 f3 dd f6 3d ba 42 b2 bd a2 08 f3 3d 58 91 fd bd
       0.12054052 -0.08704133 0.11866881 -0.12381238
000160 06 e4 ac bc c0 29 73 bd 13 89 ca bd 6e 47 ab 3d
       -0.021104824 -0.059365988 -0.09889426 0.083632335
000170 ad 89 8f bd ff 97 e5 bc 08 c0 8a 3d 41 dd 85 3d
       -0.070086814 -0.028026579 0.06774908 0.065363415
000180 70 05 39 bd 23 5a 64 3d 49 b1 2a 3d 58 fe da 3b
       -0.0451712 0.055750024 0.04167298 0.006683152
000190 76 a0 be 3a 1d c8 72 3d 31 ba 6a 3d b3 25 91 bd
       0.0014543671 0.059272874 0.057306472 -0.07087269
0001a0 fd ad d9 3d d1 fd 9f 3d 3a 6c db 3d da 77 e9 3d
       0.10628889 0.078120835 0.10714002 0.11399813
0001b0 da b7 1a 3d 66 af c3 bd 20 c7 d7 bd 9a f3 2b bd
       0.03777299 -0.09554939 -0.10536027 -0.041980363
0001c0 0b de b4 bc f4 b5 54 3d c8 a2 f2 3d 11 3e 2b 3c
       -0.022078535 0.051931337 0.11847454 0.0104518095
0001d0 e7 09 da bd cf 7a 62 3d ae 47 30 3d 37 c9 63 bc
       -0.1064642 0.0552929 0.04303711 -0.013902954
0001e0 af 4b 8f bd 33 b3 9d bd ad 07 10 bd 1e 32 c3 bd
       -0.069968574 -0.07700195 -0.03516357 -0.095310435
0001f0 7b 4b 27 3d 0c b6 ab bd e9 e0 b1 bd 65 ab 16 3d
       0.04084347 -0.08384332 -0.08685476 0.03678455
000200 88 d0 4c bd b7 01 87 3b 20 c7 b8 bd 0c 9f 93 bc
       -0.05000356 0.0041200775 -0.09022355 -0.018020175
000210 7f 2d 02 be e7 fc cb 3c d4 ba ab bd 08 b5 cc 3d
       -0.12712668 0.024900867 -0.08385244 0.099954665
000220 a6 82 b5 3d ac b0 85 bd 03 34 1b 3e 95 65 b8 bc
       0.0886281 -0.06527838 0.1515656 -0.022509376
000230 79 44 d3 3d f2 9d ef 3d 0d 1e f8 bc f9 bf eb 3c
       0.103157945 0.117000476 -0.030287767 0.028778063
000240 49 ed b7 bd ea b8 cc 3d 47 69 b8 bc a8 5c 8e bc
       -0.089808054 0.09996207 -0.022511138 -0.017378166
000250 48 43 4c 3c 32 8b b6 3c e8 7e 8d bd 74 6d 74 bd
       0.012467213 0.02228317 -0.06908971 -0.059674695
000260 d0 03 a5 bd c1 0a 36 bd 19 f3 ec 3d 39 9d 04 bc
       -0.08057368 -0.04444385 0.11569805 -0.008094125
000270 cc 9a 06 be 87 10 a3 bc 35 5b 8d bc a1 16 64 3d
       -0.13144988 -0.019905342 -0.017255405 0.055685643
000280 6e 5f 01 3e a6 6b 02 3c 3d c1 e0 3b 09 29 28 3c
       0.1263406 0.007960236 0.0068589733 0.01026369
000290 e5 fc c9 bd 16 50 d3 bc c6 98 da 3d b9 18 0b 3e
       -0.09862689 -0.025795024 0.106736705 0.1358365
0002a0 4a 13 d2 3d 94 b9 ea 3d d6 e9 1a bd 08 51 22 bd
       0.10257585 0.114611775 -0.03782066 -0.03962806
0002b0 e5 60 89 3d ce 85 25 bd ac ca 3b bd 8e 97 aa bd
       0.06707934 -0.04041081 -0.04584758 -0.08329688
0002c0 f2 13 10 3d 2c 32 a5 3c 64 22 d1 bc f7 1e 87 3c
       0.03517527 0.020165525 -0.025529094 0.016494257
0002d0 b9 6b a8 3d 1f 02 d1 bd 8d 27 ec 3d bc 60 f9 3b
       0.082236715 -0.10205483 0.11530981 0.0076104086
0002e0 07 1e cc 3c 08 a2 33 bd 97 23 9f bd 93 3f 21 39
       0.024916662 -0.043855697 -0.0777046 0.0001537784
0002f0 95 df 29 3d 10 69 87 bd 22 75 86 bd a7 5e d8 bd
       0.04147299 -0.06611836 -0.0656531 -0.105649285
000300 6a 62 75 3d 46 64 ef 3d 26 3a ea 3d f7 9c c6 bd
       0.059908308 0.116890475 0.11436872 -0.096979074
000310 d2 0f 40 3d 6e 68 a6 3d 2b e9 4a 3d f9 4d 5f 3c
       0.046890087 0.08125387 0.049538773 0.01362943
000320 4e 1f a0 bd 88 42 3e 3d d5 ab a1 3d 75 4c 80 3d
       -0.07818471 0.046450168 0.078941025 0.06264583
000330 25 e7 d2 3d d7 3e 9d 3c 58 be 79 bd ed 65 88 bb
       0.102979936 0.019195003 -0.06097254 -0.004162541
000340 cf 7c 03 3d 61 15 e1 3d d2 46 d7 3c f0 2e fd 3d
       0.03210145 0.10990406 0.026278887 0.12362468
000350 af 3a 59 3d ea eb 87 bd 80 02 95 bd b5 4c 0d 3d
       0.05303448 -0.06636794 -0.072758675 0.03449698
000360 3d 89 2d 3d f0 ac 4b 3d 66 2b 75 bc 23 1b f9 bb
       0.04236721 0.049725473 -0.01496396 -0.007602112
000370 2c ae f5 bd 46 cc 87 bd bf f8 8f bc c8 f1 a1 3d
       -0.11996111 -0.06630759 -0.017574666 0.07907444
000380 1d 4f b1 bc a3 b9 a8 bc e3 17 d3 3d 09 16 b6 3d
       -0.02164417 -0.020596331 0.103072904 0.088909216
000390 d6 71 d6 3d 93 64 b2 bc 1b b3 8c bd 32 b8 65 bd
       0.10470931 -0.021776473 -0.06870099 -0.056083865
0003a0 93 5f 24 39 2b 21 80 bd 14 9b c3 bd d2 33 a1 bd
       0.00015675863 -0.06256326 -0.09551063 -0.07871212
0003b0 3a b6 b7 bd 93 02 b3 bd 23 6b 81 bc 32 0f 82 3d
       -0.08970304 -0.08740725 -0.015798157 0.063505545
0003c0 9b 7a da 3d d6 9b d0 3d 2a 26 2d 3d 67 9d 10 3d
       0.106679164 0.10185973 0.042272724 0.03530636
0003d0 fb 22 b5 bc 66 fb 80 3d 7d 7b 65 3d dd 70 f0 3b
       -0.022111407 0.062979504 0.05602597 0.007337673
0003e0 1d 6a a9 3c 10 80 88 bd fd 02 dc bd 4e f6 82 bd
       0.020680482 -0.06665051 -0.107427575 -0.06394635
0003f0 c5 f1 a5 3d ea 61 b6 3d f2 0a 83 3d e4 99 d9 bd
       0.081027545 0.089053944 0.06398572 -0.106250554

rnn.bias_ih_l1 f4 [256]
000000 6c a3 d7 3b f3 2f e9 bd 73 ce 00 3e 1b 38 d0 3d
       0.0065807607 -0.11386099 0.12578754 0.10166951
000010 e0 79 5a 3d 72 53 0d 3e f1 79 7f 3d 4f 48 df bd
       0.053338885 0.13801363 0.06237215 -0.10902464
000020 92 34 eb 3d d1 90 61 3d 84 5c 78 bb 36 ba e4 3d
       0.11484636 0.05506975 -0.003789694 0.111683294
000030 24 88 e4 3b f1 88 d9 3d 53 91 34 bc 21 7a 5a 3d
       0.006974237 0.106218226 -0.011020976 0.053339127
000040 65 3c 1f 3c 12 f9 9c bd 85 46 67 bd 68 12 8a 3b
       0.009718989 -0.07664694 -0.056463737 0.00421362
000050 8b 78 07 bd 33 54 f1 3d a8 e5 00 3a 42 c4 a6 3d
       -0.033073943 0.11783638 0.0004917034 0.08142902
000060 c6 ec 6d 3a 99 ef 19 3e 92 5e 61 3d c3 c4 01 3e
       0.00090761145 0.15032806 0.05502183 0.12672715
000070 76 1e a3 3d 71 33 34 3d fa 0b b4 bd 2f ef c2 bc
       0.07964794 0.04399437 -0.08791347 -0.023795692
000080 38 c9 37 bd dc a8 6e bd d5 90 25 bd b3 c7 d7 3d
       -0.04486963 -0.058266506 -0.040421326 0.105361365
000090 fa 83 fe 3c 9a 48 47 3d 73 4f 98 bd 24 3f 08 be
       0.03106879 0.048653223 -0.07437029 -0.13305336
0000a0 c4 38 a0 bd 27 11 fa bd f1 31 a5 bd 5e 80 6d 3d
       -0.07823327 -0.12210303 -0.08066166 0.05798375
0000b0 7c 69 af 3d 46 18 b7 bc 47 62 a7 3c 49 71 f8 bd
       0.085650414 -0.022350442 0.020432604 -0.121309824
0000c0 52 d9 ce bd ad a5 ac bd a0 84 9a bd 5b 92 27 bd
       -0.10100044 -0.08430038 -0.075448275 -0.04091106
0000d0 57 21 9d 3c 68 73 6f 3d bd b0 c5 bc bf f1 a2 bd
       0.019180937 0.05845967 -0.024132127 -0.07956266
0000e0 c8 50 52 3d 04 a9 b1 3d 77 b7 c7 bd 6e b6 89 bd
       0.05134657 0.08674815 -0.0975179 -0.06724249
0000f0 ed 4a fe 3d fc e3 9a bd 7e 96 bf 3c 36 d8 00 3e
       0.12416635 -0.07563016 0.02338719 0.12582478
000100 f1 72 e2 bd e4 9c da bd 40 59 a0 3d be 72 ac bd
       -0.110570796 -0.10674456 0.07829523 -0.08420323
000110 47 f8 5c 3d 45 a5 8f bd 6c 0f a5 3d 9a 75 07 bd
       0.053947713 -0.070139445 0.08059582 -0.033071138
000120 9b b6 9e 3c 0a a5 db 3b 07 d9 ee 3c 0b 4e f9 bd
       0.019374182 0.006703024 0.029156221 -0.12173089
000130 78 08 41 3c bb 0a ea bd 7a 33 bf 3d a3 2e a8 bb
       0.011781804 -0.11427828 0.0933599 -0.0051325127
000140 74 37 d3 bc 13 4e ed bd e8 af dc bd bc f8 90 3d
       -0.025783278 -0.11587157 -0.10775739 0.07078692
000150 8a 53 77 bd 60 88 d2 bc 96 85 2e ba b9 3d 9b bd
       -0.060382403 -0.025699794 -0.0006657479 -0.07580132
000160 9e 54 8c bd d7 cc 82 bd cd b1 7a 3d 4e e6 72 3d
       -0.06852077 -0.06386726 0.06120472 0.059301667
000170 0d ef 3b 3d fe 2c 3f bd d5 4e 03 bd ed 44 9f 3d
       0.045882273 -0.046673767 -0.032057602 0.077768184
000180 bc c2 08 3d 53 62 47 3d 39 ae 75 3d 4e aa 4f 3d
       0.03338884 0.048677754 0.059980605 0.050699525
000190 61 a6 b4 3d 38 b9 a6 3d ec d3 e7 bd 1c 90 02 be
       0.08820797 0.081407964 -0.11319718 -0.12750286
0001a0 ef ba 29 bd 86 d5 7a bc 85 23 fa bd ad ea ad 3d
       -0.04143804 -0.015309697 -0.12213806 0.084920265
0001b0 ea 9b 9a 3b c7 9c 97 3d 4e 59 fa 3d b3 d8 c4 bd
       0.0047182934 0.0740295 0.12224065 -0.096116446
0001c0 c2 b1 c7 bc a5 eb f0 3d e4 c8 89 bc 8a 4d 8b 3c
       -0.024376754 0.117636956 -0.016819425 0.017004747
0001d0 ed fc ef 3c 32 7d f8 3d 55 81 d0 bd 62 19 a5 3d
       0.02929541 0.12133254 -0.10180918 0.08061482
0001e0 8c 7f ed bd 42 8a d0 bd 02 c8 2a bd 28 9c ab 3d
       -0.11596593 -0.101826206 -0.04169465 0.08379394
0001f0 63 16 30 bd e9 91 f9 bd e2 b5 ee 3c 8e 75 87 3d
       -0.0429901 -0.12186033 0.029139463 0.06614219
000200 b4 23 51 bd 5e cd c2 3c fd 52 b3 3d f4 74 a9 3d
       -0.05105944 0.023779567 0.08756063 0.0827426
000210 a2 99 85 bd 8c cc ee bd 55 f6 a6 bd 5f dc 5b 3d
       -0.06523444 -0.11660108 -0.08152453 0.05367696
000220 9b 97 dd bd c6 4b ab 3d 7b 62 9e 3d f6 11 ab 3d
       -0.10819932 0.08364062 0.077336274 0.08353035
000230 ef 89 07 3e 56 b5 01 be 30 a2 97 3d 96 1e ba bc
       0.13236211 -0.1266683 0.07403982 -0.022719663
000240 50 fb f4 bd dc 1f 51 bd d4 7f cd bb e8 b9 1e 3d
       -0.119619966 -0.051055774 -0.006271342 0.038751513
000250 b5 7a a1 3d a8 d9 83 bd ce b8 85 bd 83 16 c0 bd
       0.07884733 -0.06437999 -0.06529389 -0.09379294
000260 d4 9e 79 3d ee 26 c8 3d 13 17 d4 3d 99 3d 6a 3c
       0.060942486 0.0977305 0.103559636 0.014296913
000270 d3 e1 c0 bc 5f 53 e0 bd fe 3a 3f bd 6a 7d 8f bd
       -0.023545181 -0.10953402 -0.04668712 -0.07006343
000280 aa f3 e8 3d 4a 43 6f bd f4 4a c5 3d a6 c5 82 3d
       0.113746 -0.05841378 0.09633437 0.06385355
000290 4e 1f ac 3d 16 ac 48 3c 45 23 5b bd a9 59 d4 3d
       0.084044084 0.01224806 -0.053500433 0.10368664
0002a0 64 60 50 3d ef 9b 60 bd 54 97 1f 3d d0 c6 8f bd
       0.050873175 -0.05483621 0.038962677 -0.07020342
0002b0 0d 1d 7f 3d f8 bf 5d 3d 22 dc cc 3c bd 01 ad bc
       0.062283564 0.054138154 0.025007311 -0.021118993
0002c0 b3 e3 0b 3e 36 6e dc bd 12 58 de 3d 4f 52 cb bd
       0.13661079 -0.107632086 0.10856642 -0.099278085
0002d0 26 4d 5f bd 64 d5 65 3c 12 38 eb bc 41 fb af bd
       -0.054516934 0.014027927 -0.02871326 -0.08592845
0002e0 18 58 4b bd f4 11 e5 3d bc 72 77 bd aa 77 89 bd
       -0.04964456 0.11185065 -0.060412154 -0.06712277
0002f0 ac e7 18 3d 27 78 82 3d 50 48 bf bd fe 9c 46 3c
       0.037330315 0.063705735 -0.093399644 0.012122391
000300 13 3a be 3d b4 13 dc bd f3 c0 c3 bd 59 ab 71 3d
       0.092884205 -0.107459456 -0.095582865 0.0590013
000310 c1 71 c3 3d ed 0f 52 3d eb 83 86 3d 1d 02 eb 3d
       0.09543181 0.05128472 0.0656813 0.114750125
000320 5e b6 94 bc cc 70 d6 3d 60 13 db 3d 83 2e 05 3d
       -0.018153366 0.10470733 0.10697055 0.03251506
000330 11 79 3d bd 18 8b 89 3d ad 5b 5f bd 45 db 93 bd
       -0.046258036 0.06715983 -0.05453079 -0.07219557
000340 78 43 de bc 3d 53 c5 3d 6d 55 fd 3d 33 9a 13 3d
       -0.027131781 0.09635017 0.12369809 0.036035728
000350 48 90 ce bd 9d a0 29 3d c5 6d c6 bc cf 6c 4b bd
       -0.10086113 0.04141294 -0.024222264 -0.049664315
000360 c0 85 ca 3d a3 fd 28 3e 43 08 b2 3d 4e 47 a1 3c
       0.09888792 0.16503005 0.08692982 0.019687321
000370 13 50 d9 bd 21 a6 a0 bd 59 1a e2 bd eb 24 6c 3d
       -0.10610976 -0.078441866 -0.11040182 0.057652395
000380 ef fc 98 3d 2c cc b3 bd 18 bb 33 3d 9f cd da 3d
       0.07470118 -0.08779177 0.0438796 0.1068375
000390 63 59 8a bb 5a 82 ca ba aa fc 26 3d 02 36 5b 3c
       -0.0042220815 -0.0015450225 0.040768303 0.013379576
0003a0 40 77 29 3d cf ca 92 bd 7d a9 b1 bc 50 de 69 bd
       0.04137349 -0.07167589 -0.021687264 -0.05709678
0003b0 6b a3 71 3d fc f6 f5 3c 10 8a 35 bb fd 66 bc bd
       0.05899374 0.030024998 -0.00277007 -0.09199331
0003c0 d7 af b7 bd 6c 23 e6 3d 8d d3 d4 3d e8 0e 4f bd
       -0.08969086 0.11237225 0.103919126 -0.050551325
0003d0 9c 27 0a 3c e7 42 a0 bd 9a 21 8f bd 96 36 ae bd
       0.008432295 -0.078252606 -0.06988831 -0.08506505
0003e0 49 04 18 bd af 2f 46 bd 21 8a e1 bd 6b da 0e 3d
       -0.03711346 -0.04838532 -0.11012674 0.03487627
0003f0 7d e7 c6 bd ee df c9 bd 90 60 4c 3d fd 09 88 bc
       -0.09712122 -0.09857164 0.049896777 -0.016606325
