notebooks/best_model_v2.pth (torch, 768577 bytes, 25 tensors)

rnn.weight_ih_l0 f4 [256, 31]
00000000: c796 8abe e7d2 22bd a7a5 8bbd 8a97 90be
00000010: 6a22 69be 8f4d 5fbe cbf1 89be fa1f 60be
00000020: d7e5 9b3c c788 3cbe 407a 97be ad38 97be
00000030: 154f 11be 2a02 c73d aa7d 393e fee0 993d
00000040: 051f ac3b 3271 4cbe daee 61bc 972d ca3d
00000050: 5d38 863d 7db4 7e3d 4335 da3d 6f1b 693d
00000060: b6c5 2f3c 0bd3 5e3d 603d edbc 2650 dd3d
00000070: 4f51 9e3d e504 ca3e 5b23 383d 274a 2fbd
00000080: 4be2 33bd 74f9 04be 2075 f6bd a9bc 78bb
00000090: 493b ec3c 774d c03c 2383 ccbd cfd3 38bd
000000a0: f0c3 3cbe 081a 9fbe 87d8 88be 3115 47bd
000000b0: d853 643d 6189 05bd c55f 3d3e fd95 a2ba
000000c0: b852 e8bc 842f 93bd a152 433d 0f1e 26bd
000000d0: 15ef 5d3d 4980 de3d 6814 0d3d 9a2f 8d3d
000000e0: 1365 183d 167f fc3d 51ab b03d 0e59 fc3d
000000f0: 52db 03be 1576 3fbe 5204 433e 61d8 5bbd
00000100: 9377 ac3d 27b9 383e 3eca 473e 786d 793e
00000110: 5c61 6c3e ff7d 3c3e bb0f 84bc 7df7 99bd
00000120: 0682 6c3c 7b5f 003e 4c9e 693d e0b4 b73d
00000130: 293c 17be 278b 87bb 32ec 6d3e 2f62 873e
00000140: 8062 673e a023 363b 253f bdbc 1953 3e3b
00000150: 5e1d 7b3d a97e 263e d890 463c b552 483e
00000160: 14ef 2f3e 83e2 26bd 6597 803b 15d1 013c
00000170: aa5b b4bd 4e94 473c d1d7 833d 91d2 8d3b
00000180: 5015 de3c 2cbf 833d 38b2 713d 53ba ac3e
00000190: 3ba7 d13e c019 903e 1dc8 c43e dbe7 a23e
000001a0: 4624 e13e aee4 853e 6512 f0bd e0c7 e6bd
000001b0: ffa6 0abd 6e12 a1bc 7c90 fe3d 315c 273d
000001c0: 2023 083e 78fc cbbd 72a4 f6bd 4e5f 343d
000001d0: dc7c fcbd 1429 30bd f20a 9bbd b808 7ebd
000001e0: 223d e6bc 0af2 ffbd 347b 0fbe 2908 303e
000001f0: dd7e a6be 482b 8a3d df72 95bd 03d6 4abe
00000200: 23ee abbd 3ae4 83bd f0f6 f6bd d133 79bd
00000210: 96cd 073d 19cb 13be e0f2 5c3c a75a e53c
00000220: 8318 4039 a769 1e3d 3b90 21bd 9afc 8ebc
00000230: 07b2 cdbd 91db cbbd 103d b33d 7d04 413d
00000240: 19f5 83bd f3b6 acbc 595b 11bb d57b e3bd
00000250: a64a 8f3d b59f 0b3c e109 083e 8060 853c
00000260: 68ac e43d fbb8 80be 831f 4f3d 0dc9 a43e
00000270: b350 b93d 653e 15be ccc8 a9bd 8466 cbbb
00000280: ad98 ab3e f60b 723e 447c 2a3e 0893 78bd
00000290: 12dc 00bd 3801 303d 0e63 583d acc4 073e
000002a0: a75e bfbd 92d3 d33c 2aaf 8a3c 470e 2bbe
000002b0: a527 0cbe 492c 9cbd 7cfd 713c 3a61 d0bd
000002c0: 884b 71bd 566b ebbd b406 7cbd f7a6 56be
000002d0: 7201 17be 6e40 23be e735 a0bd 1195 743c
000002e0: 03e8 a23e 07f9 183e 14ea 96bc 35e9 83bd
000002f0: c725 50bd a10a 87bd 05b3 bbbd 0dce 0d3e
00000300: 3047 7b3e 0053 f73d 816f 263e 5dd0 4b3e
00000310: 3b3c d83d 89fc d5ba ee09 8e3d 18ee cfbd
00000320: e2d0 40be fa56 323d 5aec 5cbd d9d7 2e3e
00000330: 353c 293d a569 3bbd d377 063e 9b19 b93d
00000340: 2b54 5bbd 50fb c83d 659b 02bc 8c08 153d
00000350: 1271 353d 08e1 533d 7bbb 853c b1c3 f2bc
00000360: ad4d 4d3d b2fc 823b 8bb1 993e 7b3f 8c3e
00000370: cc90 803e 520b eb3d a493 4a3e 0975 503e
00000380: 9ee6 2e3d 912a 823c 3cd4 6c3e e95c 163d
00000390: 5a0e 893d 0f18 a63d 40d9 923d e632 01bd
000003a0: 51c5 a53c cb65 cc3c 0d42 193d ae59 78bd
000003b0: d741 d33d b5db e73d 232b 623e bd32 2b3c
000003c0: 9c9a 193e c073 28bd ac7c 243d 1263 dfbb
000003d0: c920 343e 06d7 b83d 63e7 17be 03db 7e3e
000003e0: d74e 88bd c332 1ebe 7216 bdbd f172 8dbe
000003f0: 169e 9ebd 2ffc 8bbc bcda 82be 9de5 0d3e
-0.2706816 -0.039751913 -0.06818705 -0.28240615 -0.22767034 -0.2180693 -0.26942286 -0.21887198
0.019030495 -0.18411551 -0.29585457 -0.29535428 -0.14190324 0.0971721 0.18114343 0.07513617
0.0052527213 -0.19965056 -0.013789857 0.09871977 0.06553719 0.062183846 0.1065469 0.05691093
0.01072829 0.054400485 -0.02895993 0.10806303 0.07730352 0.3945686 0.044955593 -0.042795327
-0.04391698 -0.12985784 -0.120340586 -0.0037954247 0.028836863 0.023474438 -0.0998595 -0.04512387
-0.18434119 -0.31074548 -0.26727697 -0.048604194 0.055744022 -0.032601718 0.18493564 -0.0012404319
-0.028359756 -0.07186797 0.047686223 -0.04055601 0.054183085 0.10864312 0.03444329 0.06893845
0.037205767 0.12328927 0.08626426 0.12321673 -0.12876633 -0.18697388 0.19044617 -0.053673152
0.084212445 0.1803938 0.19510743 0.24358165 0.23084015 0.18407439 -0.016120782 -0.07517908
0.014435297 0.12536423 0.05703573 0.08970046 -0.14769043 -0.0041364613 0.23234633 0.26442096
0.22596169 0.002779223 -0.023101399 0.002904123 0.061307304 0.16259255 0.012119494 0.195628
0.17181045 -0.040743362 0.0039242976 0.007923384 -0.08806546 0.012181355 0.06437648 0.00432808
0.027109772 0.064329475 0.059007853 0.33735904 0.409479 0.28144646 0.38433924 0.31817517
0.43972987 0.2615103 -0.117222585 -0.11268592 -0.033850666 -0.019662108 0.12429902 0.040859405
0.13294649 -0.09960264 -0.12043084 0.044036202 -0.123285025 -0.043007925 -0.07570447 -0.062020034
-0.028105322 -0.12497337 -0.14011842 0.17190613 -0.32518664 0.067465365 -0.072973005 -0.19808201
-0.0839503 -0.06440015 -0.12058818 -0.06084043 0.033155046 -0.14432944 0.01348564 0.027997328
0.00018319678 0.038674977 -0.03944419 -0.017454434 -0.10043722 -0.09953988 0.08751881 0.04712342
-0.06443233 -0.02108333 -0.0022179692 -0.111076035 0.0699666 0.008521964 0.13285019 0.016281366
0.111656964 -0.2514113 0.05056716 0.3218464 0.09048595 -0.14574583 -0.08290252 -0.006207289
0.3351492 0.23637375 0.16648966 -0.060687095 -0.031459875 0.042969912 0.05282884 0.13258618
-0.093442254 0.02585772 0.016929228 -0.16704665 -0.13686998 -0.07625634 0.014769908 -0.101747945
-0.058909923 -0.11495082 -0.06152983 -0.2096213 -0.14746645 -0.15942547 -0.07822781 0.014928118
0.31817636 0.14938746 -0.018422164 -0.06440965 -0.050817277 -0.06593824 -0.09165005 0.13848133
0.24538875 0.12076378 0.16253473 0.19903703 0.10558363 -0.0016325872 0.06935488 -0.10152835
-0.18829682 0.04353998 -0.05393634 0.17074527 0.041317184 -0.045755047 0.13131647 0.09038087
-0.053547066 0.09813559 -0.007971619 0.036385104 0.044297285 0.05172828 0.01632475 -0.029634329
0.050122906 0.003997409 0.30018267 0.27392182 0.2511047 0.114767686 0.19782883 0.20357145
0.042700402 0.015889438 0.23127836 0.0367097 0.066921905 0.081100576 0.071703434 -0.03154268
0.02023569 0.024950882 0.037416507 -0.0606324 0.10315292 0.11321203 0.22086768 0.010449109
0.15000385 -0.041126013 0.04015796 -0.00681723 0.17590632 0.090253875 -0.14834361 0.24888234
-0.066556625 -0.15449052 -0.09232797 -0.27626756 -0.07744996 -0.017088024 -0.25557506 0.13857122

rnn.weight_hh_l0 f4 [256, 64]
00000000: fe68 843d c242 263b 65ed 34be 733e 16be
00000010: 3964 36bd d7b7 6d3d 7410 c8be 0297 7e3e
00000020: 3a2d 1abb f249 65bd a885 4bbd a40e abbc
00000030: a6d8 52bd eae6 4e3e 3fc1 e93d 8584 cbbd
00000040: 37df d53d c33f 08be 1c59 5abe db88 b03c
00000050: 1cea 083e 19ff cfbd f697 eb3d be76 693c
00000060: d34a 39be 5006 b93d e1fa ecbd 692b 893e
00000070: 7578 a43c 3c89 4d3d 7fb8 30be 58f1 c4be
00000080: 88cd 353e 6fe4 f8bd 9e27 c7bd 269b 273d
00000090: f9e5 883e 5471 95be 9d28 2fbc d5f6 eebd
000000a0: b12d 993d 774a 32be 7915 6cbd b4cf afbd
000000b0: 68e4 913d 9be5 26bd 07a5 143c 8bdc 9b3d
000000c0: 8316 aebb 0835 883e 531f 8dbd ee25 e4bb
000000d0: 2da2 27bd 50da c83b 010d 733e 87de 3fbd
000000e0: 9cbe db3d c8c9 d1bd 1de7 f6bd b003 f43d
000000f0: e7de 0d3c 40fb b63d 9c96 073d 62f4 f23c
00000100: b029 523e 0be6 84bd 93dc 863e 4071 8dbd
00000110: 21f9 2bbd 57c6 18bd 513e 45be a797 dd3b
00000120: 6bf2 a0bd 24a9 94bd 2c43 323e 2f84 3cbe
00000130: 9800 46bd 8822 cdbe 6c8a f83d 1974 debd
00000140: 6db5 8fbd 9b94 b13d ed15 42be f46d 1d3e
00000150: ce19 42bd 4a86 5abd dae3 f53d 3aed 28be
00000160: 797d 34bd 6d73 7fbe 5923 d7bd 053b 863d
00000170: 584d cb3d 844c 0d3e fef6 ffbd 7a25 e5bd
00000180: 91ea 35be fb79 453e 669d 5c3d 6c32 173e
00000190: 990b e6bd 77dc 233d 036e fd3d 1e0d 8cbd
000001a0: 97c6 35be ecb5 5dbe 3459 a8bd ea35 e8bd
000001b0: dd5e 7c3e 7937 8ebd 58cf acbe 1541 e1bd
000001c0: ef5b bebc 2289 14be 5bee 14bd 7491 b5bd
000001d0: e46e 91bd 7c23 afbd 8cdc d53d 4ad8 3abe
000001e0: 5336 643c 469a 503e 8b04 9d3d 301e 8c3e
000001f0: f053 413e 966c b53d 5af3 99bd f33b 843d
00000200: 1dfe 00be 7a5f 1cbd 93c6 f73c 04f1 c1bc
00000210: 29e1 05bc 5217 153d dad8 043c c541 df3c
00000220: c688 e93b 9c91 ae3b 8c27 5ebe c554 2c3e
00000230: c65e 05be e9cf 0a3e ce24 9b3d cec9 0a3e
00000240: 2912 9ebc e6b7 3a3e aaca d33d fd08 86be
00000250: 40bb 97bd 8d69 f3bd 5af0 58be 44ef 6c3d
00000260: 6090 2cbe 0cf5 5f3e f4ec a23d 5bb5 f73d
00000270: ab97 4abd ca41 6abd 1196 323e 08aa 3bbd
00000280: 0f5b 8dba 383f 8c3c 0fce 93bd bd81 cfbc
00000290: e476 193e 23ce f8bd 7104 80bd 6352 28bd
000002a0: 9254 24be cc3c 5ebd c540 b0bd a2d0 80bd
000002b0: e35d 33be 4ab8 c1bd 23a4 dfbd 1d58 3fbd
000002c0: 2902 82bd d717 febc deec 89bd bae4 e33d
000002d0: 6e9a fe3d 1aba 0d3b b27c e6bd fbc8 bcbd
000002e0: 7cb3 cf3d 763f 69bd 9722 97bc 1d32 59be
000002f0: 3b21 12be 1555 33be 2fd1 7abd 5a5f ee3c
00000300: 9a58 c0bd 7df1 f33d c259 373e 34d8 093e
00000310: 3037 a23b a124 d7bc 183c 3e3e a9fd dbbd
00000320: 5e64 e33c b6e4 7bbc 26bc 843c 3bcc 2c3b
00000330: 5ff7 f9bd 9481 65be ad4e a8bc c352 4cbe
00000340: 3ecc b13d fbf1 9fbe 9b9b 93bd f2d6 643e
00000350: 1673 b33d 4236 cf3c a43a b3bd 4af3 f53d
00000360: cacb 87be 6002 613e 7b68 b43d 19c8 313e
00000370: e6d7 87be 761e 083e eff6 9c3e a12b 263e
00000380: 8cd3 07bd ba28 6c3e 50ef 0b3d 63fe 80be
00000390: cf0a 5fbd b8ee 003f 7a32 823d 4476 283e
000003a0: a4e8 18bf 1479 213e c906 6c3d d545 bcbd
000003b0: 8464 a73e 506b 893c 2421 afbe e518 28be
000003c0: b726 883c 3b57 a8be dfa0 64bd 3588 9cbd
000003d0: f186 fb3d d0be 233d 2637 dcbd da83 7c3e
000003e0: 18d3 743d dff1 213e 064e c4bd ef58 8b3d
000003f0: 792e f83c 17cf 333e 6798 17be 1097 8dbe
0.06465338 0.002536938 -0.17668684 -0.1467226 -0.044529174 0.05803665 -0.39075053 0.24862292
-0.0023525492 -0.055978723 -0.04968801 -0.020881005 -0.051476143 0.20205274 0.11413812 -0.099373855
0.104429655 -0.13305573 -0.21323055 0.021549633 0.13370556 -0.10156078 0.115035936 0.014249502
-0.1809495 0.09034407 -0.11571289 0.26790932 0.02007697 0.050179705 -0.1725788 -0.3846538
0.17754185 -0.12152945 -0.09724353 0.040919445 0.26737955 -0.29188025 -0.010690835 -0.11668173
0.07479418 -0.17411219 -0.057637665 -0.08584538 0.07123643 -0.040746313 0.009072549 0.076104246
-0.005312742 0.2660296 -0.0689074 -0.0069625294 -0.040926147 0.0061295405 0.2373543 -0.046843078
0.10729715 -0.10243565 -0.120558 0.11914766 0.008659101 0.08934641 0.033102617 0.029657546
0.20523715 -0.0648919 0.2634016 -0.06906366 -0.041985635 -0.037298527 -0.19262053 0.006762463
-0.078587376 -0.072588235 0.17408437 -0.18409799 -0.04834041 -0.40065408 0.12135777 -0.108619876
-0.07017026 0.08670922 -0.18953677 0.15373975 -0.04738789 -0.053350724 0.1200635 -0.16496745
-0.044064973 -0.24946375 -0.10504789 0.06554226 0.099268615 0.1379872 -0.12498282 -0.11188789
-0.17765261 0.19284813 0.053861044 0.14765328 -0.11232681 0.040005174 0.12374499 -0.068384394
-0.17751537 -0.21651429 -0.08220139 -0.11338408 0.24645562 -0.06944174 -0.3375194 -0.109987415
-0.023237197 -0.14505437 -0.036360126 -0.088656336 -0.07101229 -0.0855169 0.104424566 -0.1824657
0.0139289675 0.2037135 0.07666882 0.2736678 0.18879676 0.08858602 -0.07517119 0.06456747
-0.12596937 -0.03817699 0.030246055 -0.023674496 -0.008171358 0.036399193 0.008108342 0.027253041
0.0071269004 0.0053274166 -0.21694773 0.16829212 -0.13024434 0.13555874 0.07575379 0.13553545
-0.019295769 0.18234214 0.103413895 -0.26178733 -0.07408762 -0.118853666 -0.21185437 0.05784537
-0.1685195 0.21870822 0.079553515 0.12095138 -0.049461048 -0.057191648 0.17440058 -0.04581645
-0.0010784584 0.017119989 -0.07217037 -0.025330419 0.1498676 -0.121486925 -0.06250847 -0.041094195
-0.16047886 -0.0542572 -0.08606104 -0.062897936 -0.17516284 -0.094589785 -0.109199785 -0.04671489
-0.06348068 -0.031017227 -0.06734632 0.111276105 0.12431799 0.0021625818 -0.112542525 -0.092180215
0.10141656 -0.056945287 -0.01844911 -0.21210523 -0.14270489 -0.17512925 -0.06123465 0.029098202
-0.093918994 0.119112946 0.17905334 0.13461381 0.0049504265 -0.026262583 0.18577611 -0.10741741
0.02775782 -0.015374353 0.016202997 0.0026366848 -0.122053854 -0.22412711 -0.020545328 -0.19953446
0.08681534 -0.31239304 -0.07207414 0.2234762 0.08762185 0.025294427 -0.08751419 0.12009294
-0.26522666 0.21973562 0.088089906 0.17361487 -0.26531905 0.1329287 0.30657145 0.1622758
-0.03316073 0.23062411 0.034163773 -0.25194082 -0.054453667 0.50364256 0.06357284 0.16451365
-0.5972998 0.15768844 0.05762366 -0.09193007 0.32693875 0.016774803 -0.34204972 -0.16415747
0.016620023 -0.32879052 -0.05581748 -0.07643167 0.122815974 0.039976895 -0.10752706 0.24659672
0.059771627 0.15814923 -0.09585194 0.06804072 0.030295597 0.17559467 -0.1480423 -0.27654314

rnn.bias_ih_l0 f4 [256]
00000000: e9af 93bc 424b bdbd 879f a1bd 62e8 3e3d
00000010: cc87 a2bc dccd 90bd 8455 d43d 7adc 91bd
00000020: 3aa3 5b3e 989e efbd 3e3a 17be d7d9 24be
00000030: 646a 13be 3f18 403c 43c7 6b3d f2b2 9a3d
00000040: be00 2d3c a4b4 853d bd75 d6bd fedf 6abd
00000050: 8cd7 e23d 05ea 4abd 3ba3 a03c 52db d43d
00000060: bb2b 423d 737e b83d 66de 6abe fea6 6bbe
00000070: 689c e4bd 3cbf 16be 644a 863d 829c 4d3d
00000080: 3d46 f3bd e09d 41be 6473 ce3d db70 0ebe
00000090: e28d 21bd 1ca1 91bc 86b8 2cbe 4ed7 de3d
000000a0: cb4e a43c ef5c debc 6af7 c6bd 3ba6 a8bd
000000b0: e7fb eabd 6fff c33d 9153 58be 62d1 43bd
000000c0: eed6 9fbd c0ef 2dbe 2819 83ba a5f4 39be
000000d0: b1f1 393c ef82 5e3b 7046 b03b a248 0ebe
000000e0: 10c8 8d3d c893 0a3d 1e83 babd 38d9 adbd
000000f0: 9141 b03d 1fdc dbbd 22e9 27be dd32 18be
00000100: 931e 9dbd bfd3 51bd ef41 3d3d 42a4 bb3d
00000110: 70a1 0b3d 7296 a7bd c2b2 b8bd 8e3b 78be
00000120: e9a2 80bd f61b 4ebd 59c8 b4bd 9c2f 5d3e
00000130: df2f 2b3c 4971 7fbd 72f8 233a 0d1d 163b
00000140: b857 05be 9f68 fabd 2dca 993b cc23 49be
00000150: d565 f6bd ece1 2ebd e254 05bc 5ef5 803a
00000160: 642f 8dbd f02b 383d 30bb 923b 587d 5abe
00000170: 09f5 9ebc 6f5a 8bbd d781 11bd cce4 4cbd
00000180: fa43 82be 34bf 1dbe 7492 b93a 3625 28bd
00000190: 0ee0 15be ff4f f6bd a1d8 04bc 8c1b 2d3d
000001a0: 6909 54be 0514 9abd 4718 69be 5733 afbd
000001b0: 8494 1cbe da2a b63b c544 7cbe 015f 9e3c
000001c0: a5d6 0fbe 0599 01be 2e34 05bd 8cdf 67be
000001d0: 08d3 ee3a 5126 31bd 60ea ecbd 0fe3 3abe
000001e0: 3606 833d 3b42 e6bd b3ae 5ebe f5f2 8fbd
000001f0: a21f 333c adf7 2abe b4a3 103c c31a 3b3d
00000200: f159 09bd 1be2 c0bd a5f2 c4b8 641b 553e
00000210: d58e 91bd efb3 ebbd 0d78 f23d 4fe7 eabd
00000220: 92de e5bd 41ab d8bd 674f c83d 5d3a 51be
00000230: d53e 903d 9559 6cbc 9530 513c fa9e e2bd
00000240: 2dd9 cfbc 20b3 85bd 3fc2 95bb dfa0 573d
00000250: 9471 dfbb 8d9a bc3d 29ae 5a3d 5e40 d23c
00000260: 4488 b5bd 1e00 e0bd 708b a0bb cd62 75bd
00000270: 7643 2e3c b5d7 f33c 997a 923c 077c e3bc
00000280: 25d9 e3bd 391a b03d 1045 1b3e 67fd 98bd
00000290: 12dd 0cbe 83c7 383d 4168 e13d ebb6 853c
000002a0: d27b cabd d237 9c3d bc0a 34bc ffbf 123d
000002b0: 71d2 ea3d ee1d 8b3d 34b9 25be 7d9e 0cbd
000002c0: 29a9 833d b558 4d3d 772b 42bc f157 acbc
000002d0: 1992 423d fc79 1b3e c177 193e 7d9b 88bd
000002e0: 92e6 e03c 7a92 0cbd 8c8c e73d b83b c43d
000002f0: 1b5a dc3d f7b2 5ebc 053f c7bd b75f 5dbc
00000300: cceb 89bc bddf 2cbb 9111 2dbd 8c51 3b3e
00000310: feda d83c 51ac a6bd 3b9a ed3c a713 433a
00000320: 6f7a ca3d 03b8 f63d b80e 3bbe ad92 ffbc
00000330: 1485 e8bd 86a8 bb3d 7f79 18bd d97d f33c
00000340: 662e 0b3e f456 f23c fa59 49bd e47f 1dbe
00000350: a2b6 06bc d93a 00be ddaa c7bc 0da2 a23d
00000360: 51c9 d6bd 77cd 153e 8172 f2bd 1e4c efbd
00000370: 292e 403d a488 f8bd 355f acbd 9f8f d1bd
00000380: e2d9 4dbe ad26 9bbe 6d18 143e 0f84 ff3c
00000390: 47e9 61bc bc09 fabc 9f62 89bd d4a9 bfbd
000003a0: c89e b8bd 5137 c0bc dd50 113d 784c 4c3b
000003b0: 7a8f 13bd c467 cd3d 997b 87be 049f 693d
000003c0: e9d3 983d ac67 0ebe 9219 2bbd 90e7 6abe
000003d0: a55f cf3d 15e5 9dbd ffa4 a93d e413 043e
000003e0: 865b 37bd 4a77 b4bc e8a4 563d fe81 ba3d
000003f0: ad0a 843d f0b9 c5bd 1b6c dfbd 0117 393c
-0.018028216 -0.0924287 -0.078917556 0.046608336 -0.019840144 -0.070705146 0.10367873 -0.07122131
0.21448985 -0.11700171 -0.14768311 -0.16098724 -0.14396054 0.011724531 0.057563078 0.07553662
0.010559259 0.06528595 -0.104716755 -0.05734252 0.110762686 -0.049539585 0.019609084 0.103933945
0.047404986 0.09008493 -0.22936401 -0.23012921 -0.111626446 -0.14721388 0.06557158 0.050198086
-0.11878631 -0.18907881 0.10080603 -0.13910238 -0.03944195 -0.017777018 -0.16867265 0.1088091
0.020057103 -0.027143924 -0.09715159 -0.08234831 -0.11473828 0.095702045 -0.21125628 -0.047807105
-0.078046665 -0.16985989 -0.0010002004 -0.1815973 0.011349128 0.0033952554 0.0053794906 -0.13894895
0.069229245 0.03383234 -0.0910704 -0.08488697 0.08606256 -0.10735344 -0.16397527 -0.14863153
-0.07671847 -0.051227327 0.046205457 0.09162189 0.034089506 -0.08182992 -0.0901847 -0.24241468
-0.06281073 -0.050319634 -0.08827276 0.21600193 0.010448425 -0.062363897 0.0006254978 0.00229055
-0.13021743 -0.12226986 0.0046932907 -0.19642562 -0.12031142 -0.042695925 -0.008137913 0.000983875
-0.06893805 0.044963777 0.004477881 -0.21336877 -0.019403951 -0.06804358 -0.035524216 -0.050022885
-0.25442487 -0.1540497 0.0014158026 -0.041051112 -0.14636251 -0.12026977 -0.008108289 0.0422626
-0.20706715 -0.0752335 -0.22763167 -0.08554714 -0.15291029 0.0055593075 -0.24635608 0.01933241
-0.14046724 -0.12656029 -0.032520466 -0.2264387 0.0018220851 -0.043249432 -0.11568141 -0.18250678
0.06397669 -0.11243101 -0.2174633 -0.07028762 0.010932835 -0.16696043 0.008828092 0.04567982
-0.03353304 -0.09418126 -9.3912044e-05 0.2081123 -0.07107321 -0.11508929 0.11839304 -0.114699
-0.112240925 -0.10579539 0.0978077 -0.2043242 0.07043234 -0.014425655 0.0127679305 -0.110654786
-0.025372112 -0.06528306 -0.004570275 0.052643653 -0.0068189595 0.09209166 0.05338875 0.025665458
-0.08863881 -0.10937522 -0.0048994347 -0.059908677 0.010636201 0.029765943 0.017880725 -0.027769102
-0.111254014 0.085987516 0.15163064 -0.07470208 -0.13756207 0.045112144 0.11006213 0.016322574
-0.09886898 0.076278344 -0.010988887 0.035827633 0.1146592 0.06792818 -0.1618393 -0.034330834
0.06428749 0.050133426 -0.011851183 -0.021038027 0.04750261 0.15183252 0.14987089 -0.06670282
0.027453694 -0.03431938 0.11306104 0.09581703 0.10759374 -0.013592473 -0.09728817 -0.01351159
-0.01683607 -0.0026378476 -0.04225308 0.18292826 0.026471611 -0.081383355 0.029004207 0.0007441588
0.098866336 0.12046816 -0.18267334 -0.03119787 -0.11353508 0.09163003 -0.037225243 0.029723095
0.13591918 0.029582478 -0.049158074 -0.15380818 -0.008222254 -0.12522449 -0.024373466 0.07941065
-0.10487617 0.1462916 -0.11838246 -0.1168444 0.04691902 -0.12135437 -0.08416597 -0.10232472
-0.20102647 -0.30302945 0.14462443 0.0311909 -0.013788528 -0.03052222 -0.067082636 -0.09358564
-0.0901466 -0.023463877 0.035477508 0.0031173509 -0.0360255 0.10029557 -0.26461485 0.057036415
0.07462294 -0.13906735 -0.041772433 -0.22939897 0.101256646 -0.077097096 0.08283424 0.12898213
-0.044765018 -0.022029538 0.05240336 0.09106825 0.06447349 -0.096546054 -0.10909291 0.011296988

rnn.bias_hh_l0 f4 [256]
00000000: 5b21 dabd 64c4 1fbc 42d4 50be 17d8 3d3c
00000010: d5d9 8dbc 89cf 73bd 6860 4abc ca6b d1bd
00000020: 9638 783d dde3 dd3c 0260 83bd c832 613d
00000030: 936a 993d ab6c bc3d 658e d8bd 93a8 13bd
00000040: 768c c5bd 868b cabd e13f 0ebe f478 183d
00000050: 702b bb3d 1f94 91bd 9924 043e 4366 453d
00000060: 328b 363d 52f1 133e 824d 8bbd cbc7 aebe
00000070: 1200 013d 4d48 a93c 4615 993d e720 16be
00000080: b3dc d2bd 7bbf 86be f676 c3bd b9a5 efbd
00000090: c39b 11be 9ae0 b8bc 99ab 12be ea1b 5d3d
000000a0: 59a2 a9bd 417c 0dbe c7b7 283d a76b ab3d
000000b0: fd1e 79be d78c a83d d8e1 52be 9717 983d
000000c0: 3a64 d4bc 41f3 353c 4245 cebd e348 2abe
000000d0: b466 783d c336 12bb 561b 26bd 0264 9d3c
000000e0: 8e22 1a3e 620f 9fbd 53ce 3ebe 6a67 1cbe
000000f0: 2873 193d 03a0 f7bc e816 b2bd 5bf0 3bbd
00000100: 40c4 5b3c f7de 4abd 03ce efba 45d1 3a3d
00000110: af2c 8f3b 85da 223c e813 d6bd 475c babd
00000120: 51da 91bd 0cf6 14bd 6e58 30be 0c43 203d
00000130: cbd0 eabd 1b7b e93d 2610 0d3b ebdf 30be
00000140: 35c3 3abd 2eed 16bd 4db4 57bd afc4 debd
00000150: 6951 b0bd 43bb b73d d57b 173c 8cc3 dcbc
00000160: bd69 853d e765 9fba bb22 c5bd b7a5 9cbe
00000170: 594e f2bd b02a 08be 0c77 e3bd 0b18 343d
00000180: 1237 89be 4d79 09be 30eb a8bd 292c d73c
00000190: d06b 1b3a 152f 3ebe 890c fbbd 7018 723d
000001a0: a5f3 77bd e1a1 a2bd 0cc9 ccbc 52d6 8d3d
000001b0: 2e1c 8ebe 53f2 c4bd c5e3 a7be 9a4c 573d
000001c0: 79a2 13be f02a 55be eb48 80bd b7b4 63be
000001d0: 8764 90bd 63bc d13d b4c6 b8bd 87a0 12be
000001e0: 8e33 bb3d 443e db3c eb1e bbbd 59eb 49bd
000001f0: a5cd 4bbd 8542 41bd c372 9abb 2698 0b3d
00000200: 4a74 38bd 992b ccbd d226 073e fe01 1bbc
00000210: 5642 b7bb b3be ecbd 4231 7cbd b809 37bd
00000220: e220 1bbd f8d5 e33c bf35 343e 93ba 45be
00000230: 49ad c2bc 73b8 0abc 4ef2 e4bc 72f0 bcbd
00000240: 4b01 37bd 6a4d 1abe e578 853d d25d 373d
00000250: 4f34 44bd 8fd7 aabd 13bf 84bd f17e 203e
00000260: 6ae3 f13b 7676 b9bc 4143 93bd 756c 2fbe
00000270: 9497 afbd dd61 fa3c a750 babd 7891 d2bc
00000280: 1d1b a1bd faf8 213d 7b42 8b3d 172b f0bd
00000290: 5603 0cbd 42ff 90bc de16 0a3e 88f7 6bbe
000002a0: 3fef e7bc b480 1b3c 89b2 e4bc b4c1 93bc
000002b0: 5576 503d 9971 943d 0373 14be a018 7dbd
000002c0: 01ce c03d 4d9b d9bc 6da1 f3bd 4f7d cf3a
000002d0: b111 fc3c fa82 043e 3f46 77bd 201c f1bc
000002e0: c37d c43d 7bb8 083d 3c0a acbc d056 b0bc
000002f0: 251e 903d 45b5 d53d 7705 ea3a 832f 8c3c
00000300: f484 cb3d 2a78 e9bd 61f3 05be 2198 473e
00000310: 61e5 6e3d 0d55 4ebd 3718 f3bd 2dd9 7ebb
00000320: 2361 2b3e 1166 eebd 9f1c 08be 4263 8cbd
00000330: 5552 c83d ff88 f23c 0bc3 f0bd 1ce5 86bd
00000340: e874 e43d 02c9 8cbd 3bea d6bd 2bdb 70bc
00000350: cdae 683d 941e eabd ebb5 e4bd 2f5a 9fbc
00000360: c64f 8abd 96aa 60bd e56d 39be 5e84 25be
00000370: 7b9b d23a cbb5 c23b 0340 983b e3a5 26bc
00000380: 6044 aabc 314f 9ebe 6d9b 1e3e e1f4 45bd
00000390: 0b65 0dbe 7360 123c f26c 90bd 6751 383c
000003a0: 5c98 8d3c d473 a73c 4a43 b6bb 2377 8e3d
000003b0: 0cf2 21be 6b97 a33d bf50 5abe ede5 57bd
000003c0: 1313 173e 5e89 95bd 0b46 97bd 582f 87bd
000003d0: 8a2d 67bd 108f debd 5541 f23c 61f6 d6bc
000003e0: fff3 553d 80ac 13bd be3d bf3c 4657 373d
000003f0: 895a 8fbd 957d 6a3c 049a a0bc a268 b3bd
-0.10650893 -0.009751413 -0.2039347 0.011587164 -0.017315784 -0.059524093 -0.012352087 -0.10225637
0.06060084 0.027086193 -0.064147964 0.05498007 0.074910305 0.09200414 -0.105740346 -0.036049437
-0.096459314 -0.09889893 -0.13891555 0.037224725 0.091391444 -0.0710833 0.12904586 0.048193227
0.04456634 0.14447525 -0.06801893 -0.34136805 0.031494208 0.020664359 0.07474761 -0.14660989
-0.10296001 -0.26317963 -0.095441744 -0.11701531 -0.14219575 -0.022568036 -0.14323272 0.0539817
-0.082829185 -0.1381693 0.04119089 0.083701424 -0.24328227 0.08229988 -0.20593965 0.074263744
-0.025926698 0.0111053595 -0.10071804 -0.16629367 0.06064482 -0.0022310473 -0.040553413 0.019212727
0.15052244 -0.07766606 -0.18633394 -0.15273824 0.037463337 -0.030227667 -0.08695775 -0.045883518
0.013413489 -0.049529042 -0.0018295649 0.04560973 0.0043693404 0.009939794 -0.104530156 -0.09099632
-0.07121719 -0.03636746 -0.17221233 0.03912644 -0.11465605 0.11400434 0.0021524518 -0.17272918
-0.04559632 -0.036847286 -0.052662183 -0.10877358 -0.08609278 0.08971264 0.009245832 -0.026948713
0.065143086 -0.0012161107 -0.09625765 -0.3059518 -0.1183135 -0.13297534 -0.11106691 0.04396824
-0.26799828 -0.13425179 -0.082479835 0.026266174 0.0005928846 -0.18572648 -0.1225825 0.059105337
-0.060535092 -0.07941032 -0.02499821 0.06925644 -0.27755874 -0.09616532 -0.32790962 0.052563287
-0.14417447 -0.2081716 -0.06263908 -0.22236906 -0.07050424 0.1024101 -0.090222746 -0.14319049
0.09140693 0.026763089 -0.091367565 -0.04929671 -0.049756665 -0.04718258 -0.0047133877 0.034080647
-0.045032777 -0.09969253 0.13198403 -0.009460924 -0.0055926247 -0.115598105 -0.061570413 -0.044687003
-0.037873156 0.02781199 0.17598628 -0.19309454 -0.02376427 -0.008466828 -0.027947571 -0.09225549
-0.044678967 -0.15068594 0.065171994 0.04476721 -0.047901448 -0.08341896 -0.06481757 0.15673424
0.007381846 -0.022639494 -0.07190562 -0.17131217 -0.08573833 0.030564243 -0.090974145 -0.02570413
-0.078664996 0.039544083 0.067997895 -0.11726969 -0.03418287 -0.017699841 0.13485286 -0.23043644
-0.028312324 0.009491134 -0.027917163 -0.0180367 0.0508941 0.072482295 -0.14496998 -0.061791062
0.09414292 -0.026563311 -0.11896024 0.0015830192 0.030770155 0.12940589 -0.060369726 -0.029432356
0.095943 0.03337906 -0.021000974 -0.02152577 0.070369996 0.10434965 0.0017854412 0.0171125
0.09937468 -0.113998726 -0.13081123 0.19491626 0.05832422 -0.05037408 -0.11869853 -0.003888677
0.16736273 -0.11640561 -0.13292168 -0.068548694 0.097813286 0.02960634 -0.117559515 -0.06586668
0.111551106 -0.06874277 -0.10493895 -0.014700691 0.056807328 -0.114316136 -0.111675106 -0.019452183
-0.06753497 -0.054850183 -0.18108328 -0.16163775 0.0016068065 0.0059420816 0.0046463027 -0.010171386
-0.020784557 -0.30919793 0.15488978 -0.048329238 -0.13808076 0.008934128 -0.0705203 0.011249877
0.017284565 0.020440973 -0.0055622207 0.06956317 -0.1581499 0.07987865 -0.21319865 -0.05270951
0.1475337 -0.07301591 -0.073864065 -0.06600827 -0.056439914 -0.10867131 0.029572168 -0.02624053
0.052234646 -0.03605318 0.02334487 0.044760965 -0.0699969 0.014312168 -0.01960469 -0.087601915

rnn.weight_ih_l1 f4 [256, 64]
00000000: 55e6 833e 2404 013e 1cd2 ecbd 8333 323d
00000010: d8e4 c03d f3eb e73d ef85 26bd fd3b ed3c
00000020: c586 843d 4d5b c63d a61b 653d e6ac a3bb
00000030: ff75 7bbd f4dd 02be e2e8 ca3d 2c93 0b3e
00000040: f285 433d 97c9 e8bd 8efc 7d3d 833a 41bc
00000050: ae07 b2bd fac3 3fbd 97e5 333e 04aa 8c3c
00000060: e09c 473d be67 633d 9377 e23d 0e50 de3d
00000070: 4616 babc 7d7a 4bba 1f11 21be bef3 8d3d
00000080: df22 153e ae40 b53d c318 06be 3590 7a3c
00000090: 7e2f 733d c4ab 853d 5b45 c53d 0c5f 773c
000000a0: c6c3 d93d 13fe c23c 5843 ea3d 1a0e 7dbc
000000b0: 410e 11bd b141 f6bd 75fe d1bc 7b3f 3ebd
000000c0: 6358 d13d 4ab4 2139 da20 073d 053c 04be
000000d0: ed8a eebd a09e 2fbc 0cfe 9a3c 2226 a83d
000000e0: 447b c73d cdfc 023e d939 b5bd 1a24 223e
000000f0: d860 2bbe bde0 2a3e 766a fbbc bd2f 563e
00000100: e63f 043d d448 ffbc 270b 45bd 8976 e0bd
00000110: 01e1 f03d 28f4 0f3e 40de 84bd d5f0 8f3d
00000120: 6c6c c03c bc73 7c3d aecb 1cbd 8f5e 9f3d
00000130: 9917 31bd 08a5 963d abf7 eebd f8be 4b3d
00000140: 846f 58bc 642c 0c3e 9fca dc3c 1741 38bd
00000150: 2e3a 37bc 2afe 34bc 714a 0cbc 1919 aa3d
00000160: 689f 1ebe 2517 8ebc 47b3 683d eaee 113e
00000170: d498 f73d d6b0 333e d43c 39be f2bb dcbd
00000180: a5af 103e e2a2 933c 2e66 f9bc 28ff 3f3e
00000190: cf15 883d 5a59 44bd 1ff7 ffbc 7299 cfbc
000001a0: 7ba5 c53d 1374 54bd 9791 713c 3848 223d
000001b0: 8ae7 2dbe 11e6 0ebc 0a1e 6f3d 16e6 c6bd
000001c0: 45d1 1dbe 7fc9 7c3d 8e54 18be 670e fabd
000001d0: b32f a23d 8f33 08bd e124 86bd 39d4 e9bd
000001e0: 0f7b 293d b30d 17be 70ac e83d 862b 873d
000001f0: 3358 b7bd 4271 f5bb 1328 8ebd 4876 e0bd
00000200: f315 8bbc adf0 d1bd a0cc 0ebe 53ea 34be
00000210: f304 a1bc a7c8 21bd 0d7f 813d f788 493d
00000220: 55c4 113e 3830 d2bd 6673 1fbe e7ff 023e
00000230: 3cca fa3c c165 dabd 793c cabd 1961 243e
00000240: 10a7 fcbd 3b8e 20bd ae63 53bd 97c8 6dba
00000250: dca6 5f3d b472 7abb 14f8 70bb c529 3b3d
00000260: fff1 ca3d 4433 1b3d 3e66 a5bb 3414 853c
00000270: 63e0 27be f3d4 2ebe 9df6 5ebe 914d 053d
00000280: 049a c43d de23 74bd 8241 dc3c 9f0f 8dbc
00000290: b665 a23d 337c 0dbe 02be 353c a166 053c
000002a0: 3873 f4bd 1f73 41bd f172 11bd 446b 01be
000002b0: 7336 f3bc d407 e2bc 40ed d5bc bdea 82bd
000002c0: 39a3 5e3d e152 253e b79b bd3d 0c33 48be
000002d0: 4e32 a83d b8d8 c0bd a903 053e 952d 0c3e
000002e0: 1d9e d2bd bc21 bbbc 6c19 fb3d 6a2b 18bd
000002f0: b13f 733c 268f 153d b339 b63d 427f 82bd
00000300: 261a 863d e0d6 a23d aed9 f5bc a885 15be
00000310: ab1f 2c3e 7d5e a9bd 7a1e 1b3d fdec 2abd
00000320: 1006 543c 0035 363b 2e22 c53b 20a0 ea3b
00000330: 350b d2bd b86b 4dbd 2599 9dbd f73b bf3d
00000340: 2f9a 19bd bbaf 043d 10f2 3a3e 2b50 63be
00000350: 93ac 69bd 76c8 a6bc 304c 72bd d0ce 04be
00000360: b836 a5bb 5c2c c63d cb6c 223e 8c95 7a3e
00000370: 74bc 883d 4784 a4bc 0186 0bbe 90d5 3fbd
00000380: 080f 223e 1843 e9bd b673 373d 899f c83d
00000390: 03a4 f13d d4b8 ae3b af8a 14be f904 393e
000003a0: 77a4 0dbe dcf7 cebd 4341 2b3e b3ec 973c
000003b0: 56a7 34be 5764 4c3d a992 f13c 6621 313d
000003c0: 6434 e13d 0094 fc3d 8b99 ea3c 66aa c7bd
000003d0: 540e 8cbc 4899 ddbb 8847 33bd 76b3 163e
000003e0: 7634 463d fa21 5bbd 549a dd3d 8074 fe3d
000003f0: 95ae b6bd 8fa2 fa3d 1b8a 04bd 0055 cc3d
0.25761667 0.12599236 -0.11563513 0.043506157 0.094186485 0.113243006 -0.040655073 0.028959269
0.06471018 0.09685383 0.05593457 -0.0049949763 -0.061391827 -0.12779981 0.099077 0.1363036
0.047735162 -0.11366575 0.062008433 -0.011793735 -0.08692871 -0.046817757 0.1756805 0.017170914
0.048733592 0.055518858 0.11057963 0.10855113 -0.022715699 -0.00077620876 -0.15729187 0.06931256
0.14564084 0.08850227 -0.13095383 0.015293171 0.059371464 0.06526902 0.09632369 0.015098345
0.10633044 0.023802793 0.11438626 -0.015445257 -0.035413984 -0.120242484 -0.02563403 -0.04644726
0.102219366 0.0001542132 0.032990314 -0.1291352 -0.11647592 -0.0107189715 0.018919967 0.08210398
0.09740308 0.12791748 -0.08848924 0.15834084 -0.16736162 0.16687293 -0.030690413 0.20916648
0.0322875 -0.031162657 -0.04810634 -0.10960109 0.11761666 0.14057982 -0.06487703 0.07028357
0.0234892 0.06163381 -0.03828018 0.077817075 -0.043235395 0.07355696 -0.11668333 0.04974267
-0.013210181 0.13688809 0.026952086 -0.04498395 -0.011183305 -0.011046926 -0.00856267 0.08305568
-0.15490496 -0.01734502 0.056811597 0.14251295 0.120896965 0.17547926 -0.1808961 -0.10778035
0.14129503 0.018022005 -0.03044423 0.18749678 0.06644785 -0.047936775 -0.031245766 -0.025341723
0.096507035 -0.05186851 0.014744184 0.039619654 -0.16982856 -0.008721844 0.058378257 -0.09711854
-0.15411861 0.0617156 -0.14876005 -0.12209778 0.07919254 -0.033252295 -0.06550003 -0.114174314
0.041377123 -0.1475132 0.11361015 0.06600098 -0.089523695 -0.007490308 -0.06941237 -0.1096006
-0.01697824 -0.102509834 -0.13945246 -0.17667513 -0.01965568 -0.039497998 0.06323061 0.049202885
0.14235051 -0.10263103 -0.15571365 0.12792931 0.030614011 -0.10663939 -0.098748155 0.16052665
-0.12336552 -0.03919814 -0.051608734 -0.0009070723 0.05460249 -0.003821534 -0.003676896 0.04569413
0.09909438 0.037890688 -0.0050475886 0.016244985 -0.1639419 -0.17073421 -0.21773763 0.032544676
0.09599689 -0.059604518 0.026886705 -0.017219363 0.07929556 -0.1381691 0.011092665 0.008142144
-0.11936039 -0.04722893 -0.035510007 -0.12638575 -0.02968905 -0.027591623 -0.026114106 -0.06392429
0.05435488 0.16144897 0.09258216 -0.19550723 0.0821272 -0.09416336 0.12989677 0.13689263
-0.10284064 -0.022843234 0.12260708 -0.037150778 0.014846728 0.03651347 0.08897724 -0.06371929
0.06547956 0.079511404 -0.030011024 -0.14601767 0.16808955 -0.08269975 0.03787086 -0.041729916
0.012940899 0.0027802587 0.0060160374 0.0071602017 -0.10256044 -0.050151557 -0.076952256 0.09337609
-0.037500557 0.032394152 0.18256402 -0.2219855 -0.057049345 -0.02035926 -0.05915469 -0.12969518
-0.0050419234 0.0967643 0.15861814 0.2447111 0.066765696 -0.020082606 -0.13625337 -0.04683453
0.15826046 -0.1138975 0.044788085 0.09796054 0.11798861 0.005332092 -0.14506029 0.18068303
-0.1383227 -0.10105869 0.16724114 0.018545484 -0.17641959 0.04990038 0.029488878 0.04324474
0.10996321 0.12332916 0.028637668 -0.09749298 -0.017096676 -0.0067626573 -0.04376939 0.14716896
0.048389874 -0.0534992 0.108204514 0.12424564 -0.08920018 0.12238037 -0.03235827 0.0997715

rnn.weight_hh_l1 f4 [256, 64]
00000000: ed65 4a3d c216 b33b 2980 cd3d a1aa ca3d
00000010: 8fec d6bd 4c82 f6bc ee86 86bd 0da7 383d
00000020: 6210 a73d 511b 973d 8e27 1a3e 83a3 51bd
00000030: 616f f43d 1abd ab3d d7e0 cf3c 18a2 3abd
00000040: 5201 b43d 9874 17be 1ef1 a13d 3ae0 313e
00000050: 7a76 a4bc d0c1 42bd d41a ae3c 2b46 19be
00000060: 8f79 48bd 3637 1e3e ab8b 52bd 256d a5bd
00000070: aa35 873d cdfe d6bd 515f 633d a9af 8dbd
00000080: 2c1d 163d 1597 e3bd 579b 5c3d c6cc c4bd
00000090: a06f 4dbd c230 bf3c 21ae 7e3d 28d8 013d
000000a0: d41c d13d 10c1 b43d b6d7 dcbd 29e5 9e3b
000000b0: 4da6 983d 7dc2 853c 237b 7abd 8be7 aebc
000000c0: fb42 bebd 5d16 05be 230d 9fbd 57e4 a7bd
000000d0: 5ec4 973d 2d9f aabd f193 01bd 067d 84bc
000000e0: 2cc3 e1bc ba19 b5bd 9652 c33d 0f41 15be
000000f0: 0f44 90bc 18e3 293e 32ab b6bc 0c06 65bd
00000100: fd9b 1c3d 397a 0d3e dbaf 29bc e4c8 a4bb
00000110: c554 a23d acc1 f53c 73f6 173c 4294 81bd
00000120: 5382 8e3b 2e1e 76bd 499a 023e 9a71 89bd
00000130: 0a5a 053e 961d 5d3d 6b73 82bc b91b b8bd
00000140: 36f7 053e cf20 b9bd ad43 083d adb7 95bd
00000150: ecbf c4bd 8efb dbbd 23fa b23d aede aa3c
00000160: 206b 27bd 9c72 52bd 8587 473e 8974 3f3d
00000170: 0cc9 89bd 1a14 2cbd 0a1b f53c 763b 0cbd
00000180: 6978 32bd 0318 debc e5ef c63c 427e 793d
00000190: 8a4a 8bbd fa5c 1dbd 6e5f cb3c 0065 07be
000001a0: 5629 853c 494c 30be adc8 143d eab4 83bc
000001b0: d766 cfbd bf21 98bd 1fa7 d83d def4 d13d
000001c0: 6fdf fdbd 36a0 c1bd c299 c33d 1167 9cbd
000001d0: 67f3 253d cab9 883d 135e 9b3d 5464 d5bb
000001e0: 01c7 3abd a257 7e3d 6764 84bd 23af 7e3d
000001f0: d856 5ebd eb1e 87bd 1895 69bc 59d0 4c3d
00000200: 4f64 83bd cef3 f63b 09e4 483d 7845 033e
00000210: a1bf 7f3d e716 a43c 21a7 883d 7189 21be
00000220: 1844 1dbd 6a37 0fbc 188f a7bd d071 c73d
00000230: b38c 423e e9fa 03be 2303 86bc 3315 0a3e
00000240: 1377 6a3d 70d0 aa3d 832b 2e3d 4690 663d
00000250: 7fc6 1cbd dd46 2e3e 3592 ebbd 0115 093e
00000260: ee93 88bd f7d1 2e3d c18a 0bbe 0c24 a3bd
00000270: 75cf 20be 8ccd 4d3b 187a 5cbd c1b3 40bc
00000280: 43e7 f7bd 9cad 8b3d 2ce6 c33d 8768 a43d
00000290: 97e3 68bd 643d e7bc a5f8 fdbd 96a4 2cbd
000002a0: a7ef 2c3c 3357 873c 5022 e73c b27f b4bc
000002b0: 463b a43d 6338 bdbd c6be 78bd 042c a93d
000002c0: 0735 3e3d b32f 933d 8929 633e 4d08 7ebd
000002d0: 8043 debd 7a71 cfbc 8a43 07bd e6f9 a6bc
000002e0: 5749 833d 6fc8 1fbc 47aa a0bd da31 f6bb
000002f0: b6d6 e93d 000e e7bc c8c3 c8bc 63e7 ad3c
00000300: 45ac ebbd 78c7 18bd 1a2f a8bd 80fb a83d
00000310: 032f debc f99c 08be 4603 a13d 3ce9 dbbb
00000320: 8c89 e4bd 1e72 e3bd e3bb fdbc 210a 14bd
00000330: de46 443e 0597 a6bd 36a7 14bd 9fc2 023d
00000340: 391d 7dbd c5c0 debc cb43 cc3d c063 5e3d
00000350: 8d34 6a3d b20d 17bb 933c 49bd f50f babd
00000360: a41b 13be b8eb be3d 1806 813c 7c3b 11be
00000370: fb87 873d 2b02 983d b9a8 c2bb 7c1c 223d
00000380: 7d47 ad3d b418 7a3d 82f1 0c3e 67d8 ad3a
00000390: 5af8 fe3a 6425 083e 9277 aebd 07d8 f2bc
000003a0: ab71 2d3d 93bf 7a3d 158b 07be cdda 80bd
000003b0: 0520 f7bd 3298 e43d f419 afbd 11c5 b0bd
000003c0: 50db 853d 06ea a6bb 1b09 403d 9930 8abd
000003d0: a864 fa3d 8c8c 943d 6a33 493d a78d a1bc
000003e0: 009c e23d c06b 843d 3454 143e 0ba7 173d
000003f0: 7a4d 9e3d 22df 79bd b144 003d 5a74 47be
0.04941361 0.0054653594 0.1003421 0.09895826 -0.10494339 -0.030091427 -0.065687045 0.045081187
0.08157422 0.07378257 0.15054151 -0.051181328 0.11935306 0.08385678 0.025375767 -0.04556474
0.08789314 -0.1479057 0.079073176 0.17370692 -0.020076025 -0.047548115 0.021253027 -0.14968173
-0.048944052 0.15450749 -0.05140273 -0.08077458 0.066020325 -0.10497818 0.055510823 -0.0691827
0.036648914 -0.11112801 0.05385908 -0.0960937 -0.050155282 0.02333868 0.06217778 0.031700283
0.10210577 0.08825886 -0.10783331 0.0048490954 0.07453594 0.01632809 -0.06115259 -0.021350643
-0.09290119 -0.12996812 -0.077661775 -0.08197849 0.07410501 -0.083311416 -0.03163523 -0.016172897
-0.027558886 -0.088427976 0.095372364 -0.14575599 -0.017610578 0.16590536 -0.02229843 -0.05591397
0.0382347 0.13816155 -0.010356869 -0.005028831 0.07926325 0.029999577 0.009275067 -0.06327106
0.004349032 -0.060087375 0.12754168 -0.06711121 0.13022628 0.053983293 -0.015924176 -0.08989663
0.13082585 -0.09039461 0.033267666 -0.07310424 -0.09606919 -0.107413396 0.08739116 0.020858135
-0.040873647 -0.05137883 0.1948529 0.046741996 -0.067278 -0.042011358 0.02992012 -0.034236394
-0.043571863 -0.027111059 0.024284313 0.060911424 -0.068013266 -0.038418747 0.024825778 -0.13222122
0.016255062 -0.172166 0.03632419 -0.016077477 -0.10127037 -0.074283116 0.10578751 0.10251783
-0.12396132 -0.09454386 0.09550811 -0.07636846 0.04051533 0.066760615 0.075863026 -0.006512204
-0.04559994 0.062095292 -0.06464463 0.062178742 -0.05428204 -0.06597694 -0.014256738 0.050003383
-0.06415617 0.007536388 0.049045596 0.12819469 0.06243861 0.020030452 0.06672502 -0.15775086
-0.038395017 -0.008741239 -0.0818159 0.09738505 0.18998985 -0.12888683 -0.016358918 0.1348465
0.057242464 0.083405375 0.042521965 0.056289934 -0.038275238 0.1701922 -0.11502496 0.13386919
-0.0666884 0.042680707 -0.13627149 -0.0796586 -0.15704139 0.0031403033 -0.053827375 -0.011761607
-0.121046565 0.06820223 0.09565386 0.080277495 -0.05685767 -0.028227516 -0.12400941 -0.04214915
0.010555184 0.016521072 0.028214604 -0.022033546 0.08019118 -0.092392705 -0.06072881 0.082603484
0.04643729 0.07186832 0.22183813 -0.062019635 -0.10852718 -0.025322665 -0.033023395 -0.020382833
0.06410473 -0.009752377 -0.07844978 -0.007513267 0.11417906 -0.028204918 -0.024507418 0.021228498
-0.11507467 -0.037299603 -0.08212109 0.08251095 -0.027122026 -0.1334113 0.078619525 -0.0067111533
-0.111590475 -0.111057505 -0.03097338 -0.036142472 0.19167659 -0.081342734 -0.036292277 0.031923886
-0.061795447 -0.027191529 0.09973868 0.054294348 0.057179023 -0.0023048935 -0.049130034 -0.09085075
-0.14366013 0.093223035 0.015749976 -0.14182848 0.06617733 0.074222885 -0.0059405235 0.039577946
0.08460901 0.061058715 0.13764003 0.0013263345 0.0019452677 0.13295513 -0.085189 -0.029644025
0.04234473 0.061217856 -0.1323665 -0.06291733 -0.12066654 0.111618415 -0.08549872 -0.086313374
0.06535971 -0.0050938157 0.046883684 -0.067475505 0.1222623 0.0725337 0.049121298 -0.019720865
0.11064911 0.06465864 0.14485246 0.03702454 0.07729621 -0.06100381 0.03131551 -0.19477978

rnn.bias_ih_l1 f4 [256]
00000000: b675 13bb 019c bc3d c433 e1bd 1e74 f7bd
00000010: 9def 03bd 9f30 c3bd ef62 5ebe c68d e0bd
00000020: f7fd 153d d0ee 3abd 31e4 19be c0d9 87be
00000030: c180 14be 67ca 143d 59d9 54bd e912 f0bd
00000040: 7136 34be 62fa b43c fe91 cdbd 5c67 e1bd
00000050: a5e1 2cbe 969b 763d 7400 18be 9461 03bd
00000060: e924 cf3d 7685 003d d854 2dbe dbfc d2bd
00000070: d28d 013e 7697 3ebd 6cea 4dbe 94bc 2dbe
00000080: d2c0 5cbd 57ed fe3b 648f eebd 3f4c 76be
00000090: e3d2 8a3c 3a0c 38bb ca6e 19be 0204 813c
000000a0: c728 4fbe 5e1c e43b a27e f1bd 20a6 21be
000000b0: f6ca 26bc bd19 7cbd d031 50be 5acb 10bd
000000c0: 9e3a 04be 3ad8 41be 10c7 023d 5c98 fabd
000000d0: 0d04 4bbe b664 30be cf16 123d badb 66be
000000e0: 5b74 21be 22b2 41be d29c cfbd fada 02be
000000f0: 1456 61be 0fa4 c7bd 9a80 c7bc f426 0abe
00000100: 2e61 05be f9d5 a83d ee7a 053d 2e49 02bb
00000110: 920c abbd 48fc 9d3d 096a 37be c9b9 21be
00000120: c6ca 4e3d feba 19be c10c 8fbd 883c 89be
00000130: 139e a9bb 03ab fabd 09d8 37be e29a c33d
00000140: 0039 1abe e49c 27bc a7c4 ccbd 4772 8cbd
00000150: 3bbf c0bc a7f2 1cbe f6c3 9dbc 607c 2cbe
00000160: 3409 83bd 0fd9 b0bd a2d3 98be 9903 2ebd
00000170: 1672 223e fe82 d33d 79e3 91bc 1b9d 22bd
00000180: fd66 ae3d 59be 14be c3a4 f1bd f921 6fbc
00000190: e9cb 4a3d 9ef6 a9bd d460 393d b3e4 5bbc
000001a0: 6e37 6bbe 98de 7bbd 8a58 23bd e28e 463a
000001b0: db60 b0bd ec41 b8bc 69fa 81bd fa31 82bd
000001c0: 6f36 14be 1ab4 c2bd 9837 d23c 0b31 d73b
000001d0: 6449 ecbd 3ae9 fabd bcc9 34be 2000 343c
000001e0: b984 e2b9 4192 7bbe 3f9c b53d ab24 f8bb
000001f0: 37fd 70bd 2d93 d6bd 8413 cdbd e12b dfbd
00000200: c9fc c73d 1b4c 08bd 7b4d afbd dcbf ee3d
00000210: 933d e3bc 9103 70bd d533 82bd d97d 63bd
00000220: b192 fdbb 8532 473e 360e c1bd 807d f53b
00000230: 39c7 72bd 845d b0bd 4a71 08bd 8074 28bd
00000240: be55 0a3d aa6f bd3d 35fc 2e3c 32b3 1d3e
00000250: 9d95 3bbd 53fb 05bd bf38 29be 7a43 9c3d
00000260: 70f4 d23d 5fa2 5abc 02b4 7d3d a7cb 903c
00000270: ff13 ef3c e763 893c 0986 0dbd 4b58 883d
00000280: 4b75 493d 23ae 973c 6bc0 923c af3a c73c
00000290: 8c5a 9cbd 4d12 353d 07cf 9b3d 6d5b 973d
000002a0: 3a71 2fbd 7a15 8f3d d979 dbbd 4191 543d
000002b0: ec55 ed3d b8c5 2a3d 91c2 0d3b ab77 09bd
000002c0: 4453 c13d 73b3 b03d b2bf 75bc 31a9 823d
000002d0: c088 cfbd dada 933d d3c2 683c 882a 7bbc
000002e0: 379d d9ba 0ca9 0f3e 4dca 6fbd 666f 2c3d
000002f0: 1da6 373c ac6e 5abd f6ea 1abd 0c66 943d
00000300: beb3 d0bd 304b 0fbd 255f 313d 5fd1 dabd
00000310: 72a8 cdbd f25d 9cbd 6af9 0dbe c87d 503d
00000320: 86a8 a9bd 63f4 a1bd 5302 a03d 85f7 a0bd
00000330: 6b12 0b3d ca86 183d 087c 92bd c7f5 65bb
00000340: bc73 c0bd 6d0f b7bb 8c40 a03a 1c2c 393c
00000350: 9cf8 22be e443 1abe ca1f 02be 9893 edbc
00000360: 980d 9ebd 3ed7 e0bc 7e35 16be 7c8c a53d
00000370: d28d 253d 6e88 31bd f48a 52bd a772 133d
00000380: d7e8 ccbc 8d40 09be adb5 033d 9f63 7ebe
00000390: 7798 823d f4bb 1fbc 2770 6ebd 39d9 9a3d
000003a0: 55c2 00bd f633 093d 0ce0 383d 4d2b 7cbc
000003b0: dffd b7bc d438 2bbd 73bb a63c 2dc9 4b3d
000003c0: 42ff 42be 3e28 09be c0b2 06bd a949 663d
000003d0: d3a8 83be 44c1 8bbd 9ae8 f5bd a5dc 05be
000003e0: 6dff 1b3d 487a 4ebc 995b 41bc 6dbc 973d
000003f0: 89c3 bfbd c4ec 01bd bd65 c1bd ab9a 4bbd
-0.002250058 0.09209443 -0.10996202 -0.120826945 -0.032210935 -0.09530758 -0.21717428 -0.10964541
0.036619153 -0.045637906 -0.15028454 -0.26533318 -0.1450224 0.03632584 -0.05196509 -0.11722357
-0.17598893 0.022092048 -0.100376114 -0.11006042 -0.16882952 0.060206972 -0.14843923 -0.03207548
0.10114462 0.03137728 -0.16926897 -0.103021346 0.12651756 -0.046531163 -0.20108956 -0.16966468
-0.053894825 0.007779758 -0.11648443 -0.24052523 0.016946262 -0.002808346 -0.14983669 0.015748981
-0.20230399 0.0069613894 -0.117917314 -0.15786028 -0.010180226 -0.061547983 -0.20331502 -0.03535018
-0.12912986 -0.1893014 0.031928122 -0.122360915 -0.19825764 -0.17225918 0.035666283 -0.22544757
-0.15767042 -0.18915609 -0.10137333 -0.12778845 -0.22005492 -0.097480886 -0.024353314 -0.13491422
-0.13025352 0.08243937 0.032587938 -0.0019880044 -0.08352007 0.077141345 -0.17911543 -0.15793528
0.05048635 -0.15012738 -0.069848545 -0.26803994 -0.0051763146 -0.12239649 -0.17953505 0.09551026
-0.15060806 -0.010230277 -0.09998446 -0.06857734 -0.023528686 -0.1532694 -0.01925848 -0.1684432
-0.0639824 -0.08635151 -0.29848963 -0.0424839 0.15863833 0.10327719 -0.017808663 -0.03970061
0.08515737 -0.14525737 -0.11799004 -0.014595502 0.04951087 -0.082989916 0.045258358 -0.013421225
-0.22970363 -0.06149158 -0.03987936 0.0007574392 -0.08612224 -0.022492371 -0.0634659 -0.063571885
-0.1447389 -0.09507008 0.025661275 0.0065671257 -0.11537436 -0.12251516 -0.1765508 0.010986358
-0.00043204965 -0.2456751 0.08867692 -0.0075727305 -0.058835234 -0.1047729 -0.10013488 -0.10897041
0.09765012 -0.033275705 -0.085597 0.11657688 -0.027739322 -0.05859715 -0.063575424 -0.05553994
-0.0077384342 0.19452865 -0.09426539 0.0074917674 -0.059272025 -0.08611587 -0.033311166 -0.041126728
0.033773176 0.09249814 0.010680248 0.15400389 -0.04579698 -0.032710385 -0.16525553 0.07630058
0.10300529 -0.013344376 0.061939247 0.017675234 0.02918434 0.01677127 -0.034551654 0.066574655
0.049184125 0.018515652 0.017914018 0.024319975 -0.07634458 0.044206906 0.07607847 0.07390485
-0.04283259 0.06986518 -0.107166 0.051896337 0.11588654 0.041692466 0.0021630863 -0.03356139
0.0943971 0.08627977 -0.014999317 0.06379927 -0.10133505 0.07219477 0.014206606 -0.015329964
-0.001660264 0.1402933 -0.05854254 0.042098425 0.011209038 -0.0533282 -0.037821732 0.072460264
-0.10190533 -0.034983814 0.043303628 -0.106844656 -0.10041894 -0.07635106 -0.13864675 0.050901204
-0.082840964 -0.07907941 0.07812943 -0.078597106 0.03395311 0.03723792 -0.07152563 -0.0035089122
-0.093970746 -0.0055865557 0.0012226268 0.01130202 -0.1591515 -0.1506496 -0.12707439 -0.029001042
-0.077174366 -0.027446385 -0.14668843 0.08083436 0.040418454 -0.043343 -0.051402047 0.035998013
-0.02501337 -0.1340353 0.03215568 -0.2484269 0.063767366 -0.009749401 -0.058212426 0.07560963
-0.03143533 0.03349682 0.045135543 -0.015391183 -0.022459922 -0.041802242 0.020353055 0.049752403
-0.19042686 -0.13394257 -0.032885313 0.05622259 -0.2571474 -0.06823972 -0.12007256 -0.1307245
0.03808539 -0.012602396 -0.011801624 0.07408986 -0.09363467 -0.031719938 -0.09443233 -0.04970805
