notebooks/best_model_tz_v2.pth (torch, 770896 bytes, 26 tensors)

rnn.weight_ih_l0 f4 [256, 33]
00000000: e3e1 f5bd 432d 4b3d 6027 8b3d e4bf 19bd
00000010: 1897 67bd e3ae 19be 25dc ddbd 346a 1fbe
00000020: 435c 20bd 8a62 1ebe 6bf4 97bc 6460 e0bd
00000030: 53f8 c6bd b25a 9d3d c4a6 f83d 9a98 f73d
00000040: 8e47 d83c dcd2 c53d 45ef e7bc 081f 033d
00000050: 452e 813d c0c7 ed3d 9d15 793d b59f f6bd
00000060: 4cb7 dfbd baae 4c3c 8c60 ddbb a274 04be
00000070: 187b d83d 34a3 5f3d ef47 9c3d d632 92bd
00000080: a990 9d3c 086c b13d d31c 3fbc 6518 0d3e
00000090: f7d6 933d 80c8 f7bd dcd8 733d 9a65 92bc
000000a0: f51a f63d 9386 7f3c 8f36 f5bd 949e 3fbc
000000b0: 63ee fc3c a6f0 c83c ca35 f73c b372 09be
000000c0: c61d 603b 56f0 b4bd 15b5 8abd 40bf fe3d
000000d0: 4a97 b13d e6a2 fa3d fdf5 0b3e 9640 ca3c
000000e0: a9c7 4c3e 5712 de3c 064b ae3d eae0 843d
000000f0: 7540 c83d 093c e73d 7da0 41be d753 d6bd
00000100: f4ca 523d e9ae fdbd 80e9 a63d dbb3 113e
00000110: c240 d33d 97dc 82bd ff5f 26bd 51a7 e83d
00000120: 5056 db3c 05ab d73d aec7 823d 7553 8f3d
00000130: b029 e43d 034f 9b3d 4b99 a13d 7fee 9b3d
00000140: ee7f 54bb 6ca6 bfbc 3a86 e13d 6a61 b9bd
00000150: 9474 a8bb c786 433d 2103 993d 32ac ff3d
00000160: 1f49 bcbd 94ef 753d 551c e83d 0aa7 f43c
00000170: f684 3f3d 14ab e33d 5104 16bc 5038 c5bd
00000180: 9b7d 4a3c 4c72 fe39 a37e 5b3d ebb8 cdbd
00000190: 3167 ebbd 16a7 bd3d f8a3 9b3d 00d0 a4b9
000001a0: d172 f3bc d38f 1a3d 7c81 aa3d 9961 fb3b
000001b0: 984f da3c b27c afbc 47fc 9e3c e9b2 7ebc
000001c0: 542a 233d bf32 0e3e 1ffe f13c ce63 303d
000001d0: 0c46 64bc d884 bdbd d8de 8ebd 7610 523d
000001e0: 5bc0 b4bc 5f55 923d 3bbb a33d 54ab 863d
000001f0: da35 f83d d2f8 e7bd 0cb7 0ebc ff90 8a3d
00000200: d47a c43d 3270 6fbd 02e2 043d de26 48bd
00000210: 1ed6 5a3d 6009 5cbe fac2 0b3d 24e8 1dbd
00000220: 4564 0fbb 543d 6f3d 3d3a 70bd 6721 853d
00000230: cea2 6a3c d0cf f9bd 4a38 d63b dfed 23be
00000240: 8747 22bd fd2c 20be 45e1 aebd 44a3 54bd
00000250: ef62 80bd 81bd b2bd 615b a6bd f579 253d
00000260: 4346 c0bd 2016 c3bd dccb e9bd 623b 21bd
00000270: 0d8d d13d 5ac2 a93c 0545 943d 2f8b a4bc
00000280: 1524 633d bb5e a33d d17b 253d 9d64 11bc
00000290: 181f f9bd ae70 d83d dd74 edbd c8a1 233d
000002a0: 5c67 3aba 15c2 473d 77f1 bfbd 5ceb f1bc
000002b0: 874c bf3c 2510 553d 5326 c93d 5c33 e33d
000002c0: 4722 4d3d 4df1 0abe 05de 2abe 9272 55bc
000002d0: e981 203e 221d a93d cc88 e33c a23d 97bd
000002e0: 54d1 86bc 520a 9bbd 7788 bdbd b842 d9bd
000002f0: 49f9 a53d 206d ab3d e72f c7bd 92c8 fc3d
00000300: 49ae 97bd a976 e93c 1e19 02bd 4156 b5bc
00000310: 1640 1a3d 1215 e73d 80e8 2a3d f6ff 10bd
00000320: 9c6e 86bd 9cf4 a5bd ab62 913d a2fb fe3b
00000330: fe7b f03d 8a27 973d 23d7 eebd dafd 0d3d
00000340: f9cc 3e3c 3df9 bbbd 4111 8fbd 8874 e13d
00000350: 63b5 613d 2f8e aabd d461 dabd a78b 76bd
00000360: f2d4 b33d 2b20 5c3e d1ec c33d a54e b23d
00000370: 576b 3f3d afd8 a13d 6197 143e fd05 36bd
00000380: 7efc 27bc c186 dbbd b044 0f3d eacd 3bbd
00000390: 9eff 53be 51a8 ac3b a693 a7bc 4070 1c3c
000003a0: 6cd5 543e 289a 393b 513e 013d b936 233c
000003b0: bb7f cabd 72f0 233b c125 17be 31d4 96bd
000003c0: a201 11be e7b0 733c 0fb2 753d d84d c4bd
000003d0: d825 09be 9906 8c3d f693 6a3d 70f9 d3bd
000003e0: 3b36 b4bd 6091 ab3d 35e6 d9bd da75 35bd
000003f0: ffe8 45bc 3cbc a53d e89d c93d 950a 72bd
-0.12005975 0.04960371 0.067946196 -0.037536517 -0.05654058 -0.1500812 -0.10833005 -0.15567857
-0.039150488 -0.15467277 -0.018549165 -0.10955885 -0.09715333 0.076833144 0.12141183 0.12089653
0.026401307 0.09659359 -0.028312335 0.032012016 0.06307653 0.11610365 0.060811628 -0.120421804
-0.10923633 0.01249283 -0.006755894 -0.12935117 0.10570353 0.054599002 0.07630908 -0.071386024
0.019234018 0.086631835 -0.011664587 0.13778837 0.07218736 -0.12098789 0.059532985 -0.017870713
0.120168604 0.01559605 -0.11973297 -0.011695523 0.03087539 0.024528813 0.030177016 -0.1342266
0.0034197434 -0.08834903 -0.0677282 0.12438822 0.08671434 0.12238102 0.13668056 0.024689
0.1999804 0.027108354 0.08510403 0.064882115 0.09777919 0.11290748 -0.18908878 -0.1046521
0.051463082 -0.12386877 0.08150005 0.14228766 0.10315086 -0.063897304 -0.040618893 0.11360038
0.026774555 0.10530666 0.06385742 0.0699834 0.11140764 0.0758343 0.078905664 0.07613849
-0.0032424885 -0.023394786 0.1101193 -0.090517834 -0.0051408503 0.047735956 0.074713 0.124840155
-0.09193634 0.060042933 0.11333529 0.029864807 0.04675766 0.11116615 -0.009156303 -0.096298814
0.012359048 0.00048531813 0.053587567 -0.10045036 -0.114942916 0.09260385 0.07599634 -0.0003143549
-0.029717835 0.037734818 0.083254784 0.0076715467 0.026649281 -0.021421764 0.019407405 -0.015545585
0.03983529 0.13886546 0.02954012 0.04306393 -0.013932716 -0.092538536 -0.06976098 0.05128523
-0.022064378 0.071451895 0.07994696 0.06575647 0.12119646 -0.113267556 -0.008710634 0.06765937
0.0959374 -0.058456607 0.0324421 -0.04886519 0.053426854 -0.21487951 0.03412149 -0.038551465
-0.0021879834 0.058408096 -0.05864929 0.065005116 0.014321042 -0.1219784 0.006537472 -0.1600871
-0.039618995 -0.15642162 -0.085390605 -0.051913515 -0.0626887 -0.08727551 -0.08122898 0.04039951
-0.09388401 -0.095257044 -0.11415836 -0.039363272 0.102319814 0.020722557 0.07239727 -0.0200859
0.055454332 0.07977053 0.040401284 -0.008874086 -0.12164134 0.10568367 -0.115945555 0.03994921
-0.00071107387 0.048769075 -0.09372228 -0.029531173 0.02335192 0.05201735 0.09821763 0.110937804
0.050081518 -0.13568611 -0.16686256 -0.013027804 0.15674557 0.0825751 0.02777519 -0.073848024
-0.016457237 -0.07570328 -0.09254544 -0.10608429 0.08104188 0.08370423 -0.097259335 0.12342943
-0.07406289 0.028498964 -0.031762235 -0.022135856 0.037658773 0.11283316 0.041725636 -0.035400353
-0.06564066 -0.08103296 0.070988975 0.007781462 0.117424 0.07380588 -0.11662128 0.03466592
0.011645549 -0.09178398 -0.06985713 0.11008555 0.055104624 -0.083279006 -0.106631905 -0.060191777
0.087808505 0.21496646 0.095666535 0.087064065 0.046733227 0.07902657 0.14510871 -0.044439305
-0.01025307 -0.10719062 0.034977615 -0.04585067 -0.20702979 0.0052690883 -0.020456146 0.009548247
0.20784539 0.0028320644 0.03155357 0.009961777 -0.09887644 0.0025015143 -0.14760496 -0.07364691
-0.14160779 0.01487372 0.059984263 -0.0958516 -0.13393342 0.06837196 0.057270013 -0.10350311
-0.08799406 0.083773375 -0.10639612 -0.044301845 -0.012079476 0.080925435 0.09844571 -0.059092123

rnn.weight_hh_l0 f4 [256, 64]
00000000: 057c a4bc 0a96 3e3d ed60 c63c 4bdd dd3d
00000010: 385e 1cbc c60b 86bd 153a 2cbd f965 f73c
00000020: 58ec 70bd 8bb1 083e ec2f 8c3d 6cce 5e3d
00000030: c152 093e f97f 28bd 4b49 c93c a761 72bd
00000040: 2c29 663d d816 8b3d 3765 883d ce91 cbbd
00000050: 7616 723d d0bf cf3d 5fba a7bd ff92 793d
00000060: 6ad7 bebd a2ed 083e 5bb1 06be 43aa cf3d
00000070: f54c 63bd 1a6d 5b3d 0f1d 16be ce8b c5bd
00000080: 315b 05bd b4d5 adbc 2f2c 68bd cd7c 5e3b
00000090: 346d c2bd 78df d6bd 7691 37bd 9973 9c3d
000000a0: 0a1c 99bd cd41 b7bd 0414 6f3d 1b9f 883d
000000b0: b92e e03d 4d4c 52bb 8ba0 84bc a017 ad3b
000000c0: 8356 cd3c a70a eebd ca0b 41bd 034b d23c
000000d0: 80d2 e4bd f798 2bbe 2174 333d f08b a0bc
000000e0: c838 fe3c 8860 d23c c47e bbbd f82d 94bd
000000f0: c148 37bd 80b3 e03d cc14 9fbd 39a2 1abd
00000100: ff9e e8bc c453 67bd 773b 133e 911f 003e
00000110: c477 a3ba 1146 213e daa8 d0bd be95 90ba
00000120: 702e 823b d875 e8bc 6261 703d 8102 6abe
00000130: 19e8 8c3d 9596 25bd 6adc 213e 2523 a2bd
00000140: b070 a2be 610c 653c 6480 903d 0ff7 babc
00000150: 1326 80bb 245f d6bd 4dac 1c3e 4c0e c7bd
00000160: e241 b63d 44d0 08be bb9f d33d df62 0ebe
00000170: 6c0a 973c 452b 95bd e46e 93bd ab10 e8bd
00000180: f9f2 923d c9fe 8fbc 6e04 00be 7f70 023e
00000190: 763c 89bd 8945 5ebe 59b9 3abe 3b75 8dbb
000001a0: fd80 093d 98d1 febd f1ec ba3d cfd2 b9bd
000001b0: 6631 4a3c 11fb a13c d778 b1bc 11e7 8ebb
000001c0: f54c 94bd 44e7 b33c a1ca 723b 90cd 1f3d
000001d0: e68d 43bc 7249 2e3b 8af1 583e 5bd1 bebd
000001e0: 4ae0 d93d fe2f 13bd 4860 a43d 809e 723d
000001f0: d7c3 19be 51a8 dd3c 4d57 023e 7892 c9bc
00000200: c8d4 b1bc 2d82 b03d 12c4 a83c 161a 55bd
00000210: 85b3 3ebd 90cd cb3d 7806 c83c 35b3 a03d
00000220: 0f9d b2bd 1731 cfba 62fb 21bd eeca d03d
00000230: 4428 833d 9fcd 993d 8f34 873d f98a 74bd
00000240: 377d dd3d 6ae5 d43d 0f3a 48bd 650c 0cbc
00000250: 7d2a 8a3b 8331 30bc 3287 ac3d a3fe 113d
00000260: 942b dabc 9775 40bd df56 e2bc e4bd b73d
00000270: e4c3 a9bc 6339 85bd 9568 623d 9a74 4d3e
00000280: fe36 bc3d 535c 16bc e0da 403d a39a 823d
00000290: 0742 b93c dc40 623d 5f54 2c3d 7681 d63d
000002a0: 7066 6e3d 1f0d 26bd 5612 ae3d 4939 e2bc
000002b0: f1a0 86bd a913 1ebd 9551 aa3c 4179 8a3d
000002c0: 478e 9a3d e8ed 093e 5f40 093e b0f2 543c
000002d0: 501e 2c3d d93c 213e 8c87 28bd c6a6 f5bc
000002e0: 02da 703d e8a3 3abe ea72 37bc 9ba8 653d
000002f0: ffc5 3cbd 48c3 8dbd fbd9 b13d ac68 de3d
00000300: c265 c0bd b961 b0bc b1b9 7ebc 11b3 6f3d
00000310: 3738 8abd 6b0a a5bc 6ae1 e13d 4e26 cb3d
00000320: 6597 cf3c 5831 01be 01e2 e83d 7ca6 ab3c
00000330: f7d5 c53d d6fc ae3d abae 46bd c552 253e
00000340: ca8b fe3c 02e0 c9bd fd6c f2bd a66d a7bd
00000350: 6198 183c 696c 7fbd 94dc 293e d9c6 753d
00000360: 3afc b93d a01f d6bc 9e5e 9e3c ab1b e23d
00000370: 5f23 eabd 7c84 a7bd ef70 8ebd 79ba f2ba
00000380: 7b70 17bd dfdb 0a3e 5ee2 e53d d8f7 99bd
00000390: 64e9 6d3d 6e30 443d 537c 26bd c354 ca3d
000003a0: b951 233d 13b9 a3bd 5530 83ba b564 f2bd
000003b0: 56b5 47be 988c b73d 2f9a 143e 908c c9bd
000003c0: 1cc5 e33d 2e8a a1bc c31d c63d 810e b43d
000003d0: a4b0 a43d 2a48 863d 0aa6 f63d 6eed 463d
000003e0: 8a60 d93d 69fd 3bbd 7210 fbbd 2708 8a3b
000003f0: a677 933d f492 94bd 2785 90bc 3774 32bd
-0.020078668 0.046529807 0.02421614 0.10833224 -0.009543948 -0.06545214 -0.04204758 0.030199992
-0.058819145 0.13348977 0.06845078 0.054396078 0.13410474 -0.04113767 0.024571082 -0.05917516
0.05619161 0.067914665 0.0665993 -0.099399194 0.05910345 0.10144007 -0.08189844 0.060931202
-0.09318431 0.133719 -0.13153593 0.10139897 -0.055493314 0.053570844 -0.14659522 -0.09645806
-0.03255767 -0.021220066 -0.05668276 0.0033948899 -0.09493485 -0.10491842 -0.044816457 0.07639236
-0.07476051 -0.089480974 0.058368698 0.06670972 0.10946412 -0.0032088936 -0.016189834 0.0052823573
0.025065666 -0.116231255 -0.047130384 0.025670534 -0.11172962 -0.1675757 0.04381192 -0.019597977
0.031032935 0.025680795 -0.09155038 -0.0723533 -0.044747118 0.10971737 -0.077676386 -0.037752364
-0.028396128 -0.05647637 0.14378153 0.12512042 -0.0012471606 0.15749384 -0.10188456 -0.0011030955
0.003972821 -0.028376505 0.05868662 -0.22852518 0.068802066 -0.04042681 0.15806738 -0.079168595
-0.317266 0.013980002 0.070557386 -0.022822885 -0.003910789 -0.104673654 0.15300103 -0.09719524
0.08899285 -0.13360697 0.103332005 -0.13904904 0.018437587 -0.07283644 -0.07198885 -0.11331304
0.071752496 -0.017577546 -0.1250169 0.12738226 -0.06700985 -0.21706213 -0.18234767 -0.0043169535
0.03357028 -0.124423206 0.09127224 -0.09073412 0.012340879 0.019773038 -0.021664066 -0.0043610414
-0.07241241 0.021960862 0.0037047046 0.0390144 -0.011935687 0.002659407 0.2118589 -0.09317275
0.10638483 -0.03593444 0.08026177 0.05923319 -0.15016113 0.027057799 0.12728615 -0.024605975
-0.021707907 0.08618579 0.020601306 -0.05202683 -0.046557922 0.09951317 0.024417147 0.07846681
-0.08721363 -0.0015807477 -0.039546378 0.10194956 0.064041644 0.07509922 0.06601822 -0.059702847
0.108148985 0.1039532 -0.048883494 -0.008547877 0.004216491 -0.010753992 0.08424224 0.03564323
-0.026632108 -0.046987142 -0.027629314 0.08971766 -0.02072329 -0.06505086 0.05527552 0.20064011
0.091901764 -0.009177285 0.047083735 0.06377151 0.022614492 0.055237636 0.04207265 0.104739115
0.05820316 -0.040539857 0.08499591 -0.027615206 -0.06573666 -0.038592968 0.020790854 0.067614086
0.075466685 0.1346966 0.13403462 0.012997314 0.042021096 0.15745868 -0.041144893 -0.02998675
0.05880166 -0.18226588 -0.011196831 0.056068998 -0.04608726 -0.069220126 0.086841546 0.10859808
-0.09394409 -0.021530973 -0.015547202 0.05852038 -0.067490034 -0.02014657 0.110293224 0.099194154
0.025340745 -0.1261648 0.11371232 0.02095341 0.09659951 0.085443184 -0.04850642 0.16144855
0.031072516 -0.09857179 -0.11837194 -0.08175211 0.009313674 -0.062359247 0.1658805 0.06000409
0.090813115 -0.026138127 0.019332226 0.110404335 -0.11432528 -0.08179566 -0.06955134 -0.0018518708
-0.036972504 0.13560437 0.11224817 -0.075179756 0.058083907 0.04789775 -0.04064591 0.09879448
0.03987286 -0.079942845 -0.0010008911 -0.118356146 -0.19502768 0.08962363 0.14511941 -0.09841263
0.1112158 -0.01971921 0.09673645 0.08791829 0.08041504 0.06556733 0.12043388 0.048566274
0.106141165 -0.045895968 -0.12258996 0.0042123976 0.072005555 -0.072545916 -0.017641617 -0.043567862

rnn.bias_ih_l0 f4 [256]
00000000: ff4d f13d 4f46 403b 82d9 763c 4f7d 433d
00000010: af28 e63d 3218 a8bd 363e d3bd 0213 663d
00000020: 4541 ccbd 2977 cdbd b999 cc3d e582 273d
00000030: cb34 583d 43a5 b83d ded4 193d d983 bfba
00000040: 8abb fcbd 22c1 283d b9ea fbbd 1651 f53d
00000050: 3925 793d 0931 82bd 08d9 21bd e739 31bd
00000060: d432 dbbc 9383 27bc f541 58bd a6a1 c13d
00000070: be21 cd3c 6fb1 b03d 6c96 e23d 4ff7 0fbc
00000080: 769a 9dbd 1681 d53d 69a1 24bd 3dc2 d63c
00000090: 96fe f23c 6b04 063e 7ce9 a0bc b9a2 813d
000000a0: e892 883d 6734 b03c 9325 54bc 2095 ac3d
000000b0: 0bb2 67bc 0cd6 e53b 14ab 053e 8e5f 00bd
000000c0: 2d57 8b3c 2e2c 883d f7a3 ef3d 4534 cebd
000000d0: a55a 84bd 6b42 76bd ce1f d83d b9dc 8e3d
000000e0: 5a89 eabd f6b5 fe3d 2c36 0bbe 1d00 1c3d
000000f0: 2f61 9cbd e4c0 1e3d f9b0 833c 4211 213d
00000100: 7e46 e43d 0ba5 b83c 537d 883d 20c9 803b
00000110: 5708 1b3d 7ea3 1c3d 140b e53d 8ffa 3b3d
00000120: e8c6 b3bc 8b07 ffbd 2bc6 17bd bec4 c7bd
00000130: e792 88bd 6100 9fbd 39d7 983d c34a 953d
00000140: e95f 833c a845 703d 0024 bbbd ebd8 a13d
00000150: cbc8 863d 4f3b e83c 1e4e 243d a18f cb3d
00000160: 856c bd3c e805 ae3d 44c3 783d 88c1 eebc
00000170: bd0e dfbd 8c7c afbc 7bfd cc3d de69 02be
00000180: 3cbd 21bd 9821 84bc f1de 28bc 29de 913d
00000190: c284 a73d f155 d23c 3ba7 d6bd c495 a53d
000001a0: 0a0f 17bc b22c 2c3c 18bf 1c3d 9adf 40bd
000001b0: e6e9 513d 10f0 963c 0636 343e 53af 663d
000001c0: d3ce fd3d 323b 9bbd 35d4 c03d 4b0f c23d
000001d0: e76e e03d 2fc2 863d 612b 5ebb 1720 8e3d
000001e0: 21a6 09be 4183 ed3d 70a3 933d 7d7c 003e
000001f0: 72ec 2cbd 2cce 383d ea48 97bc dc54 1e3d
00000200: 3652 b63d e094 a9bd 73ed c93d de36 9c3d
00000210: 733c 01be afe6 d4bc 4565 2ebd 6a6e ab3c
00000220: 44a4 acbd 72f0 d6bc 7e6b d1bd a142 d73d
00000230: fee2 283d b5d5 553d 5a4e aa3d ce7a 083d
00000240: cd48 133e 25cc 5dbd 03bf fd3b 57bc 543d
00000250: 46ad f03d 9563 913d b6aa 43bd 3104 053e
00000260: ae40 3a3c 44e5 b7bd 754f 66bd 414c f63d
00000270: 11e5 4cbd bac3 ad3d ca99 b9bc 049e 01be
00000280: 24f0 f2bd c19b 73bd c4e1 cb3d c1a1 e7bc
00000290: dcd4 7cbd 385e b33d b378 0a3e 40cf 8fbc
000002a0: 3da1 91bd 1629 cb3d 66e8 133d ccb2 33bb
000002b0: d7a7 b83d c629 9a3d 7868 16be a8bb bc3d
000002c0: bcf1 a1bd 7b8f 403c 3a23 95bc fcad 8dbd
000002d0: 6058 5d3d efb0 cebd 4158 3cbd 5c61 4d3d
000002e0: 2c33 e6bd 9f98 0b3d 4de6 a13d deab 07bd
000002f0: 7ebe f43d e69a 90bd b8b6 d4bc 4593 14bd
00000300: c435 85bd 711e 413d 329e e53d 1ff8 48bd
00000310: d6a2 8bbb fb01 1b3c 2d63 163e e5e0 46bd
00000320: 1ece 69bc 5c10 9ebd c893 5a3d da2a 283d
00000330: 4ce1 073e ced2 033e 63c8 0d3e 3567 8abd
00000340: 6f1f a83c 52ed 313d b38c 803d 1bc3 103e
00000350: 17e1 1e3d 7ca0 3e3d 424b 843b d235 c13c
00000360: 4cf1 fdbb a855 033e be24 ae3d 3f50 ed3d
00000370: 7ebf c0bd cf14 41bd 4a09 8cbc 7176 babd
00000380: f722 903d 2ffe 95bd d7b0 243e 73a5 853c
00000390: e437 843d b6f6 4abd 2309 c8bd 2d56 b0bd
000003a0: 6609 a63d 8da8 833c f75f cdbd 196a fc3d
000003b0: 4160 813d e232 aa3d c912 3d3e d916 c1bd
000003c0: be6e f03d d795 423d 6888 7d3d 4da3 2a3b
000003d0: 4b90 d7bd e9bf 1d3d 582f 48bd f27d c2bd
000003e0: d8bc 2b3d a0d7 fd3c 1f0a e9bd 2729 90bc
000003f0: f113 873c 0e8e bebb e91b 433d 80d1 a43c
0.11782455 0.0029338782 0.015066506 0.047726925 0.112382285 -0.0820774 -0.103146 0.05617047
-0.09973387 -0.100324936 0.09990258 0.040896315 0.052784722 0.09015896 0.03755652 -0.0014611437
-0.12340458 0.04119981 -0.12300629 0.119783565 0.060826514 -0.06357009 -0.039513618 -0.04326811
-0.026757635 -0.010224241 -0.052797277 0.0945466 0.025040504 0.08627593 0.11063847 -0.00878699
-0.07695477 0.10425012 -0.040192995 0.026215667 0.029662412 0.13087623 -0.019642584 0.06329865
0.06668645 0.021509362 -0.0129484115 0.08426881 -0.01414157 0.0070140418 0.13053542 -0.031341128
0.017009342 0.066490516 0.11701196 -0.10068563 -0.064626016 -0.060121935 0.10552941 0.06975693
-0.11451979 0.1243705 -0.13594884 0.038086046 -0.07635724 0.038758174 0.016075598 0.0393231
0.11146258 0.022539636 0.06664529 0.003930226 0.03784975 0.038241856 0.111837536 0.04589325
-0.021945432 -0.124526106 -0.037054222 -0.097543225 -0.066686444 -0.07763744 0.074629255 0.0728965
0.016036944 0.05866018 -0.09137726 0.07902702 0.06581267 0.028348593 0.04011356 0.099395044
0.023123035 0.0849722 0.060733095 -0.029145017 -0.10891483 -0.021421693 0.10009285 -0.12735698
-0.03948711 -0.0161293 -0.01030706 0.07122452 0.081796184 0.025675746 -0.104811154 0.08085206
-0.009219894 0.010508703 0.03826818 -0.047088243 0.051248454 0.018425018 0.17598733 0.056319546
0.12392964 -0.0757965 0.09415475 0.09475573 0.10958653 0.06580006 -0.0033900368 0.069397144
-0.1344228 0.115973 0.072089076 0.12547489 -0.04221768 0.045118496 -0.018467385 0.038655147
0.08902399 -0.08280349 0.09859743 0.076276526 -0.12620716 -0.025988905 -0.042577047 0.020926673
-0.08429769 -0.0262377 -0.10225581 0.10510755 0.0412321 0.05220576 0.083157256 0.03332024
0.1438324 -0.054149766 0.0077437176 0.051937427 0.11751799 0.07099072 -0.047770225 0.1298988
0.01136796 -0.08979276 -0.05622812 0.12026263 -0.050023142 0.084845975 -0.02265634 -0.12657934
-0.118622094 -0.05947471 0.09955171 -0.028275372 -0.061726436 0.08758205 0.13522606 -0.01755488
-0.07110832 0.09919946 0.036110304 -0.0027419804 0.09016388 0.07527499 -0.14688289 0.0921548
-0.07907435 0.011752958 -0.018205274 -0.069179505 0.05403936 -0.10092341 -0.045982603 0.050141677
-0.11240229 0.034081098 0.079052545 -0.03312289 0.11950396 -0.070607945 -0.025966033 -0.03627326
-0.065043956 0.04714817 0.11211814 -0.04906475 -0.004261355 0.009460921 0.1468627 -0.04855432
-0.014270334 -0.07717964 0.05336359 0.04105649 0.13269538 0.12873384 0.13845973 -0.067579664
0.020522801 0.043439217 0.06276836 0.14136927 0.03878888 0.04653977 0.0040372917 0.023585234
-0.007749712 0.12825644 0.08503102 0.11587571 -0.09411524 -0.047138985 -0.017094273 -0.09104622
0.07037919 -0.07323872 0.16083084 0.016314244 0.06455973 -0.049551688 -0.09767368 -0.08610187
0.08107261 0.016071582 -0.100280695 0.12324924 0.06317187 0.083104864 0.18464197 -0.09428186
0.117398724 0.04750618 0.061897665 0.0026037276 -0.105255686 0.038513098 -0.048873276 -0.094966784
0.041928142 0.030986607 -0.113788836 -0.017597748 0.016489001 -0.005815274 0.04763404 0.020119429

rnn.bias_hh_l0 f4 [256]
00000000: e552 943d 3fd4 bcbb 0a80 77bc 1976 0a3e
00000010: c73c d03d 7a72 153c d636 633d a2c5 933c
00000020: 5ef5 023e 971d 883c 81e8 bcbd ccd3 e93c
00000030: 9511 74bc 5427 61bc 4f6c 2d3d dac6 013e
00000040: 723a 133d d6ac 7c3d faef e63b 2d94 52bd
00000050: 4651 413e 84ec 1ebd c6af ec3d 6d89 983d
00000060: 3057 a6bd 7b2e 9fbd 8d05 f43b 0e7a 843d
00000070: fe1c 293c 9edd 093e ea3e 7d3d 9792 5dbd
00000080: 546d eebd 350e b23c 0fa5 823c cfb5 a43d
00000090: c088 88bd e4f8 95bd 27a7 3bbd a95f 0ebd
000000a0: aca6 be3d 9623 4a3c 0e57 24bd cdda 36ba
000000b0: 469b dc3d 55fe c4bd 04fb c83c a123 9b3d
000000c0: 6a08 753c b959 183d 4151 fa3d 79ed 163d
000000d0: 5f62 b53d 7cb0 f73d 88e4 f53d d5cc c13d
000000e0: dfc0 213b bcc4 06bc c80e 2a3d 95db 9ebd
000000f0: 6a25 53bd 7c93 933d 4ee3 c63d b744 843d
00000100: bdbe 033e 69b7 483b 2779 3b3c 5380 cd3d
00000110: aa7a b4bd 06da aebd f70f d83d 2e26 6c3d
00000120: c8a2 6dbd 0c1b e3bd 4f72 8abd 78db 283d
00000130: bd09 c63d c1c6 613d 7dc6 be3d a1e1 20bb
00000140: 0442 0cbe 41a1 cbba 10aa 293d 8084 343b
00000150: e08f 1c3e 5d95 b1bd af50 d93d 3553 1bbd
00000160: 51b8 d9bd 7572 05be d83d 183c ddf4 0d3e
00000170: d681 51bd 11d6 093e e1d2 d7bd 33cf 8ebc
00000180: 050e 453d 9b36 8dbd 725e 1d3e 7c7e 71bc
00000190: 0fc7 f3bc cedc c53d 507b 80bb f2f1 69bd
000001a0: 704c 803d 97ba 1fbd e66e b73d 9a4f 123e
000001b0: 97ff e4bc b4a3 9ebd c11b 2a3d 3bc4 d13d
000001c0: ced8 913d dab8 4dbd 1539 843d 6338 8d3c
000001d0: 4506 8c3d 9dd9 863d 14bc d13d 79f1 073e
000001e0: 71cf 4ebe 1d33 9fbc 705c f8bb f4c3 0e3e
000001f0: 6a16 1dbd 8bba 21bd feb9 2a3d 155a 2c3d
00000200: e798 803d 1e8d 62bd 8536 cfbb 8158 883d
00000210: e953 e3bc 2251 903d a38c b63c 4171 06be
00000220: 120d bfbc f19d c13d e42e 933d 4c9a 213d
00000230: 1e08 a7bd c001 43bd fdfc 5dbd 642a fd3d
00000240: bd6d 45bd 55ef 97bd b364 00bd 1919 ec3d
00000250: a0b2 1ebc 4764 99bd 7780 9b3d 88d1 873d
00000260: 45ec cfbd 1363 d33c 9ce2 963d 10c0 043e
00000270: 268e f8bc c44d f93d e609 e2bd 0f66 23bd
00000280: 5886 983d 12ed bcbd 1d87 643d 5c16 38bd
00000290: c211 0b3e 9b11 7d3d c09f 9fbc cd49 06be
000002a0: b9d9 e63d 838d 623d a80b a23d 095e b83d
000002b0: 95f0 ce3d 98e5 d7bd 5763 843d b069 053e
000002c0: ee4b 97bd 2a20 8ebd dcab b5bd b83a cd3d
000002d0: 9c0b aebd 7f7b 1fba 54ef 9a3c f471 1c3d
000002e0: ba43 1abd 516c fd3d e49c 00bd 9f53 ca3d
000002f0: b1bb 73bd 2a15 b13c 8cd6 db3c edb1 ccbd
00000300: 153d 24bd a01b b4bd 09a5 9d3d 6fe0 8b3d
00000310: c63f 90ba 24d6 ba3d 66d8 a1bd 2a66 d13d
00000320: 9118 48bb f56b 89ba 5b5e 4cbc 0c2a 08bd
00000330: 81f8 c33c 9199 f33d 7811 283e f395 3d3d
00000340: c327 b5bd 6a74 233d 5948 2f3d a750 543b
00000350: 88b0 2a3c d032 d53d 5c6b 8a3d 5f3e 52bd
00000360: 65bb 56bc 43f4 853d 804e c13d 9a38 ee3b
00000370: fd6a 24bd 7d4d d63d 4b20 61bb 6ff7 df3d
00000380: 4534 22bd d253 c33d 3f80 343e ad53 773d
00000390: 7875 223c 227f bf3d b0d3 5a3d ce2e 253d
000003a0: 000a bb3d 1ab4 073d a11a dbbd 99a6 82bd
000003b0: 2762 003e b6e9 70bc 58da 9d3d 5ed3 bbbc
000003c0: 0426 ebbd 7f46 1f3d f084 5a3d 3a47 cb3d
000003d0: a19f 02bc e2fa 5f3d 1679 d63c f676 11bd
000003e0: 1363 f7bd 8dd8 73bd fbf9 10bd 22f2 963d
000003f0: 0022 b93d 9619 1c3e a5e5 0f3e d04b cfbd
0.072423734 -0.0057626064 -0.0151062105 0.13521613 0.10167842 0.009121532 0.055472218 0.018038575
0.12788913 0.016615672 -0.09224034 0.028543375 -0.01489677 -0.013742287 0.04233962 0.12673512
0.03594441 0.061688267 0.0070476504 -0.051410843 0.1887866 -0.038799778 0.115569636 0.07448087
-0.081220984 -0.07772537 0.007446951 0.064685926 0.010321854 0.13463446 0.061827578 -0.054094877
-0.116419464 0.02173529 0.015947847 0.0804249 -0.06666708 -0.07322863 -0.045813706 -0.034759197
0.09309134 0.012337586 -0.040122084 -0.0006975353 0.107718036 -0.096188225 0.024533756 0.07575155
0.014955619 0.03719494 0.12222529 0.036847565 0.088566534 0.120942086 0.120064795 0.09462897
0.002468161 -0.008225616 0.041518003 -0.07756726 -0.051549353 0.07205865 0.09711324 0.06458419
0.1286573 0.00306269 0.011442459 0.100342415 -0.08812459 -0.085376784 0.1054992 0.0576536
-0.05801657 -0.11089143 -0.06760084 0.041224927 0.09669826 0.055121187 0.093152024 -0.0024548548
-0.13697058 -0.0015535728 0.04142195 0.0027544796 0.15289259 -0.08671067 0.10611092 -0.03792115
-0.10630859 -0.13031943 0.009292088 0.13862939 -0.05114921 0.13460566 -0.10538269 -0.017432785
0.048109073 -0.06895181 0.1536806 -0.014739629 -0.029758004 0.09661256 -0.00392095 -0.057115503
0.06264579 -0.038996305 0.08956699 0.14288178 -0.027953906 -0.07746068 0.041530374 0.10242506
0.0712143 -0.050225116 0.064562 0.017238801 0.06837133 0.06584475 0.10240951 0.13275708
-0.2019632 -0.019433552 -0.007579379 0.13941938 -0.038351454 -0.039484542 0.041681282 0.042078096
0.06279164 -0.05531036 -0.006323638 0.06657506 -0.027749972 0.07046725 0.022283858 -0.1312914
-0.023321662 0.09453953 0.07186678 0.03945379 -0.08155845 -0.04760909 -0.054196347 0.12361601
-0.048200358 -0.07418696 -0.031346034 0.115282245 -0.009686142 -0.074898295 0.07592862 0.06631762
-0.10152487 0.025804078 0.07367441 0.12963891 -0.03034122 0.12173036 -0.11037044 -0.039892253
0.07447499 -0.09224905 0.055792917 -0.0449432 0.13580993 0.061784368 -0.019485354 -0.1311409
0.11271996 0.055310737 0.079123795 0.09002311 0.10104481 -0.105418384 0.0646426 0.13028598
-0.07387529 -0.069397286 -0.0887067 0.10020965 -0.08498308 -0.0006083771 0.018912949 0.03819461
-0.037662245 0.12374175 -0.031399623 0.09879231 -0.05950517 0.021616537 0.026835702 -0.09994874
-0.040097315 -0.087943316 0.076974936 0.06829917 -0.0011005334 0.09122875 -0.07902603 0.102245644
-0.003053222 -0.0010484444 -0.012473668 -0.033243224 0.023922207 0.11894525 0.16412914 0.04628558
-0.088454746 0.039905943 0.042793605 0.0032396705 0.010418065 0.10410082 0.067587584 -0.051329013
-0.013106202 0.0654073 0.09438801 0.007269931 -0.040141094 0.104639985 -0.0034351523 0.10935866
-0.03960063 0.09537472 0.17627047 0.060382534 0.009915702 0.093504205 0.053424537 0.04032784
0.09132767 0.033130743 -0.106984384 -0.06379432 0.12537442 -0.0147041585 0.077076614 -0.022927936
-0.1148186 0.03888559 0.053349435 0.09925695 -0.007972629 0.05468262 0.026180785 -0.03551384
-0.12079444 -0.05953269 -0.03539465 0.07370402 0.09039688 0.15244135 0.14052446 -0.10121882

rnn.weight_ih_l1 f4 [256, 64]
00000000: b208 1f3c f238 3d3d 7b31 eb3d 4909 c4bd
00000010: 8fec f3bc b7ce 483d eb50 fb3c 2560 48bd
00000020: 135a 72bd 5a1f e8bd 4a53 d8bd c1a9 f8bd
00000030: 310b 253d 8e64 d33d ccb1 0ebd aef6 1bbe
00000040: 0c98 f93d b267 603d ea47 9fbd 8aeb b93d
00000050: 1c02 cc3c cbca bf3d c731 06be f338 0cbd
00000060: 03d4 a73c 2723 97bd 4f1f ed3b 585e a1bd
00000070: 8f33 1ebd 0c0d cc3d 007d 093e d17f dabd
00000080: a19b 083d 070e bb3d cd70 74bd 7546 f43d
00000090: 3f8c c93d 1a67 94bc 7e40 f5bd c3c4 a53d
000000a0: 6f01 d7bd b329 c4bc 892c 2abd 4bc1 dfbc
000000b0: 6a3c 8f3d 998e 963d 2bc0 e4bb 52fa c2bd
000000c0: bc79 ffbd 82be cf3d f9de cbbd 52d9 4abd
000000d0: 02be b2bc eb82 fdbd c53f 89bd fba7 e8bd
000000e0: f38a 77bd a05b 86bd d082 debd f7ce 163b
000000f0: a05a e4bc 6185 e3bd 1e11 c03c 711d 033e
00000100: 178a 57bd 598d 2ebc 489c 233d 6610 9abd
00000110: b255 16bd 94a8 f2bd 94c1 acbd 9713 f43c
00000120: ea20 a8bd 8aca 5fbd de92 873d d071 c2bd
00000130: 125e d1bd 8d86 f03d f0e8 093c 115a 863c
00000140: a31d c6bc 8462 c33d 9c7b 68bb e347 e7bd
00000150: 0ce0 a73b a2c3 9e3d ae79 c13d 4188 fd3d
00000160: 8731 013e 2b9f 853b 62fe b8bd 4dcf b4bd
00000170: d5b1 91bd 67ce 5cbd e986 3abd fbf3 3fbd
00000180: 8e02 023c 3ac3 d5bd 2b1d 2a3e 19cd 31bc
00000190: fee0 013d 2fcc ecbd ad5a 593d b2ed bfbd
000001a0: 1bf2 103e 9209 703d 4e56 8a3d 8892 94bd
000001b0: 19fc 9c3d d8ca cc3d fc90 113e ff94 193d
000001c0: 2d4f 7e3d 893e 7c3d 3f4b 8abc 7f9f f6bd
000001d0: 84fd b33d cf26 51bd 1d8d 2abc b291 38bd
000001e0: bd04 5dbd 4a26 85bd 9fd6 f5bc 54c8 373d
000001f0: 6988 b23a dbfa d63d 81ad 56bc 14dc 463c
00000200: bd89 aabd c651 dbbd 10ba 0e3b c434 a33d
00000210: b5f4 3e3b 4a79 bdbd ab91 e63d 1164 c7bd
00000220: 0367 f3bd ce41 bc3c 0466 b6bd b9ef 8c3d
00000230: e800 59bd b1b7 be3d c2da 00bd 8074 19bd
00000240: 138c 5f3d 6d8f 08bc f67c 7cbd 8af1 37bd
00000250: fca3 273e 36df 1ebd b091 aabc f2bf a83d
00000260: 04a0 4c3d 2581 c6bd c95b 823d cadf 75bd
00000270: 916b 34bb 0ac4 8b3d 002b 66bd 6f42 aabd
00000280: d818 813c a30a 9b3d 17ac 46bd 856f de3d
00000290: 8462 a8bd bbfc a0bd 3354 c73d d522 013c
000002a0: 4334 f23d 4631 d2bc ebf6 863c a26d 00be
000002b0: 4eca c939 8965 493c 7cec 033e 41b4 acbb
000002c0: cbc5 f1bd ca71 a7bd 76a0 b0bd 838d eb3a
000002d0: 76a2 053e f2de 93bd bb08 8abd 7922 b2bd
000002e0: cdf6 09be 8169 4c3c ddc1 d1bc 7745 343d
000002f0: 7f4b c3bd 368f 67bc c4ca 8a3c 48af 79bd
00000300: 3085 a63d 798f 553b 99a1 9b3d 0123 2ebd
00000310: e05f 713d ebc7 e03d 0f1e 433d ab25 023d
00000320: 21f4 97bc b6ac 793d d84b 32bd 36a2 953d
00000330: 08f9 aa3d c60c 9f3a dda6 ac3d d7d2 dd3c
00000340: 20a7 c03d cdfc 973d 354c 573b 1a0c aa3d
00000350: d0e8 11bb 2753 bf3d aa44 743d 93af d53d
00000360: 010b 33bd 42ed 0cbe 09d0 cdbd 8fbc b6bd
00000370: cb78 d5bd f87e a13d 6191 13bd ab40 d33d
00000380: 4950 25bc 6fa3 98bb 3841 8c3b 5b23 62bc
00000390: ec0f f83d b91e 6abd 7886 4c3c 6340 04be
000003a0: 2ce5 503d c314 1e3d 5d31 dfbd 4e94 a53c
000003b0: 35a5 763d a72f 59bd 281b e53d 0bde 5e3d
000003c0: 8a00 16bd 3e97 7f3d 155e 063e 4f2a c93d
000003d0: a66b 6ebc 6d47 22bd d73f b3bc 5283 fd3b
000003e0: dfd6 cfbd c12d 21bd 8e42 453d 9359 083e
000003f0: 60ab e0bc a874 01bd 09ba 47bc dde6 b9bd
0.009706663 0.046196885 0.11484047 -0.095720835 -0.029775886 0.049025264 0.030678233 -0.048919816
-0.059167933 -0.11334105 -0.10562761 -0.12141753 0.040293876 0.10321914 -0.03483753 -0.1523082
0.12187204 0.05478639 -0.077773884 0.09078129 0.02490335 0.093648516 -0.13104926 -0.034234
0.020486837 -0.07379752 0.0072363983 -0.07879323 -0.03862339 0.09963426 0.1342659 -0.1066891
0.033351544 0.09133535 -0.059677888 0.11927501 0.09841203 -0.018115569 -0.119751915 0.0809417
-0.1049832 -0.023945665 -0.04154638 -0.027313849 0.06993945 0.07351417 -0.006980916 -0.09520401
-0.12474391 0.10143758 -0.09954638 -0.04952366 -0.021819118 -0.12378486 -0.06701616 -0.11360165
-0.060435247 -0.06560445 -0.10864794 0.0023011544 -0.027875245 -0.111094244 0.023445662 0.128042
-0.052621927 -0.010653817 0.039943963 -0.07522659 -0.03670282 -0.1184856 -0.084353596 0.029794497
-0.08209403 -0.054636516 0.066198096 -0.09494364 -0.102230206 0.117444135 0.008417353 0.016400369
-0.024184054 0.09540275 -0.0035474068 -0.11293008 0.005123144 0.07752158 0.09447037 0.12379504
0.1261655 0.004077812 -0.09032895 -0.08828602 -0.07113997 -0.053907778 -0.045538817 -0.046863537
0.007935179 -0.10437627 0.16612689 -0.010852122 0.03170871 -0.115623824 0.05306499 -0.09371509
0.14154856 0.058602877 0.067547426 -0.07254511 0.07665271 0.09999627 0.14215463 0.03749561
0.062087227 0.061583076 -0.016881583 -0.1204214 0.08788589 -0.0510624 -0.010409621 -0.04506082
-0.053959597 -0.06501444 -0.030009566 0.044868782 0.0013620976 0.10497066 -0.01310289 0.012137432
-0.08327053 -0.107089564 0.0021778382 0.079690486 0.0029137556 -0.0925165 0.11258253 -0.09735883
-0.11884882 0.022980597 -0.08906177 0.06881661 -0.05297938 0.0931238 -0.031458624 -0.03746462
0.054576945 -0.008334977 -0.06164261 -0.044908084 0.16371149 -0.03878709 -0.020821422 0.08239736
0.04995729 -0.09692601 0.06365163 -0.060027875 -0.0027529935 0.06824501 -0.05619335 -0.083134525
0.015758917 0.07570388 -0.04850396 0.108611144 -0.08221915 -0.078607045 0.097328566 0.00788184
0.118263744 -0.025658261 0.016475162 -0.12541822 0.00038488436 0.012292274 0.1288318 -0.0052705114
-0.11805304 -0.081760004 -0.086243555 0.0017971251 0.13050255 -0.07220258 -0.067399465 -0.086979814
-0.13473053 0.012476326 -0.025605137 0.04401156 -0.09535884 -0.014133265 0.01694239 -0.060958177
0.08130872 0.0032586737 0.07599182 -0.04251385 0.058929324 0.10975631 0.047636088 0.031774204
-0.018549027 0.060955726 -0.04352936 0.0730633 0.0834828 0.0012134544 0.08430264 0.027078075
0.094068766 0.07421265 0.003285182 0.083030894 -0.0022264011 0.09342032 0.059635796 0.10433879
-0.043711666 -0.13762382 -0.10049445 -0.089226834 -0.1042343 0.078855455 -0.036027316 0.10315069
-0.010089942 -0.0046581547 0.0042802356 -0.013802375 0.12112412 -0.057158206 0.012483232 -0.12915187
0.050999805 0.03859402 -0.10898087 0.020212319 0.060216147 -0.05302396 0.1118682 0.054410975
-0.036621608 0.062400095 0.13121827 0.09822523 -0.014552033 -0.0396189 -0.021881027 0.007736602
-0.10148405 -0.039350275 0.048159175 0.1331542 -0.027425468 -0.031605393 -0.01219035 -0.09077237

rnn.weight_hh_l1 f4 [256, 64]
00000000: 3c37 903c 91f4 41bd ca0d 80bd bfcf ab3d
00000010: 4de4 29bd 4380 3a3d aa3c 873d 8203 323d
00000020: e93b bc3d 21e1 c93d b814 153c e816 96bd
00000030: 6a3e 13bd 2ec6 a13d cc9f 123d 549a b63d
00000040: 50ff ab3d 75b2 033e b941 ca3d 524d ebbb
00000050: b85d 113e 3eea 2dbd b910 e4bc a2b1 d53d
00000060: c41b 853c 5f1e b4ba 1f55 fdbc 0347 983d
00000070: e271 08be 09c9 4a3d d97d 9b3d a4f1 d0bc
00000080: 889e ec3d 5f73 aebc ace3 ebbd 7b5f 5ebd
00000090: bcf3 993d 61f6 e8bd 2519 be3d f782 e53c
000000a0: 764c 0d3e 6f80 84bd 5402 8fbb 6259 cb3b
000000b0: e5fb 18bb 3cee a53c a799 bc3c 54c1 f33c
000000c0: c886 443d 4d91 0a3e 7e20 c83d 7ddd bcbd
000000d0: 4b3c f93d 3e45 053d 59ef d43d bcbf 3f3d
000000e0: 5986 ebbd 736b d43d 7739 b93d 3b1a c0bd
000000f0: 0a2e 753d ee4a 0a3d 87d5 ecbd 5099 cbbd
00000100: a318 0f3d 9db2 60bd b2f6 ecbd 424f f5bd
00000110: de57 88bd 6e4d 94bb 5508 243d 1029 50bd
00000120: fdd7 63bd 03d3 9dbd 6897 9b3d 2237 c9bd
00000130: 7358 96bd bd40 05be 50b1 c8bb 45ea bb3d
00000140: fdcc ec3c 120d 723d 1c63 3e3d 0ae3 493b
00000150: fde5 813d adf4 d8bd 483a fe3a 1dc8 cebc
00000160: c46d 1dbd 67c2 0bbe 1b12 a43d f38b 37bc
00000170: bf46 a53d bf00 f2bd bef8 7ebd 5cea edbd
00000180: 23d1 1dbd e7a5 26bc 6e83 ddbc bc27 dabd
00000190: 3ece a53d 2f81 03bd 0e60 bebd a788 9939
000001a0: db6e 8e3d c53c c4bc 63ab 203b 5291 7e3d
000001b0: e5c1 003d 318b 2e3e 8835 b73d dccf a63d
000001c0: db08 82bc e6b1 213d c8e2 b5bd a581 a53d
000001d0: dea3 36bd 6c44 893d 05a2 01be 9937 c53d
000001e0: f767 88bc 1b56 893d ee08 eabd dab4 433d
000001f0: 1a54 be3d 9208 c03d 7016 fb3d a731 b13d
00000200: 4cd3 aabd 89c2 ee3c 9fef f9bd 8e22 f6bd
00000210: a295 0438 d180 a73d ee24 7cbc b9cb f939
00000220: 1571 b33c 3397 ecbb 5ef6 27bc 8b79 81bd
00000230: 14be de3c ddc1 cf3d 5591 e2bd 5b9d b3bd
00000240: c652 673d 31c9 0d3e 72f3 3ebb 2c23 c8bd
00000250: 12d5 96bd 184e 5dbd 720b 9e3c e06b 123d
00000260: fd4c 5e3d 2e94 dfbc 72c1 67bd 564c 6fbd
00000270: cf8b f4bd 17d9 d7bd aad0 b93d 3246 e93c
00000280: fe1d e8bd 043f c0bd 49c9 1dbc 97d3 7f3d
00000290: f29c 91bd 934d 55bd 9140 893d 91c0 e83d
000002a0: 480d db3d daf0 273d ae39 79bd b9cd 0c3c
000002b0: 6a49 35bc baf6 693c 1b14 cc3c ffd0 303d
000002c0: bae9 9b3c 7b32 f5bd ac8f bebd 9cc9 933c
000002d0: 3471 833d b22b e23d b7c2 e9bd 1e8b 703d
000002e0: bb63 8d3d f9b7 993c 9e8b 2f3d 0bb7 003e
000002f0: aa42 49bd 28c6 81bd 75f4 5e3b 2c24 abbb
00000300: 1f6e ddbd 771a d93d d336 ac3c 8d1c 833d
00000310: 07ca d13b 357b fdbd 89b8 d3bd 8388 3abd
00000320: e7f6 d0bd 81e5 c23d bd4e cb3d 4c3c debc
00000330: f3ba f8bd bfb7 753c 0b46 cf3d 9526 e6bc
00000340: 0450 ba3d da2c 9fbd 2cda 363c 48ed a23d
00000350: d6b0 7dbd f684 1abd 75b4 9e3c cf54 8bbd
00000360: 28e1 9f3d a460 65bd 83a8 be3d 84fb 04bd
00000370: c983 653d 2ad7 de3d ba9a 013e b14e b5bd
00000380: db46 03bd 8009 053d 855c da3d 2e35 ff3c
00000390: 3fc9 1abd 09b9 cc3d 136a 833c 2265 bdbd
000003a0: 5a87 863c 25f2 91bd 4b14 9e3d 2cde 813d
000003b0: c6e8 b13c eb54 943d 2a22 a2bd eb10 313d
000003c0: 83e5 ae3d 6c52 dbbd 3eb0 a53b 28d1 f6bb
000003d0: 18c2 8dbc bad4 193d cfbc d93c 10c5 a03c
000003e0: f71e e23d caaf 8b3d ef2a 413d 26c4 a6bc
000003f0: de32 acbc 89c1 203c 2d97 50bd da41 693d
0.017604463 -0.047352377 -0.0625263 0.08389234 -0.04147749 0.045532476 0.066033676 0.043460377
0.091911145 0.09857393 0.009099178 -0.07328588 -0.035948195 0.07899128 0.035796925 0.089161545
0.08398306 0.12861045 0.09875817 -0.007180848 0.14195907 -0.04245972 -0.027840005 0.104342714
0.016248591 -0.0013741961 -0.030924378 0.074354194 -0.13324693 0.04950813 0.07592363 -0.025505848
0.11553675 -0.021295248 -0.11518034 -0.054290276 0.07517192 -0.11375118 0.0928214 0.02801655
0.13798699 -0.06469809 -0.004364291 0.0062057236 -0.00233435 0.0202552 0.023022486 0.029755272
0.0479801 0.1353199 0.097718224 -0.09221933 0.12169703 0.032536738 0.103972144 0.04681371
-0.11500234 0.10372057 0.09044164 -0.09380003 0.05985836 0.033762865 -0.115641646 -0.099413514
0.034935605 -0.05485784 -0.11570491 -0.11978008 -0.06657384 -0.004525832 0.04004701 -0.05082041
-0.055625904 -0.07706263 0.07597238 -0.09824969 -0.07341089 -0.13012977 -0.006124653 0.09175543
0.02890634 0.059094496 0.046481237 0.0030805492 0.06342695 -0.10593543 0.0019396031 -0.025241906
-0.03843476 -0.13648377 0.08011266 -0.0112028 0.08070134 -0.118165486 -0.062248938 -0.11616966
-0.038529526 -0.01017139 -0.02704021 -0.1065211 0.08095978 -0.03210562 -0.09295665 0.00029284248
0.06954738 -0.023954758 0.0024516217 0.062150307 0.031434912 0.17045285 0.08945757 0.08145115
-0.015873363 0.039476298 -0.08881146 0.08081368 -0.04458987 0.067025036 -0.12659462 0.09629745
-0.016651137 0.067058764 -0.114274845 0.047779895 0.09293385 0.09376635 0.12260139 0.086520486
-0.08341083 0.029145496 -0.12203907 -0.120183095 3.161061e-05 0.08178867 -0.015389664 0.00047644766
0.021904508 -0.007220173 -0.01025161 -0.063220106 0.027190246 0.10144398 -0.11062876 -0.087702475
0.056475423 0.1384628 -0.0029136804 -0.097723335 -0.07364859 -0.054029554 0.019292567 0.03574741
0.05427264 -0.027292337 -0.05658097 -0.05842241 -0.11940729 -0.105394535 0.09073003 0.028475855
-0.113338456 -0.09387019 -0.00963051 0.062457647 -0.07110013 -0.052075934 0.06701768 0.11364854
0.106958926 0.04100118 -0.060846023 0.00859397 -0.011064867 0.014280016 0.02491193 0.043168064
0.019032348 -0.11972519 -0.09304747 0.01804047 0.06418076 0.110434905 -0.11414092 0.058726422
0.06903788 0.018764483 0.04285776 0.12569825 -0.04913584 -0.063366234 0.003402022 -0.005222818
-0.108120196 0.10600751 0.021022236 0.0640193 0.0064022574 -0.123770155 -0.10337932 -0.045540344
-0.10203343 0.09516431 0.099271275 -0.027128361 -0.12145033 0.014997422 0.101207815 -0.02809457
0.09097293 -0.07772227 0.011160415 0.07955414 -0.061936222 -0.037724458 0.019373158 -0.06803285
0.07806617 -0.056000367 0.09309485 -0.032466426 0.056033883 0.10880883 0.1265668 -0.088529
-0.032049995 0.032479763 0.10662178 0.031153288 -0.03778958 0.0999623 0.016041791 -0.09247805
0.016421963 -0.071262635 0.07718714 0.06341204 0.02171744 0.07242759 -0.079166725 0.043229025
0.0853987 -0.1070908 0.00505641 -0.0075322576 -0.017304465 0.037556387 0.026579289 0.019625217
0.11041062 0.068206385 0.047160085 -0.020357203 -0.02102035 0.009811767 -0.050925422 0.056947567

rnn.bias_ih_l1 f4 [256]
00000000: b811 f23d bd2e 5fbc 340f 603d f6e9 54bd
00000010: e6be 793e 7f11 073e 389d 003e 963d f73b
00000020: 9255 7c3d a6f1 db3d 49ca 003e a5c9 093e
00000030: 1502 ee3d 59f2 cebd 0ea1 4abc 7535 2dbd
00000040: 0f13 e1bc 5796 e53d 784f ca3c b608 083e
00000050: bd60 cb3d 8a1a 0c3e 2551 c63c a9e0 a13d
00000060: 37e5 ec3c 65f1 8e3d b9ea c9bd ef13 55bb
00000070: c1a7 de3d 09c2 a83d 34bb b7bd 1630 aebd
00000080: 122d 39bd 32eb b4bd e557 80bd 10a6 c9bd
00000090: ee55 4dbc 38e5 363c b90b 8b3d 6fed 5a3d
000000a0: 8076 3f3c b13c c1bb 42ae 183d 7d9d 1bbd
000000b0: 711b ba3d c27d ae3d 5797 26bd a94c a0bd
000000c0: e442 7d3c 2dae be3d 1866 5dbd 65e3 c2bc
000000d0: d563 cc3d 0148 0b3e 05b0 9b3d 72e5 913d
000000e0: 14ee 50bd 688c f73c f1a9 393d a6e4 4fbb
000000f0: a700 aa3d 3f7a eebd 3eba f23d 4480 f03d
00000100: 79de acbd dc22 f3bc e147 94bd 3b8a eebd
00000110: 926e 773d 7a6c 253d 69bc 4e3b becc 013e
00000120: 6b45 af3b 921e ba3c 81df 723c cb10 a2bd
00000130: ad19 febd 2b50 e53d 8fc8 a5bd ccff ffbc
00000140: fc42 d03c eccb 2a3d 3585 f33d 6cf3 103d
00000150: ba02 053e ab00 a6bd cf01 e23d 8d9d 083e
00000160: 390f d93c f710 4e3d f327 a4bd 3487 abbd
00000170: 04b2 023e e7a3 fbbd 8ca9 853d e195 0a3e
00000180: 583f 903d 29d5 8f3b 4421 793c bd20 993d
00000190: 0b6f bd3d d79f 993d 63f9 683d 2a42 033c
000001a0: fa15 df3d 1d86 a43d a431 dd3d 5dca cb3d
000001b0: 40f5 e53d 5362 c0bd ccad 74bd fd98 383d
000001c0: e274 8bbd 556b 8dbd 3024 b7bc 7bd2 02bd
000001d0: 86df 393d d515 a8bc bc0d 513b 5d20 fb3d
000001e0: 5af9 f73d 440f 9d3d 93be d93d ac4c c63d
000001f0: df7a 003e dfab f3bd a761 bf3d 9b7f 913d
00000200: 8644 ec3d 7c84 b33d 144c 05be 029c 3fbd
00000210: 95d6 f4bc a2dd d9bd cdcf 873c 0b04 c5bd
00000220: a631 dbbc b6e6 bdbd 9826 003e bb2b d1bd
00000230: 011b f73d bd6c 0b3d 6845 423c 3f9a bc3d
00000240: fa79 84bd 2cba 89bd 0636 4f3d cb37 65bc
00000250: e26d 35bd 4933 c1bc 44b9 26bd b955 acbd
00000260: cd9c c63d afbc bbbd 73b9 f9bb fd36 0d3d
00000270: 5152 bc3d 7565 093e 9062 4b3d 79dc 9bbd
00000280: 90fe 85bd ec78 e73b ed18 06bd a08a 90bd
00000290: 15fa f23d 6143 bfbd 0c04 063d ae34 a43d
000002a0: ad9e b8bd 3f26 d2bd 6903 9d3d d540 0f3e
000002b0: 6a20 aebd c41e 363a d816 6abd 9b56 28bd
000002c0: 65dc a6bd 5870 8dbd bf51 833b 035b 03be
000002d0: 65d6 9e3d 8db1 603d 5fe7 06be def2 98bc
000002e0: 54f9 a9bc 99c0 0bbe 2f77 f0bc 9db6 74bd
000002f0: 20eb 033e 082d b93d 82cc f8bb d2a9 683d
00000300: c8e0 bf3d b6df 4dbd 3620 2a3d bff7 043e
00000310: c42f 233e 6534 c83d 8547 fe3d ef18 a63d
00000320: 11fc 5f3c 6fe9 f23d f243 c3bd 1698 a23d
00000330: 6545 563d c6af 23bd 4e7d bd3d a624 733d
00000340: e661 523d f903 8abd 13f1 ff3d c2d4 e43d
00000350: 3f36 723d 8f7b 21bd 73dd b03d be33 10bd
00000360: f4be 8abb 8fd1 043e c1ae 773d 52f3 e53d
00000370: eb74 073d 067e 113c 330d 153d 5f81 0b3e
00000380: 56fc 373d d15e 12bd c3b4 8b3c c603 2f3d
00000390: e571 453b d4b7 94bd 09dd 58bd 5cfd 203c
000003a0: 55d9 8abb 982c d4bd 4dfa 94bd 9b6a c53d
000003b0: 4d17 5d3c 627c 13bd 4abe cf3d 541d ce3d
000003c0: ae54 94bd 03bc 8fbd 8848 e3bd 8e30 b63c
000003d0: 1baa fe3c 5350 ef3c 728a 24bd dd1e 6f3d
000003e0: 4588 b83d dfa4 6ebd 0405 e3bd 38bb 19bd
000003f0: 4ee7 8fba 99b0 c1bd 6b01 753d 31d1 0cbd
0.11819786 -0.013621983 0.054702 -0.051980935 0.24389228 0.13190268 0.12559974 0.0075451834
0.061605044 0.1073945 0.12577166 0.13455828 0.11621491 -0.10104818 -0.0123675 -0.04228731
-0.027474908 0.11210316 0.024696097 0.13284573 0.09930561 0.13681999 0.024208615 0.07904179
0.028917892 0.06979636 -0.09859223 -0.0032513102 0.1087184 0.08240134 -0.08971253 -0.085052654
-0.045208998 -0.088339224 -0.062667646 -0.09846127 -0.012532694 0.011163048 0.06789345 0.05344909
0.011685967 -0.0058971276 0.03727556 -0.03799199 0.09087265 0.0852008 -0.040671673 -0.07827122
0.0154578425 0.09310565 -0.054052442 -0.02379007 0.09979979 0.13601686 0.076019324 0.07123841
-0.0510083 0.030218318 0.045328084 -0.0031721978 0.08300906 -0.1164441 0.11851929 0.11743215
-0.08440871 -0.029679708 -0.07240272 -0.11647459 0.060408182 0.040386654 0.0031545407 0.12675759
0.0053488514 0.022719655 0.014823795 -0.07913359 -0.12407241 0.111969315 -0.08094894 -0.031249903
0.025422566 0.04169838 0.118906416 0.035388395 0.12989321 -0.08105596 0.11035501 0.13341351
0.026496517 0.050309148 -0.08015432 -0.08375397 0.1276322 -0.12287121 0.06526479 0.13533737
0.07043332 0.0043894243 0.015205685 0.074769475 0.092496954 0.0750119 0.05687846 0.00801138
0.108928636 0.080333926 0.10800484 0.09950707 0.11228418 -0.09393754 -0.059736058 0.045067776
-0.06809403 -0.069052376 -0.022356123 -0.03193901 0.045379184 -0.020518223 0.0031899055 0.12262032
0.12108107 0.07668927 0.10632052 0.09682593 0.12546872 -0.11898016 0.093447976 0.07104417
0.11536507 0.08765504 -0.13017303 -0.04677964 -0.029887477 -0.10637976 0.01657858 -0.09619912
-0.026757073 -0.0927252 0.12514722 -0.10213419 0.120656975 0.034039248 0.011857368 0.092091076
-0.06468578 -0.067249626 0.05058863 -0.013990353 -0.044294246 -0.023584025 -0.040704027 -0.08414788
0.09697876 -0.09166848 -0.007620984 0.03447627 0.09195388 0.13417609 0.049654543 -0.07610411
-0.065426946 0.0070639756 -0.032738615 -0.070576906 0.118641056 -0.093390234 0.032718703 0.0801786
-0.0901464 -0.10261201 0.07666666 0.13989575 -0.08502276 0.00069473335 -0.05715069 -0.04109822
-0.08147506 -0.069061935 0.0040075476 -0.12827687 0.07755736 0.054856826 -0.13174199 -0.018670496
-0.020748772 -0.13647689 -0.029353706 -0.059744466 0.12882662 0.09041792 -0.0075927386 0.05680258
0.093690455 -0.050262176 0.041534625 0.12985133 0.1593619 0.097756185 0.12415985 0.081102245
0.013670937 0.1186093 -0.09534444 0.07939164 0.052312274 -0.039962552 0.092524156 0.059361123
0.051362894 -0.06739039 0.12497153 0.11173393 0.059133764 -0.039424475 0.08635988 -0.035205595
-0.004234189 0.12970565 0.060469393 0.1122805 0.033070486 0.008880144 0.03638954 0.1362357
0.04491838 -0.035734955 0.017053967 0.042728208 0.00301277 -0.07261625 -0.05294517 0.009826031
-0.004237334 -0.10360068 -0.072743036 0.09639474 0.013494325 -0.036007293 0.10143717 0.10064188
-0.07242714 -0.07018282 -0.110978186 0.02223995 0.031086972 0.029213106 -0.040171094 0.058379043
0.09010366 -0.058262702 -0.11084941 -0.03753206 -0.0010978968 -0.094575115 0.059815805 -0.034379188

rnn.bias_hh_l1 f4 [256]
00000000: ed28 d73b 15f0 2f3d 00e3 a2bc ac5f a0bd
00000010: fdf2 083e e562 15bd 2696 1d3e 59ca 5bbd
00000020: 36ce 053c 376b 71bd 3b2b a23d 04e7 b53d
00000030: 4e04 683d 23eb b53d d27c 82bd aa39 873c
00000040: ba10 d63c 06da 1d3e f496 fb3d cb75 0a3e
00000050: 5c7a 843c df3d a2bd 29d8 dbbd 5f60 143d
00000060: 92ec d7b8 51ba 823d e276 4cbd 4b5c 073e
00000070: bf27 97bd dfca a3bd 7832 0ebd c523 37bc
00000080: cc87 163d 6aab f83c 999f e53c 7675 3cbd
00000090: 5be6 33bc 007d 993c 4930 d6bc 2e04 a7bd
000000a0: 23f2 b03d aecd b9bd dce6 a6bd 50b7 43bd
000000b0: fe90 4dbd 4421 9ebd 5da5 f03d 3966 49bd
000000c0: dca2 aabc 558e ee3d 0ca7 c03d 1f6d c4bd
000000d0: 2573 db3d e525 c43c 2b61 f83d 341b 573d
000000e0: 7b07 bfbd 9365 1dbd 837d 653c fbeb 28bd
000000f0: 1724 57bd 3ecc 36b9 7584 023e 9b9e 67bd
00000100: fab7 453c b7ca 4b3d 6fbd 993d b131 ebbd
00000110: 93a5 86bb 57df 1abc d9e0 5c3d bbb3 dd3d
00000120: c6e2 92bd 42fc 903d 275c 35bd f6d3 373b
00000130: 79f2 f03d df53 b3bd 07ce 26bd 7993 613d
00000140: acf5 c73d e4c0 9abc f4d6 403c 5190 f83d
00000150: 67ba 0a3e dfde 983d 1d6b 903d 9c86 10bc
00000160: 6877 8dbd 512a 3bbc 99aa d5bd ff02 16bd
00000170: 4a60 f23d d51a 863d 22ea de3d ad13 f23b
00000180: c3ee a03d c35e 053e 71de f73b 37b1 253d
00000190: c39b 76bd 12f2 99bc d237 c33b d815 2fbd
000001a0: 384a 473d e0fc 7dbd baa7 cabd 2792 013e
000001b0: f44e 9b3d c5e8 c23d 0634 863d c371 b8bc
000001c0: 5d70 58bb cb99 aebd 9e20 84bd cda4 203c
000001d0: a6ab cbbd 7b7e 73bd a105 c4bd 7d86 ae3d
000001e0: 5859 733d 206a 843d 9098 483d 3acb 5a3d
000001f0: b9e2 1dbb 511e dcbc 294f 82bd 3d92 353c
00000200: dedb da3d 7b34 883d cb5b 9bbd 74f3 b73c
00000210: d3c7 243e f681 c8bd 02be 3bbc bd0f ca3d
00000220: a5f9 a6bd 12d9 293d 15c3 d13d 9fe8 103d
00000230: b22b 53bd 2a08 cdb9 15f7 b93c 0b8c f73d
00000240: e5b0 91bd ef93 3b3c 573e c83d 63f1 fe3d
00000250: 5a20 24bd 5db0 bd3d ad40 1f3d b245 72bd
00000260: 482b 1d3d fd9f 90bd ee8a 263d 1223 0b3e
00000270: f2ce 7a3d 53fd 59bd 5439 e33d 85eb b4bd
00000280: 6e34 b93d 2ef7 c13d 19c0 b23d 504c de3d
00000290: b59e aabd 0984 cfbd 3f8f c4bd 2ec5 99bb
000002a0: 1a99 00be d163 b43c 303b 0fbd 9563 023e
000002b0: 330e 973c 9103 cf3d 72e5 f5bd 16f2 ca3d
000002c0: e7f3 00be 1009 57bd 4d69 c8bd f2a3 87bd
000002d0: ffbd e9bd cc73 e13d 6ad7 74bc 313c a63d
000002e0: 8786 87bc 3e20 0abe 2782 abbd 9def f33c
000002f0: e5a4 0e3e 8a79 1ebc 4216 43bc eea9 753d
00000300: 8fc0 82bd 0564 42bb 4ea1 5dbd 07cf c5bd
00000310: ec85 353e 7931 48bd 11d1 0d3d bccc debc
00000320: f7ad aa3d 4ddc 393d 52ca d03d 5c82 d23d
00000330: a411 b4bd 16aa 01bd 3bc7 863d 6558 fd3d
00000340: 7c26 87bd 4539 213e 82d3 9fbd 7052 b73d
00000350: af3e 013e 304d bcbc ed34 9ebd 6bd4 5dbd
00000360: 3212 233d d6a1 523e c9c4 a6bd 38bf e83d
00000370: 9c13 f8bb c54e 023d 8e2b 403d 8ce9 31bd
00000380: 7bbe 4d3b 9944 a83d 5ee8 88bd 7f13 293c
00000390: ff40 8a3d 2865 e33d 6b68 a1bd 4ee8 9cbb
000003a0: 7b4f 92bd fc09 643d c77f f03d 774e 60bd
000003b0: 1e7a e53d beec 763d 83f2 003e bcea b9bd
000003c0: 7c15 c53d e30c a0bd d5e6 e03c 057e 493d
000003d0: 79c5 283d 7bd2 e73c 2e1b 9abd c6c9 aa3d
000003e0: 8ab2 37bb fe15 30bd 80ad 6cbd ae79 59bc
000003f0: 8375 38bc cf8c fcbc b18f e4bd 7f81 d83c
0.006566158 0.04295357 -0.019883633 -0.07830748 0.13373943 -0.036471266 0.15389308 -0.05365977
0.00816684 -0.05894014 0.07918402 0.08881953 0.05664473 0.088827394 -0.06371464 0.016506989
0.026131023 0.154152 0.122846514 0.13521497 0.016171627 -0.07921957 -0.10734589 0.03622472
-0.000102960636 0.06383193 -0.049918063 0.132188 -0.07380628 -0.07997679 -0.0347161 -0.011177962
0.0367506 0.030355174 0.028030204 -0.046010457 -0.010980214 0.018736362 -0.026146071 -0.08155094
0.08639934 -0.090724334 -0.08149502 -0.047782242 -0.050187103 -0.07721189 0.117502905 -0.049169753
-0.02082961 0.116482414 0.09406862 -0.09591126 0.107153215 0.02394385 0.12127908 0.052516177
-0.09327599 -0.038426947 0.014006975 -0.041240674 -0.052524652 -0.00017432959 0.12745841 -0.056547742
0.012067789 0.04975387 0.07506835 -0.11484087 -0.0041090935 -0.009452662 0.05392537 0.108252965
-0.0717216 0.07079364 -0.044277336 0.0028049923 0.11764998 -0.087562315 -0.040723827 0.05507228
0.09763655 -0.018890806 0.011769999 0.12136901 0.1354767 0.07464384 0.0705168 -0.008821156
-0.069075406 -0.011423663 -0.104329295 -0.03662395 0.11834772 0.065480866 0.10884501 0.0073875994
0.0785804 0.1302443 0.007564359 0.04045221 -0.06020714 -0.018792186 0.005957582 -0.04274544
0.048654765 -0.06200874 -0.098952726 0.12653409 0.075834185 0.095170535 0.065528914 -0.022515183
-0.0033025958 -0.085254274 -0.06451534 0.009804917 -0.09944849 -0.059446793 -0.09571386 0.08521745
0.059411377 0.06465554 0.04897362 0.05341647 -0.0024091436 -0.026869925 -0.06362755 0.011082229
0.106864676 0.06650635 -0.075858675 0.022454955 0.16091852 -0.09790413 -0.011458876 0.09866283
-0.08153085 0.04146678 0.10242287 0.035378095 -0.051555343 -0.0003910673 0.022700826 0.12087258
-0.07113818 0.011448844 0.097775154 0.124483846 -0.040069915 0.09262154 0.03888004 -0.059148498
0.038371354 -0.07061765 0.040659837 0.13587597 0.061232515 -0.053220104 0.11094919 -0.08833984
0.09043203 0.09470974 0.08728046 0.10854399 -0.08331052 -0.101326056 -0.095976345 -0.004692695
-0.12558404 0.022020252 -0.034968555 0.127333 0.018439388 0.10108102 -0.12006654 0.099094555
-0.12593041 -0.052498877 -0.097857095 -0.06623067 -0.11413192 0.110084146 -0.014943937 0.08116949
-0.01654364 -0.13488862 -0.08374434 0.029777342 0.1393009 -0.009672532 -0.011907162 0.05997651
-0.06384384 -0.0029661667 -0.05410891 -0.09658628 0.17726868 -0.048875306 0.03462321 -0.027197234
0.083339624 0.04537611 0.101948395 0.1027877 -0.08792427 -0.031656347 0.06580969 0.123703755
-0.06599137 0.15744503 -0.07804014 0.089512706 0.12621568 -0.022986025 -0.077249385 -0.054157656
0.039812274 0.20569548 -0.081430025 0.11364597 -0.007570697 0.0318134 0.046916537 -0.04343562
0.0031394053 0.08216209 -0.066849455 0.01031959 0.06750678 0.111032784 -0.07881244 -0.004788435
-0.07144066 0.055673584 0.117431216 -0.05476233 0.11204933 0.06028437 0.12592511 -0.09077975
0.096232384 -0.07814958 0.02745382 0.049192447 0.04120395 0.028298607 -0.07524715 0.083392665
-0.0028030002 -0.042989723 -0.05778265 -0.01327364 -0.011258486 -0.030828862 -0.111602195 0.026428936
